checkpoints_gp2/discriminator_checkpoint20.pth.tar (torch_old, 149607 bytes, 27 tensors)

gru.weight_ih_l0 f4 [105, 6]
000000 2f 86 5b 3d 8f 10 f9 3c ab 2e 87 3b aa 05 bf 3d
       0.053594764 0.030403404 0.0041254363 0.09327252
000010 cb 8e 03 3e 01 f1 b3 bd 01 76 29 3e 73 d0 65 bc
       0.1284744 -0.08786202 0.16548921 -0.014026749
000020 6f 30 3c 3e 9d 70 9f bd f5 75 0d 3d 8a b8 94 3a
       0.18377851 -0.07785151 0.03453632 0.0011346501
000030 ba d5 1e 3e 2e 4a 3a be 66 c6 1c bc ea a8 cd 3d
       0.15511218 -0.1819236 -0.009568786 0.100419834
000040 27 51 36 3e c9 ab 42 3e 1e 60 de 3b 1a f9 75 be
       0.17804395 0.19010843 0.0067863604 -0.24020806
000050 dc 12 f1 3d b6 4a c8 bb b4 30 d8 bd f7 78 0b bd
       0.11771175 -0.006112422 -0.105561644 -0.034050908
000060 22 94 a0 bd 8f 75 44 be 36 5b 72 bd 71 a8 96 3d
       -0.07840754 -0.1918547 -0.059169017 0.073563464
000070 3d 53 b0 bd b3 6c cd 3d 85 67 aa bd 52 90 ac bd
       -0.086096264 0.10030498 -0.08320526 -0.084259644
000080 0a ce be bd ee b4 76 bb e7 a3 c7 bd 97 b5 dc 3d
       -0.093166426 -0.0037644464 -0.09748059 0.10776823
000090 95 55 0b bd f4 f8 14 3e f5 8e 95 bd 43 c4 16 3e
       -0.034017164 0.14548093 -0.073026575 0.14723305
0000a0 a9 39 f4 3c e5 92 17 bd 69 78 87 bd b5 a7 e7 bd
       0.02981265 -0.037005324 -0.06614763 -0.113112845
0000b0 b4 63 fa bd 2a cb 04 be 68 b8 96 bd 41 75 29 3e
       -0.12226048 -0.12968126 -0.073593915 0.16548635
0000c0 8a 5c 39 3e bb b3 5d 3d 49 e2 95 bd 5f c6 5b bd
       0.18101707 0.054126482 -0.07318551 -0.05365598
0000d0 ee 45 97 bc 8e e8 e7 3d 63 4b 69 bd 5b 8b 32 be
       -0.018465962 0.11323653 -0.05695666 -0.17435972
0000e0 d7 3a ee bd 58 ee 23 3d a4 28 16 bd 57 b9 79 3d
       -0.116323166 0.040022224 -0.03665985 0.06096777
0000f0 a1 1e cb bd e8 06 1f be e1 37 00 3d 9d 2b cb bd
       -0.099179514 -0.15529978 0.03130329 -0.09920428
000100 96 bd 9d 3d be df 85 3d 7c 5a 22 be 1b 2f 90 bd
       0.07702176 0.06536816 -0.1585483 -0.07040235
000110 9c 41 9f 3c d6 be 16 3e 2c 4b 99 3a 59 93 0f be
       0.019440465 0.14721236 0.0011695377 -0.14021052
000120 cf c7 08 3e 54 6d 88 bd 50 38 ba 3c 65 5b 17 3e
       0.13357471 -0.06661478 0.02273193 0.14780958
000130 af 7c 4b 3d cb 76 05 3d 25 ad e1 bd 69 bc 04 be
       0.049679454 0.032583993 -0.11019353 -0.12962498
000140 cf 43 96 bc 15 d9 12 be 18 3c 1e bd 95 e5 13 be
       -0.01834288 -0.14340623 -0.03863153 -0.14443047
000150 1e 15 1e 3e 20 bb b2 3d bd 6c 9d 3d cf 63 07 3d
       0.15437743 0.087270975 0.07686756 0.03305417
000160 4a 84 2b be 87 9b b3 3d c7 d2 22 be 15 a3 29 be
       -0.16749683 0.08769899 -0.15900718 -0.16566117
000170 29 09 d9 bd c1 f2 34 3e fe 39 7a bd e2 29 1b 3e
       -0.1059745 0.17670728 -0.061090462 0.15152696
000180 4a 94 87 3d 73 79 13 be 0e c8 54 3d ca 58 cc 3d
       0.06620081 -0.14401798 0.0519486 0.09977873
000190 cd 4d 1c 3e d2 d9 4a 3d b3 85 00 3e 73 32 fc bd
       0.15264054 0.049524136 0.12551002 -0.1231431
0001a0 98 4c 91 3d fd 23 f8 3d 64 a6 83 bc 94 f6 b4 bd
       0.07094687 0.12116239 -0.016070552 -0.088360935
0001b0 71 da ac bd 85 d1 21 be 99 28 30 bd 3a af a7 bd
       -0.08440102 -0.15802582 -0.043007467 -0.08187719
0001c0 18 97 f8 3d e4 7a 50 3c 36 fa 19 3e e9 84 8b bc
       0.12138194 0.012724612 0.15036854 -0.01703115
0001d0 ce 8f 99 39 f7 de f4 bb 78 72 02 3e 93 48 9f 3c
       0.00029289577 -0.0074728685 0.12738979 0.019443786
0001e0 8d e0 2c be 99 57 51 be 67 af ee bc f6 7c 02 3e
       -0.16882534 -0.20443572 -0.029136373 0.12742981
0001f0 83 c5 44 bd 64 06 eb 3c d6 4d 3d 3d 16 2e 05 be
       -0.048039924 0.02868957 0.04621681 -0.13005862
000200 31 4f ac bd e1 25 2b 3e ba d9 b5 3d 98 43 99 3d
       -0.08413542 0.16713668 0.08879419 0.074835956
000210 d1 f7 12 3e 70 d6 a6 bd c3 2b bf 3d 98 e2 c0 bc
       0.14352347 -0.081463695 0.09334519 -0.023545548
000220 33 06 03 3e fa 25 78 bd d3 95 c1 3d 63 1b 8d bd
       0.12795334 -0.060583092 0.09452405 -0.06889989
000230 06 d1 41 3c 44 79 35 bd ec c7 1c be 26 20 21 3e
       0.01182962 -0.0443051 -0.15310639 0.1573492
000240 20 32 17 3e b4 7e a8 3d 38 b6 08 3e f5 e9 de bd
       0.14765215 0.08227292 0.13350761 -0.108844675
000250 e1 35 1b 3d 1a bc ef 3d 88 c5 18 3e 53 63 81 be
       0.03789318 0.117057994 0.14919102 -0.2527109
000260 45 f3 df bd b8 32 2e 3e c9 ac 10 3e 29 b9 15 be
       -0.10935072 0.17011535 0.14128412 -0.14621414
000270 bd a9 4c bd 40 a6 ac bd d7 cf 27 3d a7 7c 43 bb
       -0.049966563 -0.08430147 0.040969696 -0.0029828937
000280 5a 5d 61 3c 89 9e 08 3e 6e a8 01 be 04 2a 76 3d
       0.013755167 0.13341726 -0.12661907 0.060098663
000290 88 50 8d 3d 81 8d 3f bd 1b b1 a3 bd 86 1f d9 3d
       0.06900126 -0.046765808 -0.079927646 0.10601716
0002a0 ab d7 73 bd d7 74 3c be 3b 72 a9 3d 75 e4 b8 3d
       -0.05953185 -0.18403946 0.08273741 0.0902795
0002b0 8a ec 92 bc 5a b3 c6 3d 20 59 2d 3e 10 06 fc 3d
       -0.017935056 0.09702177 0.1692853 0.12305844
0002c0 81 ad 2e 3e 27 f6 e8 3b ef 4c 01 be 39 29 ae bd
       0.17058374 0.007109422 -0.12627004 -0.08503956
0002d0 37 9e e1 3a 2c 19 05 bd d9 83 28 bc bf d0 20 3e
       0.0017213289 -0.03249471 -0.010285341 0.1570463
0002e0 70 14 cb bd 65 44 d8 3d a6 47 07 3e 2e 93 63 bd
       -0.099160075 0.1055992 0.13210925 -0.055560283
0002f0 d3 c0 14 be bb dc 75 3c 8f bb 43 3d df 62 38 3e
       -0.14526682 0.0150062395 0.04778629 0.18006466
000300 ac 53 a9 3d dc c6 00 3e 44 89 c7 3d 08 85 22 3d
       0.08267912 0.12575859 0.09742978 0.03967765
000310 6c 6b 34 3e 7f e7 2d 3e 07 bc 1f be 32 0f 46 be
       0.17619103 0.1698284 -0.1559907 -0.19341734
000320 6f 45 d4 bc ea ae 10 3e eb 53 10 3e c3 85 12 3e
       -0.025912015 0.14129224 0.14094512 0.14308839
000330 1c 32 14 3e db b4 03 3d 24 b8 57 3d fd 98 9d bc
       0.1447224 0.0321549 0.052665845 -0.01923799
000340 b5 80 05 be 0a da 01 3e 69 14 a1 bc 8a 94 86 bd
       -0.13037379 0.12680832 -0.019663053 -0.065713
000350 f4 bc 70 3d fa 23 3d be 64 73 8f bc 6a cd fe 3c
       0.05877395 -0.18470755 -0.017511077 0.031103808
000360 bf 37 a1 bc fb 4e 7a be de 01 12 be 6a 1c 30 3b
       -0.019679902 -0.24444191 -0.14258525 0.0026872405
000370 2e 1f 19 be 2d a6 20 be ec 36 2d 3e 54 f8 57 3e
       -0.149533 -0.15688391 0.16915482 0.21090823
000380 4b 97 10 be 25 59 1e 3d 45 10 08 3e c9 73 28 3e
       -0.14120214 0.038659234 0.13287456 0.16450419
000390 77 ea bb bd 0e 08 a3 be 05 ba 87 bd 17 1b e5 bd
       -0.0917558 -0.31842083 -0.06627277 -0.111868076
0003a0 7b 8b fc bc 81 e0 38 bd 33 68 45 3e f5 96 c9 3d
       -0.030828228 -0.04513598 0.1927803 0.09843246
0003b0 cc 26 40 be a2 b0 d4 bd 70 78 0f bd 01 87 ce bc
       -0.187648 -0.103852525 -0.035026968 -0.02521086
0003c0 c6 a3 aa 3b ea 86 8f 3e b3 0a a5 3d 21 c0 05 3e
       0.0052075116 0.2803262 0.08058681 0.13061573
0003d0 6f 92 53 be 00 cc 86 bc cd 5f 43 3e 29 76 d7 3e
       -0.20661329 -0.016454697 0.19079514 0.42082337
0003e0 e0 be b5 bd 4f d0 7f bd 7b e1 ea 3d 59 cc 05 3e
       -0.08874297 -0.062454518 0.11468788 0.13066234
0003f0 60 4e a6 3d 3d ae 8f 3e ca f8 c4 bd 72 93 17 be
       0.081204176 0.2806262 -0.09617765 -0.1480234

gru.weight_hh_l0 f4 [105, 35]
000000 c2 aa 2a 3d a4 6c 36 3e 21 d8 89 3d 9d 11 1d 3e
       0.041666754 0.1781488 0.067306764 0.1533875
000010 e8 4a d5 bd 71 4d c0 3d ac 62 69 3d 1a 98 04 be
       -0.10414678 0.09389771 0.056978866 -0.12948647
000020 61 c3 c2 3c fe 3e d2 bd 8b 28 2b bd 80 68 d2 3c
       0.023774805 -0.10265921 -0.04178671 0.025684595
000030 c3 8a fb 3d 74 fd 8b 3d e5 a2 07 3d dd e9 37 be
       0.12282326 0.06835452 0.033114333 -0.17960306
000040 1b 55 b5 3d 79 ac 63 3d 39 f8 6a 3d d7 91 0a 3e
       0.08854123 0.055584405 0.05736563 0.13532196
000050 78 36 27 bd f1 1a 20 3e 51 72 b7 3d e8 06 c3 bd
       -0.04082343 0.15635277 0.08957351 -0.09522802
000060 fa 9b df 3d 90 e4 0e be 9f 18 30 3d 49 17 24 be
       0.10918422 -0.13954377 0.04299223 -0.16024508
000070 fb 5c 43 3d 54 f6 f7 bd a5 01 0f 3e 79 14 cc 3d
       0.047696095 -0.1210753 0.13965471 0.09964842
000080 05 a1 b1 3d 96 94 13 be 5e 82 f2 3d a2 e0 2a be
       0.0867329 -0.1441215 0.11841272 -0.16687253
000090 52 c0 7f bc eb 40 0a 3e 34 8e 50 bd 8a 99 a3 3d
       -0.015609818 0.13501327 -0.050916865 0.079882696
0000a0 fe 40 7f 3e 20 95 98 bd 34 4e 86 3e ca fe 3c bd
       0.24927136 -0.07450318 0.2623154 -0.046141423
0000b0 48 17 32 be b5 8a 2a 3d 22 53 b3 3d 74 8d 37 3e
       -0.17391694 0.041636188 0.08756091 0.17925054
0000c0 37 82 4a be 1e 90 60 be 07 92 60 3d 0a 06 b0 bd
       -0.19776236 -0.21929976 0.054826763 -0.08594902
0000d0 d2 89 ab 3d e6 2b a3 bb 43 5e ab bd 62 b2 f3 bd
       0.083758965 -0.0049795983 -0.08367588 -0.11899258
0000e0 16 9c d7 3c 12 63 5a be cc 27 87 3e 06 9e 48 3e
       0.026319545 -0.21326855 0.2639755 0.19591531
0000f0 3b cd 4e 3c 84 bd 05 3e a9 9b 07 3c e7 58 d6 bd
       0.012622173 0.13060576 0.008276858 -0.104661755
000100 c1 8a a6 bc d5 dd 7d 3e 3e cf ec 3d e0 d7 15 3d
       -0.020329835 0.24791653 0.11562966 0.036582828
000110 80 41 9e bc 66 86 2c 3d db 40 42 be be b6 d5 bd
       -0.019318342 0.04212036 -0.18970053 -0.10435246
000120 0f d8 b1 bd 47 03 0e 3d d1 76 25 3d a1 a4 32 3b
       -0.08683788 0.034671094 0.040396515 0.002725877
000130 04 1b d8 3d b9 0b db bd c2 c3 c1 bd 5e ef a6 3d
       0.10552028 -0.10695595 -0.09461166 0.081511244
000140 76 c5 30 be da 44 8d bc 58 ba 0e be 74 c7 13 be
       -0.17262825 -0.017244745 -0.13938272 -0.14431554
000150 83 da 23 be 10 2b 9d 3d fd d4 f7 3d 97 0a bb 3d
       -0.16001324 0.07674229 0.12101171 0.09132879
000160 45 b6 3f 3d 09 73 07 3e 21 0f 04 3e 14 6e 34 3c
       0.046804685 0.13227476 0.12896396 0.011012573
000170 96 69 e3 3d 14 36 ee 3d 1e ca 0b be 2c 0d 78 3d
       0.11104123 0.11631408 -0.1365132 0.060559437
000180 9c ea db bd 11 e9 68 3d 64 b1 ee bd 52 bc 19 be
       -0.107381076 0.056862894 -0.11654928 -0.15013245
000190 27 7e 33 bd 72 3d 0e 3e da e3 e4 bc 8c 98 be bd
       -0.04382148 0.13890627 -0.02794068 -0.0930644
0001a0 3c 58 27 3e 77 e1 51 3c 07 93 30 be 04 50 1e 3d
       0.16342252 0.012810103 -0.17243586 0.038650528
0001b0 ad bb 2e 3e c4 8a 8f bd dd e0 9e 3c 7c a3 12 be
       0.1706378 -0.07008889 0.019394333 -0.14320177
0001c0 5b 46 b2 bc e7 b7 57 3c 8d 2c 10 3d 90 a5 25 be
       -0.021762064 0.013166404 0.035198737 -0.16176438
0001d0 77 cf 3d bd 03 75 98 3c 0d 72 12 3d 03 6a 86 3c
       -0.046340432 0.018610483 0.0357533 0.016407972
0001e0 45 a4 a4 bd 07 ce 66 bd 6c ea 49 be a6 74 23 be
       -0.080391444 -0.056348827 -0.19718331 -0.15962467
0001f0 ff 40 0d 3e 24 9a cb bd 45 72 07 3e 2b 9b db bd
       0.13794325 -0.09941509 0.13227184 -0.10722955
000200 82 22 0b 3e 09 2e d9 bd 9c 83 5c 3e 35 86 fb 3d
       0.13587382 -0.10604484 0.2153458 0.12281457
000210 55 38 bc 3d 7e ba e1 3d 07 86 ea 3c 76 0d 2b be
       0.09190432 0.11021899 0.028628362 -0.16704354
000220 54 6f c4 bc 37 77 cb bd 70 11 35 3e 2f 70 1a 3c
       -0.023978867 -0.09934848 0.17682433 0.009426161
000230 4c 34 d7 bd a2 d2 44 be 3d 84 e6 3c c8 1b 54 bc
       -0.10508022 -0.19220975 0.028139228 -0.012946077
000240 d2 08 19 be 30 d0 a4 bc c5 c7 b1 3c 3e ed a8 3d
       -0.14944771 -0.020118803 0.021701703 0.08248375
000250 da 79 57 bd d5 6e 96 bd 9e 70 71 3d a1 14 62 bd
       -0.05260644 -0.07345358 0.05894529 -0.055195455
000260 84 92 d9 3c b5 a5 a7 3d 23 97 8c bd 66 37 18 be
       0.026559122 0.08185903 -0.068647645 -0.14864883
000270 c9 63 a3 bd ae bc d2 bc 06 50 26 3b fa d6 97 3d
       -0.07978017 -0.025724735 0.0025377288 0.074140504
000280 a6 5c 8e bd 59 f8 2c be d3 f7 3a 3d ee 77 72 bd
       -0.06951265 -0.16891612 0.0456465 -0.059196405
000290 20 52 f3 bd 38 f5 4f bd be 05 fb 3c 44 e2 b9 bd
       -0.118808985 -0.05077097 0.030642387 -0.0907636
0002a0 51 30 c1 3c 9c 65 e0 bd ab 00 3c 3d 61 31 c0 3c
       0.02358261 -0.109568805 0.045899075 0.023461046
0002b0 55 91 92 3c 46 e0 17 3e 79 d7 f3 3d c0 b2 3f be
       0.017891565 0.14831647 0.119063325 -0.18720531
0002c0 13 6c 56 3d 78 52 c7 b9 0b 1f 5f 3e a2 a7 d5 bd
       0.05234916 -0.00038017682 0.21789186 -0.10432364
0002d0 95 a6 e5 bb 75 66 07 3e d0 09 6e bd f6 a6 b3 bd
       -0.0070083835 0.13222678 -0.058114827 -0.0877208
0002e0 a2 23 bf bd b0 5b a5 3c 1c 4a 08 3e ee 15 31 bd
       -0.09332968 0.020185322 0.1330952 -0.043233804
0002f0 ac 8d 9f bd c3 d0 e1 bd 52 66 15 3e 71 62 d7 bc
       -0.07790694 -0.11026146 0.14589813 -0.026292058
000300 78 ad bd bd b3 07 54 bd e2 90 88 3d 2a c8 11 3e
       -0.09261602 -0.051765155 0.06668259 0.14236513
000310 f0 a6 97 3d ad 8b 25 3d 00 e8 a9 bd ca 42 34 be
       0.07404888 0.04041641 -0.082962036 -0.17603603
000320 7d ec 70 3b b8 c3 3c be b9 c0 58 bd 07 84 05 be
       0.0036762052 -0.18434036 -0.05291817 -0.13038646
000330 60 cf 19 3e 59 28 48 be 18 fa 02 3e a6 ca 02 3e
       0.15020514 -0.19546641 0.12790716 0.12772617
000340 d3 92 18 bc 25 8c f7 3d b1 2a a8 3d ae bf 95 bd
       -0.009312349 0.12087277 0.08211268 -0.073119506
000350 42 2a f4 3d e8 ad 70 bd 5d 43 d2 3c a6 db a6 ba
       0.119221225 -0.0587596 0.025666887 -0.0012730255
000360 69 72 22 be 40 35 b0 3c e8 6c 73 3c 4e aa ef 3c
       -0.15863957 0.021509767 0.014857508 0.029256012
000370 4a ee bc 3c 73 6e b7 3d a0 12 15 3e e1 5c 25 bc
       0.023062844 0.089566134 0.14557886 -0.010092945
000380 53 aa a2 bd 71 fe 0f 3e 5e 2b 32 be 86 53 03 3d
       -0.07942643 0.14061905 -0.17399356 0.032062076
000390 42 df 38 3d b8 85 da 3d 40 ee f3 bd a8 d5 37 bd
       0.04513479 0.10670036 -0.11910677 -0.044881493
0003a0 3d 1d 00 bb 80 00 d6 3d 1e 10 3a 3d 07 c1 e5 bd
       -0.0019548677 0.10449314 0.045425527 -0.11218458
0003b0 30 cf 1c 3e 46 0a 27 3d 05 f0 4c bd 5b 08 21 bd
       0.15313411 0.040781282 -0.050033588 -0.03931461
0003c0 45 ff 97 bd 00 6a 3c 3e 58 06 de bc a4 e1 99 3d
       -0.07421736 0.18399811 -0.027102634 0.07513741
0003d0 06 7c e8 3d ee a8 57 bd 26 a8 8f bd 19 94 dc bc
       0.113517806 -0.05265134 -0.07014494 -0.026926087
0003e0 8d 7e f1 3d c0 e7 cf 3d 67 aa 47 bc 32 67 84 bc
       0.11791716 0.10151625 -0.012186623 -0.016162489
0003f0 43 a9 48 bd 90 d7 ac 3b 3d a6 58 3c fa 31 06 3d
       -0.048989546 0.0052747205 0.013223228 0.032762505

gru.bias_ih_l0 f4 [105]
000000 b8 5d 2f 3e 84 19 84 bd 7d 04 e1 3d a4 69 c4 bc
       0.17125595 -0.06450179 0.10987184 -0.023976155
000010 99 37 f8 3d 9d 0f 33 3e f3 78 e6 bd ca 73 01 be
       0.121199794 0.17486425 -0.11253538 -0.12641826
000020 85 95 35 3e 13 f8 55 3e 18 ab 8e bd d5 b6 20 3e
       0.17732818 0.20895414 -0.06966227 0.15694745
000030 35 50 cb bd 12 33 34 3e 46 cb 23 3e c0 0d 31 bd
       -0.09927408 0.17597607 0.15995511 -0.043226004
000040 55 3e 4e bd b5 8d 51 3e 5a 36 a0 3d b6 60 3d 3b
       -0.050352413 0.20464213 0.07822867 0.0028896756
000050 d2 26 d5 bd dc 38 50 bb 1d 67 28 3e c3 fc 0c 3e
       -0.10407795 -0.0031772172 0.16445585 0.13768296
000060 3b ad 41 3c 8a e3 17 bd 41 ad 1f 3d f1 ec 86 bd
       0.0118210865 -0.037082233 0.038983587 -0.06588162
000070 98 ff 3b 3d 7d 69 9f 3d f7 89 b1 3c 05 91 11 bd
       0.04589805 0.07783792 0.021672232 -0.035538692
000080 fd fe b4 bd 45 61 5b 3e 0d 31 9c bd e4 41 41 be
       -0.08837698 0.21423824 -0.07626543 -0.18872792
000090 57 6a ad bc 17 37 b9 3d 69 4e 17 be af e7 68 be
       -0.02116887 0.09043711 -0.14776005 -0.2274463
0000a0 56 a2 ea 3c 5c 7d 47 3e 90 68 0f 3d e7 b6 a1 bd
       0.028641861 0.19481415 0.035011828 -0.07896214
0000b0 82 76 8a bd f2 ae d6 bd 50 75 09 be e2 89 f6 bd
       -0.06760885 -0.10482587 -0.13423657 -0.12038018
0000c0 90 db 3a bd bf 6d 86 39 f0 09 9b bd 0b 8d ae 3d
       -0.045619547 0.0002564024 -0.07570255 0.085229956
0000d0 bd 23 2e bc ba cd 60 be 02 9c c8 3d 2a b3 c4 3c
       -0.010628638 -0.21953478 0.09795381 0.024011213
0000e0 a4 8a a9 bc 33 18 46 3d 29 5e 80 bd cb f9 6b 3d
       -0.020695992 0.048362922 -0.062679596 0.057611268
0000f0 24 55 ea 3c d6 6f 26 3d 20 1a 5d be 40 00 58 be
       0.028605051 0.040634 -0.21591997 -0.21093845
000100 24 d6 14 be 96 53 0d be 32 59 07 be 22 34 e0 bc
       -0.14534813 -0.13801417 -0.13217619 -0.027368609
000110 0c 1c 59 bd df 7c 7c bc 6a cd b8 3d e3 8d 6d bd
       -0.053005263 -0.015410631 0.090235546 -0.05799664
000120 77 52 a2 bd 9a 60 01 3e 2e cd ba bd d0 53 84 bd
       -0.07925885 0.12634507 -0.09121166 -0.064612985
000130 29 01 0d be e7 1b ab bd a9 89 fe 3d 60 97 d9 3c
       -0.13769974 -0.08354931 0.124286 0.026561439
000140 c5 5a 99 bd 54 2f 04 3e ba 84 05 3e 90 14 e7 bd
       -0.07488016 0.12908679 0.13038912 -0.11283219
000150 e0 19 c6 bd b3 ca fa 3d 32 d3 71 3d 9c b9 d4 3c
       -0.09672904 0.12245693 0.059039302 0.025967412
000160 64 5d 2b bd 64 9c 8a bd 72 12 92 3c 08 c3 cf bc
       -0.04183711 -0.067681104 0.017831061 -0.025361553
000170 50 c1 a3 bd d8 1e ac 3d b8 0b 91 bb 31 6b 09 3e
       -0.07995856 0.084043205 -0.004426446 0.13419797
000180 a2 bf 83 3d ed 1d a9 bd d8 a0 79 bd 00 dd 13 3e
       0.064330354 -0.08257661 -0.06094441 0.14439774
000190 56 4b 24 bc e0 0b f6 bd d9 a1 07 be de 40 6f 3d
       -0.010027727 -0.12013984 -0.13245334 0.05841147
0001a0 f2 89 f3 3d
       0.11891545

gru.bias_hh_l0 f4 [105]
000000 3f ee 42 bb 14 d7 60 3d cd c6 78 bd fc 56 47 bd
       -0.0029744057 0.054892614 -0.060736466 -0.04866694
000010 92 49 79 bd 7d 13 da 38 2e 45 70 3d c0 b8 57 bd
       -0.060861178 0.0001039868 0.058659725 -0.052666426
000020 5d 69 79 3c ad 40 14 3e 11 07 7b bd 69 ca c7 bd
       0.0152228745 0.14477797 -0.061286036 -0.097554035
000030 3e a1 95 bd aa 70 2c bc 08 5a 30 3e 1a 26 77 3b
       -0.07306145 -0.010524908 0.17221844 0.003771192
000040 ff ef c9 3d 5d 5d 1a 3e 09 2b 0c 3e 6b 7c 1d 3e
       0.09860229 0.15074678 0.13688292 0.15379493
000050 ea 59 89 bd 8a ee 20 3e e6 28 04 3e a1 d6 a9 3d
       -0.06706603 0.15715995 0.12906227 0.0829289
000060 fd 44 14 bd ad 03 be 3d 71 7c 8b bd a8 9d aa 3d
       -0.036198605 0.09278045 -0.06810845 0.08330852
000070 ef 86 dd 3d 3f e2 7a bd d4 df 5b 3d fc 8b 0c 3e
       0.10816752 -0.06125092 0.053680256 0.13725275
000080 4c 82 43 bd 8e 35 af 3d fe e5 20 3d 3b e2 a7 bd
       -0.047731683 0.085551366 0.039281838 -0.08197447
000090 21 e5 55 bc dd 57 11 3d 23 a2 7e 3d 1f 52 bd bd
       -0.013055117 0.035484184 0.062166344 -0.09244179
0000a0 83 95 00 bd 4e 50 56 3e 0c a2 47 be 93 7d c6 bd
       -0.031392585 0.20929071 -0.1949541 -0.0969192
0000b0 d3 5d 23 be d7 93 44 bc 9e ab 11 3e b5 b1 a8 bd
       -0.1595376 -0.011998138 0.14225623 -0.0823702
0000c0 52 57 ad 3d 34 84 d5 3b e8 9a d7 bd 2c 11 7a 3d
       0.08463921 0.006516004 -0.10527593 0.061051533
0000d0 fc bf 46 be c3 b0 ba bd f3 f0 14 be a8 1f b8 bd
       -0.19409174 -0.09115746 -0.1454504 -0.08990413
0000e0 79 58 55 3d 65 a6 02 be 87 f7 82 bd 26 c6 16 3e
       0.052086327 -0.12758787 -0.06394868 0.14724025
0000f0 b3 c6 2d 3c 6d 8f bc 3c 2b 90 33 be d2 b9 72 3d
       0.010606456 0.02301761 -0.17535464 0.059259243
000100 66 0a 1e 3b cd 08 f0 bd 49 cb 02 3d 61 af 40 3d
       0.0024115085 -0.117204286 0.03193215 0.047042254
000110 25 0e 68 3d 32 90 50 be 78 71 d7 b9 cc 23 1f 3e
       0.056654114 -0.20367506 -0.00041092536 0.15540999
000120 8c 58 20 3e 4d de e6 3d 1f 9d 31 bd 39 eb 0d 3d
       0.15658778 0.11272869 -0.043362733 0.034648154
000130 35 44 b7 3c 34 23 99 bd 2c f3 e5 bc 5c 0c bc bc
       0.02237139 -0.074774176 -0.028070055 -0.022955112
000140 bd cc 14 3c e3 20 7d bd de 47 de bd cb 02 31 3d
       0.009082017 -0.06179894 -0.10853551 0.043215554
000150 40 f2 3c be 48 8f 42 bc 3e 56 7e bd 7d 9b 59 3b
       -0.18451786 -0.011874981 -0.062093966 0.003320425
000160 8c 04 b1 bd ed aa 90 bd cd 09 70 3d 58 e2 9b bd
       -0.086434454 -0.070638515 0.058603097 -0.07611531
000170 bd e9 cb bd 5a af 32 bd ac 25 f6 3d a8 f5 3e be
       -0.099566914 -0.04362426 0.12018904 -0.18648398
000180 00 ad 0b 3e 4a a0 37 be 68 90 4f 3d 56 ed 96 3d
       0.13640213 -0.17932239 0.050674826 0.07369487
000190 37 30 8b bb 13 b1 b6 3c 56 06 21 bd b1 be 93 bd
       -0.004247691 0.022301232 -0.039312683 -0.07214106
0001a0 b8 67 2b 3d
       0.04184696

gru.weight_ih_l1 f4 [105, 35]
000000 6d df 84 bd 40 2b 75 be 56 02 55 bd b5 c6 17 3d
       -0.064879276 -0.2394228 -0.05200418 0.037054736
000010 5f 74 99 bd 0d 44 41 be 12 8a bf bd 68 df e2 3b
       -0.07492899 -0.18873616 -0.09352507 0.0069236048
000020 78 ed e4 bc 1e 0e ba 3d 8e c9 41 bd f6 c0 01 3c
       -0.027945265 0.09084724 -0.04731136 0.007919541
000030 d8 53 f5 bd 02 23 49 3e f4 be be bd af 1e 83 bc
       -0.119788826 0.1964226 -0.09313765 -0.016005842
000040 69 f9 74 3c a8 1b 28 3e a8 a1 31 3e f1 d4 40 3e
       0.014952042 0.164168 0.17346823 0.1883123
000050 56 3d 01 be d0 e5 b3 bd 3a 2d bd bb 46 07 39 bc
       -0.12621054 -0.08784068 -0.0057732137 -0.011293238
000060 00 d4 1f 3e 86 6a ee 3d a3 a1 28 3e 07 f3 88 bc
       0.15608215 0.116414115 0.1646791 -0.016717447
000070 b7 a6 1d 3d b0 e8 d1 3d 5b b7 f3 3d f5 ea 43 be
       0.03848907 0.1024946 0.11900207 -0.19132598
000080 85 d7 24 bb d9 d3 e0 bd 8c bb 88 3d 14 b9 9b bd
       -0.0025152874 -0.10977907 0.06676397 -0.0760366
000090 d4 ac 1d 3e a4 5b 2a bd 41 e8 92 bd 3c 9f b5 3d
       0.1539796 -0.0415913 -0.07173205 0.08868262
0000a0 93 62 db 3d af da 1f be 62 8d 24 3e 8d 73 c6 bd
       0.10712161 -0.15610765 0.16069558 -0.09690008
0000b0 57 08 a5 3d 9e 91 98 3c 60 58 03 3d 7c 74 13 3e
       0.08058231 0.018624123 0.032066703 0.14399904
0000c0 88 7b 32 bd 85 e0 ea bc 34 ae 06 be 16 08 e5 bd
       -0.04357484 -0.028671512 -0.1315239 -0.11183183
0000d0 02 ae 0d 3e ab eb 04 3e 38 8f 03 be 41 9a 17 3e
       0.1383591 0.12980525 -0.12847602 0.14804937
0000e0 d9 21 65 bd 6d 46 a7 3b e9 47 7b 3d 79 0a ed bd
       -0.055940483 0.005104831 0.061347876 -0.11574263
0000f0 cd f0 16 3e 73 71 05 bd d3 61 d1 bd 1b 0d d4 bb
       0.14740296 -0.032578897 -0.102237366 -0.006471289
000100 7e f7 be 3d da 7f 0c be bb d1 22 3e 42 2b 44 3d
       0.09324549 -0.13720647 0.15900318 0.047892816
000110 1e 8c 26 be 67 bb fa bd 41 b0 d1 bc a4 3c 58 be
       -0.16264388 -0.122427754 -0.02559674 -0.21116883
000120 57 fd 80 bd 7c 6d 9b 3d 40 d2 e7 bd 8e 22 0b 3c
       -0.06298321 0.07589242 -0.11319399 0.008492125
000130 e7 34 32 be 7a 08 41 bd 6c 2e 2a 3e 78 b8 08 3d
       -0.17402993 -0.047127225 0.16619271 0.033379048
000140 f8 8b 46 be a9 16 17 3e 52 1d 3f 3c 45 bd cf 3c
       -0.19389331 0.14754738 0.011664705 0.025358805
000150 f1 fb 3d be 4f 89 3a 3e 23 93 50 3d a7 03 f2 bd
       -0.1855314 0.18216442 0.05092157 -0.11817103
000160 ec c4 bc 3d 22 a7 d5 3d 84 69 05 3c c1 dc 9f 3d
       0.09217247 0.10432269 0.008142833 0.07805777
000170 d2 e8 f0 bd fe 59 44 3e 94 ce a3 3d a1 78 93 bd
       -0.11763157 0.19174954 0.07998386 -0.072007425
000180 f9 b2 c0 bc 4f 17 26 be 30 e4 f3 3d 4d c7 c7 3d
       -0.02352284 -0.16219829 0.11908758 0.097548105
000190 b1 ae f5 3d 42 0b 04 3e 5c f2 36 bd 2a 30 bf 3c
       0.1199621 0.1289492 -0.044664726 0.023338396
0001a0 a7 56 17 be 03 35 17 3e 9e 96 0e be 44 c6 21 3e
       -0.14779149 0.14766316 -0.13924643 0.15798289
0001b0 2c 47 f3 3b 99 ca 99 3d 78 dc 0e 3e 7a ae 08 be
       0.007424256 0.075093456 0.1395129 -0.13347808
0001c0 4d 0f 7d bd 34 a8 77 3c 22 74 2b 3e 36 61 0e bd
       -0.06178217 0.015115786 0.1674352 -0.034760676
0001d0 9b 31 e0 bd 50 de ec 3d da c9 74 3c 4a 86 df bd
       -0.109469615 0.1156584 0.014940703 -0.109142855
0001e0 6e 7c b5 3d 3a 9f 83 3d 40 6f b6 3d 6f 7a 2d be
       0.08861624 0.064268544 0.08907938 -0.16941236
0001f0 0e 62 5a bd 13 e3 0e bd ac 0e 57 bd 00 91 c9 3b
       -0.05331617 -0.034884524 -0.052504227 0.0061513186
000200 7c 09 d4 3b 4b bf 51 be 49 08 00 bd c9 c9 88 bd
       0.006470857 -0.20483129 -0.0312579 -0.066791125
000210 9f 7c c3 bc 20 a5 18 3e 17 26 9c 3c 6a 32 55 3c
       -0.023863135 0.1490674 0.019061131 0.013012508
000220 92 a1 14 3e a5 77 d9 3d 3d 12 26 be a1 6d 2a 3a
       0.14514759 0.106185235 -0.16217895 0.00065013213
000230 30 3a 9b bd bf 64 dd bd b4 b3 63 bd 02 e6 40 3e
       -0.07579458 -0.108102314 -0.0555913 0.18837741
000240 33 3b 6a 3d 6a 04 77 bd b6 96 98 bd 35 f8 3f bd
       0.057185363 -0.060306944 -0.07450621 -0.046867568
000250 9a 69 21 be e4 a4 17 bc e8 84 c7 bd 6f 65 ae bc
       -0.1576294 -0.009255622 -0.09742147 -0.021288602
000260 92 ce 1c be 0a 99 a5 3d 20 f7 33 bd 82 0b a9 bd
       -0.15313175 0.080858305 -0.04393685 -0.08254148
000270 9c e1 1c bd e2 c2 aa 3c 4a 6b ce bd 7a e9 15 bc
       -0.038301095 0.02084488 -0.100790575 -0.009149903
000280 b9 04 8f bd 13 8f 29 be 2a 24 46 bd ca 35 9d 3d
       -0.06983323 -0.16558485 -0.048374332 0.07676275
000290 3d 59 f4 bc d9 38 cc bb 98 d0 0b be f2 bc c6 3d
       -0.029827708 -0.0062323627 -0.13653791 0.09704007
0002a0 cf da 1a be 48 ea df 3d 67 d3 a4 3d 35 1f e0 3d
       -0.15122531 0.109333575 0.08048134 0.10943452
0002b0 49 c3 03 3e b4 5d ea bd bf b5 de 3d d6 af 42 bd
       0.12867464 -0.11443654 0.10874509 -0.04753097
0002c0 a5 ab 52 be 51 4f a1 3d e1 83 7e 3e 42 53 b4 bd
       -0.2057329 0.078764565 0.24854995 -0.08804943
0002d0 a5 d8 23 3d 35 e8 c8 bd 39 15 a2 bd 52 cf e1 bd
       0.04000153 -0.09809915 -0.07914204 -0.11025871
0002e0 bc a7 08 3e 24 fe 49 be b7 95 99 3d 3a 52 f5 bd
       0.13345236 -0.19725853 0.07499259 -0.11978574
0002f0 91 c4 af 3d 7a 25 ca 3d 46 ca 9d 3d 34 73 64 bd
       0.08582414 0.09870429 0.07704596 -0.05577393
000300 6d 95 99 3d fc fb e7 bd 0e 02 47 bb 58 a6 2c be
       0.07499204 -0.11327359 -0.0030366215 -0.1686033
000310 a1 b5 77 bd a6 8c 4e be 7d ee 26 3e 8f 4d dd 3d
       -0.06047595 -0.2017084 0.16301914 0.10805809
000320 6d b2 a9 3d b1 4a fa 3d 3f d2 6b 3d 0a 69 88 bc
       0.08285985 0.122212775 0.057573553 -0.016651649
000330 f7 85 b7 bd ad be 40 3d db 15 fb bd de 1f 4f be
       -0.08961099 0.047056843 -0.12260028 -0.20227
000340 ed d1 0b 3e d7 ca 18 3d 22 c9 0e 3c 9b 4a b5 3c
       0.13654299 0.03730282 0.008714946 0.022130301
000350 78 4b d0 3d cf cf 12 3e 61 9f f6 3d 76 d8 e7 3d
       0.101706445 0.14337085 0.12042118 0.113205835
000360 50 f4 78 bd 62 b1 dc bd a5 d5 06 3e 48 31 d6 bd
       -0.06077987 -0.107760206 0.13167436 -0.104586184
000370 d9 a8 f2 bd b7 13 8a 3d 8f c9 32 3e 6d c7 c8 bd
       -0.118486114 0.067420416 0.17459701 -0.098036624
000380 ed d3 79 bd 06 03 ab bd c3 52 1f 3e 56 14 04 be
       -0.060993124 -0.08350186 0.15558915 -0.12898383
000390 22 8d f6 3c 7a bf 51 3d ed 59 29 3e 66 6a 90 3d
       0.030096594 0.051207997 0.1653821 0.07051544
0003a0 98 9e 17 3e a0 f0 c2 bd 94 d6 a6 bd d8 b0 05 3d
       0.14806592 -0.09518552 -0.08146396 0.032639354
0003b0 1c 98 ab bd 2e 6b c7 3d b8 68 3e 3b 7b 0f 08 be
       -0.08378622 0.0973724 0.0029054116 -0.13287155
0003c0 2b 99 a6 3d 74 b5 13 be 1c 98 7d bc 2e 0f 08 bc
       0.08134683 -0.14424688 -0.01547816 -0.0083044
0003d0 28 0b e2 3b 97 a0 e5 bd 5e aa 01 be de 9b 4b 3d
       0.0068983026 -0.11212271 -0.12662646 0.049709193
0003e0 2f 67 43 be b9 0e 39 be ad 5e 04 3e 9b e7 31 3e
       -0.1908233 -0.18072022 0.12926741 0.17373507
0003f0 03 b8 11 be 38 ce 05 3e aa f9 fc 3b 14 53 0a be
       -0.14230351 0.13066947 0.007720192 -0.13508254

gru.weight_hh_l1 f4 [105, 35]
000000 c6 37 10 3d c5 cb a8 3d 92 2f fb 3d 01 a4 48 bd
       0.03520944 0.08241991 0.12264933 -0.04898453
000010 29 09 56 3c c1 1c 0c be 95 2c ed bd 1c b7 99 3c
       0.013063707 -0.13682844 -0.11580769 0.018764071
000020 7d e3 d1 bb 43 4c 8f 3d ad c2 ce 3d 01 27 90 bd
       -0.0064052925 0.06996968 0.10095725 -0.070386894
000030 77 16 f8 bd e4 fd 53 be 4f 33 fe bd bf c9 0f 3e
       -0.1211366 -0.2070232 -0.1241213 0.14041804
000040 d3 b8 df bd b9 5a d8 bd e4 75 08 bb 01 77 44 3d
       -0.10923924 -0.10564179 -0.0020822221 0.047965053
000050 6b 09 10 3e 62 3e 29 3d e5 8d a7 3d 56 46 d3 3d
       0.14066093 0.04131926 0.08181361 0.1031615
000060 92 4b bb 3d d1 39 2c be d0 61 43 3d 24 cb 9c 3d
       0.09145273 -0.1681893 0.047700703 0.076559335
000070 24 96 a7 3c 9a d7 14 3e 3b cd 1c bd d4 38 41 bd
       0.020457335 0.1453537 -0.03828166 -0.047173336
000080 71 34 d8 3d c0 35 28 3e 39 3a c6 bd 1f 7f f6 bd
       0.105568774 0.16426754 -0.09679074 -0.12035965
000090 a2 dc 07 3e 20 61 fb 3d c1 71 94 bd fa a3 28 be
       0.13267758 0.122743845 -0.07248259 -0.16468802
0000a0 7e 10 fa 3c 37 a2 81 3a 98 91 21 3e 6e ee 0f be
       0.030525442 0.0009890263 0.15778196 -0.14055797
0000b0 8d cb 40 be 60 eb 8c 3d 2c 45 97 bd 77 f5 bc bd
       -0.18827648 0.06880832 -0.0738624 -0.09226506
0000c0 19 f7 17 3d 01 37 8a 3b 7d 55 1e bd 33 73 8e 3c
       0.037100885 0.0042179828 -0.038655747 0.017388916
0000d0 be 94 98 bd 80 d1 32 3d ee 00 00 be 93 66 c7 3d
       -0.07450245 0.043656826 -0.12500355 0.09736361
0000e0 85 52 bb bc 39 cc 10 be 60 ed 27 3e 91 de 1f 3b
       -0.022866497 -0.14140405 0.16399145 0.0024394135
0000f0 5b 07 be bd c6 5a ca bd b8 8a 30 bc e2 e5 a0 3c
       -0.09278747 -0.09880595 -0.010775261 0.019640867
000100 bb 9e b0 bd f5 4a 23 be bf 64 8b bc bd 46 01 bd
       -0.086240254 -0.15946563 -0.017015813 -0.031561602
000110 34 29 f0 bd 69 15 03 be e9 4e 42 3c 76 a6 e8 3d
       -0.11726609 -0.12801136 0.011859634 0.11359875
000120 97 da 8f 3b f1 44 a9 bd 8e ec b4 bd e5 45 91 3d
       0.0043900716 -0.08265103 -0.08834182 0.070934094
000130 bf 53 09 3e f8 b8 0c be 34 0a 04 be e5 db a0 3d
       0.13410853 -0.13742435 -0.12894517 0.078544416
000140 8e f1 31 bd ea cd 99 3d 84 1c 59 3d 6c 18 d4 bc
       -0.043443255 0.07509978 0.05300571 -0.025890552
000150 55 e2 07 3e 13 66 d0 3d 95 29 3a 3d 98 fe 00 be
       0.13269933 0.10175719 0.045449812 -0.1259712
000160 ef c1 32 be ac ae c8 bd e5 58 01 3e 74 18 15 3e
       -0.17456792 -0.09798941 0.12631567 0.1456011
000170 f5 83 02 3e b2 ca b6 3d 42 3d 27 be a0 d9 7a bd
       0.1274565 0.0892538 -0.16331962 -0.0612427
000180 9e 7f 11 3e 2c 48 26 3e e6 1c ab bd bd 5a 2e 3d
       0.14208838 0.16238469 -0.08355121 0.042567004
000190 0e 04 c5 3d 7c d0 b0 3c 30 73 e2 bc 45 94 92 3d
       0.09619914 0.021583788 -0.027642816 0.071571864
0001a0 92 f2 18 be 79 d0 32 be 47 65 a6 bc eb bc 1c be
       -0.14936283 -0.17462339 -0.020311965 -0.15306441
0001b0 3c 90 ea 3d bc 86 55 bd 11 34 f4 3d 7a ab 71 3d
       0.11453292 -0.052130446 0.119239934 0.059001423
0001c0 cd 59 93 bd 45 01 ce bd f6 da fe 3d 74 79 f5 bc
       -0.071948625 -0.10058836 0.12444107 -0.02996514
0001d0 de 69 12 3e ce 30 46 bd a0 62 ac bd 9a f7 c7 3d
       0.14298198 -0.048386388 -0.08417249 0.09764023
0001e0 19 7b 88 bd 48 d4 e6 3d 2c 5c 55 bd c3 47 4d bc
       -0.06664104 0.11270958 -0.052089855 -0.012529316
0001f0 ab 4e 39 3e c2 a8 15 bd b6 b6 91 3d 5b 20 ea 3d
       0.18096416 -0.036537893 0.071149275 0.114319526
000200 61 bc a9 3d 04 f5 27 3d 88 32 72 3d 54 5a 36 bd
       0.082878835 0.04100515 0.05913022 -0.044519737
000210 78 b6 f3 3d ef 59 2a 3e 8c 8f d2 bd 3b ac d7 bd
       0.119000375 0.1663587 -0.10281286 -0.10530897
000220 00 b1 dd bd be 2d 0e 3e 27 de 1f 3d 0b 64 bb 3d
       -0.10824776 0.13884637 0.03903022 0.09149941
000230 3e 76 0e 3e 33 9f 8e 3d 91 a2 9b bd bb 37 e9 bd
       0.13912293 0.069639586 -0.075993665 -0.11387583
000240 cf f1 c7 bd c5 ea 48 3d 39 5f 2d 3e 01 3a 02 3e
       -0.09762918 0.04905202 0.16930856 0.12717439
000250 1f 02 63 3d 80 6b d8 3d 0f 4b de bd 56 ed b3 bd
       0.055421945 0.10567379 -0.1085416 -0.087855026
000260 e9 49 1d bd 74 98 c0 3b 94 10 fe bc c8 28 d6 bd
       -0.038400564 0.005877549 -0.031013764 -0.10456997
000270 9f 22 53 bc 7d ce df bd 36 3b de bd 92 20 bc 3d
       -0.012886672 -0.109280564 -0.10851137 0.091859
000280 e2 fc 8c 3c b9 e0 a0 3b 63 cd 77 3d c1 8d 0e 3e
       0.017210428 0.0049096015 0.060498606 0.13921262
000290 f3 57 4d bd 33 6f 13 be d4 d8 3e 3d 83 93 00 3e
       -0.050132703 -0.14397888 0.046593502 0.12556271
0002a0 40 f5 0f 3c f7 18 db 3d d8 3f 8b bd b1 34 c0 3d
       0.0087864995 0.10698121 -0.067992866 0.0938505
0002b0 33 43 fe bd 7c 84 04 3d 26 50 10 be 95 cf f5 3d
       -0.12415161 0.03235291 -0.14093074 0.12002484
0002c0 14 9c b2 bd 3c 45 87 bd 58 4c 2c bd 24 ff b2 bd
       -0.08721176 -0.06605002 -0.042064995 -0.087400705
0002d0 3c 35 9e bd b5 28 0c 3e 81 0d 00 be 61 ac e7 bd
       -0.077249974 0.13687404 -0.12505151 -0.113121755
0002e0 57 c9 e1 bc 2e 7b 91 3d 31 b3 a1 bb 8b e8 85 3d
       -0.027561827 0.07103573 -0.0049346914 0.06538495
0002f0 92 0a 4c be 1d 58 6e bd 8a 87 2a bd 34 e7 05 be
       -0.19925907 -0.0581895 -0.041633166 -0.13076478
000300 c6 25 bc 3d 5a cd 59 bc f5 57 0b be 40 26 32 bd
       0.09186892 -0.0132935885 -0.13607772 -0.04349351
000310 c7 1a 1a 3e 8d 96 29 be bc 6d 73 bc 95 22 03 be
       0.15049277 -0.16561337 -0.014857706 -0.12806161
000320 dd 3a 06 3e 2c 9e b1 bd 8f 0e 79 bd 34 85 5a bd
       0.13108392 -0.08672747 -0.0608049 -0.05334969
000330 52 7d de 3d b8 2b 39 3e 7f d5 4a be 3b 06 33 3e
       0.10863747 0.18083084 -0.19808005 0.17482845
000340 6d 3d 58 3d b1 10 b1 ba f6 6b b1 3d ce 63 f3 bd
       0.052792955 -0.0013509003 0.0866317 -0.118842706
000350 e9 29 b9 3d 82 87 2b 3e 24 bb a8 bb 7c d3 94 3d
       0.09041197 0.16750911 -0.005149262 0.072669
000360 51 44 6c bc 98 41 f0 bd d5 3f 0f be 69 4b 32 3d
       -0.014420585 -0.11731261 -0.13989194 0.043528948
000370 84 d1 b8 3d e9 d5 95 3d 2d 3a 4e 3d 6a 7c 74 3d
       0.09024337 0.07316191 0.05034845 0.059688963
000380 76 92 97 bd 05 fa f2 bc db 23 c7 bd ff 75 07 be
       -0.07400982 -0.029660234 -0.09723636 -0.13228606
000390 d6 2a 1d be 51 3a e5 bc ef 4a 93 3c c1 47 59 be
       -0.15348372 -0.027981909 0.017980067 -0.21218778
0003a0 ee 20 b1 bd 9a 63 14 be ad 01 90 3d 85 a5 bb 3c
       -0.08648859 -0.1449112 0.0703157 0.022906074
0003b0 e8 05 b4 3d 3b f3 b1 bd 4d ce 1e 3d f6 f4 2e 3e
       0.08790189 -0.08688971 0.038770963 0.17085633
0003c0 80 17 b0 bd bb 6d 30 3d 85 dc fb 3b bd e0 0d be
       -0.08598232 0.043073397 0.0076862 -0.13855262
0003d0 7f b5 de 3d d5 d8 75 bd 55 10 13 be 2a 8c e1 bd
       0.108744614 -0.06002124 -0.14361699 -0.11013062
0003e0 db dc 63 3d 0d 9c 32 3d 58 79 e4 ba e7 4e 11 3c
       0.055630546 0.043605853 -0.0017431183 0.008868909
0003f0 68 38 94 3d 92 69 19 be 0f 6b 10 3e 9e 7d b0 3d
       0.07237321 -0.14981678 0.1410334 0.086177096

gru.bias_ih_l1 f4 [105]
000000 fd 24 07 bc 82 5b d9 3d 6a 3c 48 3e c9 19 b3 3d
       -0.008248565 0.10613157 0.19554296 0.087451525
000010 f2 cd d2 3d 2a a1 4e 3e 3a 45 7c 3d c7 e2 d5 bc
       0.10293187 0.20178667 0.061589457 -0.026109112
000020 65 3f 3c 3e 77 53 06 3e 30 b2 1e 3e 63 3e 11 3e
       0.18383558 0.13117777 0.1549766 0.14183955
000030 41 08 15 3e 88 10 f2 3d f7 af 62 3e a5 1a 35 3e
       0.1455393 0.11819559 0.22137438 0.17685945
000040 49 fc b2 bd e2 f9 34 be 7b 03 2f bd fb 4f 00 3e
       -0.08739526 -0.17673448 -0.04272793 0.1253051
000050 03 a1 e7 3d 9e 16 2f bd 36 69 50 3e 83 5d e1 3d
       0.113100074 -0.04274618 0.20352635 0.11004164
000060 d3 a3 33 3b 8a 6b 33 bd 6f 60 ea 3d 0f 7f 2b 3e
       0.002741088 -0.04380373 0.114441745 0.16747688
000070 0f 0f 10 3c 43 92 30 3e 7d 9f ec 3d 75 37 42 3d
       0.008792653 0.17243294 0.115538575 0.04741617
000080 8f 15 4b 3d 03 a9 00 3e b4 4b f5 bd be 46 ec bc
       0.049581107 0.12564473 -0.1197733 -0.028842326
000090 bc 38 50 be 61 93 3d be a0 16 1c 3d 95 b5 eb bd
       -0.20334142 -0.18513252 0.038107514 -0.115092434
0000a0 82 e3 24 be 95 90 9b 3d 7d 52 36 be bd 07 2e be
       -0.16102412 0.07595936 -0.17804904 -0.1699514
0000b0 64 b4 48 be 3f 8c bf bd e6 ee e3 bd fc 5e f5 bd
       -0.19600064 -0.09352922 -0.11129551 -0.119810075
0000c0 98 3a 5d be 8d 0c 20 3c ef 0c 61 3d 6c 5e 0d bd
       -0.21604383 0.009768617 0.054943975 -0.034513876
0000d0 62 a5 43 3d 70 73 af bd 9a d6 73 be b9 ef 36 be
       0.047765143 -0.0856694 -0.23812333 -0.17864884
0000e0 b9 76 af bd 0b 13 09 be d1 ae 1c 3d bb 12 9b 3d
       -0.085675664 -0.1338617 0.038252655 0.07571932
0000f0 ee a7 1b be 8a b6 11 be d4 71 81 3c d7 2b be bd
       -0.15200779 -0.1422979 0.015801348 -0.092857055
000100 6f 5d 5d be f3 ef 70 be ca da ce bd 52 06 b4 3b
       -0.21617673 -0.23529033 -0.101003245 0.0054939175
000110 28 77 5e 3a 26 b4 7e be 5d 73 3b 3c d7 7d ee 3d
       0.00084863836 -0.24873409 0.011441079 0.11645096
000120 61 f3 de bb 2c 14 25 3b 48 61 82 bd c1 99 0d 3d
       -0.0068039154 0.0025189025 -0.06366211 0.03457046
000130 0a b8 ae 3d 37 f2 86 bd 11 31 9a 3d ed 21 51 bd
       0.085311964 -0.065891676 0.0752889 -0.051057745
000140 4a 88 e7 bc 23 f2 20 be 4b d3 8d bb 42 f5 f3 bb
       -0.02826323 -0.15717368 -0.0043281666 -0.0074450085
000150 b2 6d 3f be 70 2a f6 3d 5d 3c cb bd 10 fe ec bd
       -0.18694189 0.12019813 -0.09923623 -0.11571896
000160 7b 67 0e be e0 25 c1 bd d5 94 07 3e e3 3f 2e 3e
       -0.13906662 -0.09431052 0.13240369 0.17016558
000170 c2 5a a3 bd 46 1d 64 bd de c7 5e 3d 9b de 88 3d
       -0.07976295 -0.05569198 0.054389827 0.066830836
000180 a3 97 11 be 7d 61 06 3c 55 99 43 3e 93 12 12 3e
       -0.14218001 0.008201954 0.1910146 0.14264898
000190 87 97 a4 3c 54 10 de bd 7d 42 19 3d c1 c5 c5 3c
       0.020091785 -0.10842958 0.037416924 0.024142148
0001a0 45 70 aa 3d
       0.08322195

gru.bias_hh_l1 f4 [105]
000000 85 2a 74 bd 9b bd 4e bd 9e fd 36 3e 47 95 33 3c
       -0.059610862 -0.05047379 0.17870185 0.010960883
000010 c7 1e ad 3c 56 97 49 bd 4f 15 f1 3d 75 e0 35 be
       0.02113284 -0.04921659 0.117716424 -0.17761405
000020 05 bb ae 3b 45 8e 60 3b 39 51 14 be 8b 25 cb 3d
       0.005332353 0.0034264487 -0.14484109 0.0991927
000030 d0 c5 b8 bd 73 0a 1c 3d 5d e0 5c 3e d4 9c 9d 3d
       -0.09022105 0.038095903 0.21569963 0.07695928
000040 9f 60 00 3e 9b ad 51 3d b2 3d 85 3d 5c c1 97 3d
       0.12536858 0.051190954 0.06505908 0.07409927
000050 5a 89 05 be 88 3b 21 be 2a 99 a6 bd 10 1e a5 3b
       -0.13040677 -0.15745366 -0.081346825 0.005038984
000060 ee 7e 6b 3d 27 21 34 3e 4a f5 4b 3e e9 1e 46 3d
       0.057494096 0.17590772 0.19917789 0.048369322
000070 ba 4a b0 bc d3 1e 34 3e d2 22 39 3e 6d 20 05 be
       -0.021520007 0.17589884 0.18079689 -0.1300065
000080 63 d8 8c bd 68 88 c6 bd 09 0c e1 bc 29 5b 89 3d
       -0.0687721 -0.09693986 -0.02747156 0.067068405
000090 de 39 33 bd 9c 3e 64 3d 60 2a 2a 3d 29 b8 4b be
       -0.04375636 0.05572377 0.04154432 -0.1989447
0000a0 67 44 0b be b9 8d bc 3c 62 4b cc bd b0 58 40 be
       -0.13600312 0.023016797 -0.09975316 -0.18783832
0000b0 07 51 28 be 3e 7f ab 3c 68 eb f3 3c 05 60 45 be
       -0.1643716 0.020934697 0.029775336 -0.1927491
0000c0 bd bd 66 bd 58 24 ae bc 8b 32 ab 3d 8c 17 93 bc
       -0.056333292 -0.021257564 0.0835925 -0.017955564
0000d0 ec df 12 be b4 cb 4e be 8d 12 14 be 21 fb be bd
       -0.14343232 -0.20194894 -0.14460202 -0.09325243
0000e0 2d c7 47 be 40 cc 04 bc 4e 18 82 3d cf aa 3f be
       -0.19509573 -0.008105338 0.06352292 -0.18717502
0000f0 49 af fa 3b 82 6d 51 be 5d cd 36 be 3c 32 27 be
       0.00765029 -0.2045193 -0.17851777 -0.16327757
000100 c0 28 7c bd 55 4d 6b bd a0 84 64 3c 9c fe c7 3d
       -0.0615623 -0.057446796 0.013947636 0.0976536
000110 4f 3e 27 be 85 59 27 3d 40 b7 01 be cc e5 9d 3d
       -0.16332363 0.040856857 -0.1266756 0.07709846
000120 b3 5c 25 3e 44 34 d2 bd 73 37 e8 3c 56 45 01 be
       0.16148643 -0.10263875 0.028346753 -0.12624106
000130 dd f5 9f ba e1 bb 3b 3d ff 08 96 3d 9f 22 fa bc
       -0.001220401 0.045833472 0.073259346 -0.030534087
000140 f6 7f bb bd fa 45 2b 3d b1 98 26 3e 5a c1 00 be
       -0.09155266 0.04181478 0.16269185 -0.12573758
000150 81 75 67 bb 31 0a ed 3d 74 59 d5 3d 12 c5 4a 3e
       -0.003531784 0.115742095 0.104174525 0.19801739
000160 ad b3 1a 3e 24 b0 75 bd 95 b7 0c bd 86 d1 20 bc
       0.15107603 -0.059982434 -0.034354765 -0.009815579
000170 8a 86 dc bc f9 df 41 be a3 d2 6a bd d2 d2 bc 3c
       -0.026919622 -0.18933095 -0.057329785 0.023049746
000180 09 a7 ff 3d 1e b3 1c be d1 f8 58 3a 14 fb 3c 3e
       0.12483031 -0.15302703 0.00082768226 0.18455154
000190 3e f0 62 3d da 40 1d be 62 4d 1f bc 01 70 1a 3e
       0.055404894 -0.1535677 -0.009723039 0.15081789
0001a0 f0 7e 11 3d
       0.035521448

dense.weight f4 [1, 35]
000000 27 64 e1 3d c6 59 34 3e ed ab 18 be 42 e7 d9 bd
       0.11005431 0.17612371 -0.14909334 -0.10639812
000010 80 f0 0a 3e 0a 72 d1 3d cd 75 58 3e 00 f6 88 3d
       0.13568306 0.10226829 0.21138687 0.06687546
000020 16 6b 47 be 29 ca 28 3e 87 b8 d7 3d 28 36 53 3e
       -0.19474444 0.16483368 0.10533243 0.20626128
000030 f4 a5 90 bd dd 84 1a 3e 3d 07 05 3e 39 82 15 3d
       -0.07062903 0.15089746 0.12991042 0.036501143
000040 c3 c4 27 3d b6 81 11 be dc aa 85 bd e3 f6 d8 bd
       0.04095913 -0.14209637 -0.065267295 -0.10593965
000050 ac 49 e5 3d cd c7 42 3e ab 17 ee bd a9 7f 2e 3e
       0.111956924 0.1902153 -0.11625608 0.17040886
000060 e5 7d ce bd 01 cd 5f 3e 09 a9 2f 3e 1d 2a a3 bd
       -0.10082606 0.21855547 0.17154326 -0.07967017
000070 7d 84 6e bd 36 78 ca bd fc e5 df 3d 52 86 37 3e
       -0.05823182 -0.0988621 0.10932538 0.17922333
000080 f4 1b 31 be ad c0 d1 bd bd 44 d1 bd
       -0.1729582 -0.10241828 -0.10218189

exp_avg f4 [105, 6]
000000 16 7b 0a 3b 80 2e 5b 3b 56 b9 95 ba 28 6e 8e ba
       0.0021130494 0.0033444464 -0.0011423032 -0.0010866569
000010 e6 3d c1 ba f0 ed b2 ba 88 33 36 3c 70 3d 54 39
       -0.0014743179 -0.0013651233 0.011120684 0.00020240783
000020 aa fd ed 3a 40 1c 74 3a 18 12 ba 3a d8 46 4f b9
       0.0018157263 0.0009312071 0.0014196066 -0.0001976745
000030 88 2d 1a 3c 6e 49 2c 3b 70 04 6d 3b f2 61 48 3b
       0.00941027 0.0026288885 0.0036165975 0.0030575958
000040 b4 5d 4a 3b 30 fc 16 3b 30 18 93 bc 4e aa ac 3b
       0.0030878605 0.00230385 -0.01795587 0.0052693253
000050 86 57 53 ba c8 bc 18 bb da 3b 0d 3a 7b 5b 59 ba
       -0.0008062053 -0.0023305882 0.0005387642 -0.0008291525
000060 fa 1d 6f 3b 78 ca 3f bb 53 18 3b 3b 1a fd 28 3b
       0.0036486373 -0.0029264968 0.0028548434 0.0025785626
000070 b3 bc 47 3b c2 2c 23 3b ea c3 c8 bb 4e 57 af bb
       0.0030477464 0.0024898504 -0.0061268704 -0.0053509837
000080 8c 75 41 3a 36 dd aa 39 66 4d 82 3a 86 35 1e 3a
       0.00073798816 0.00032589742 0.000994128 0.00060351973
000090 6a 18 9a bb cb 90 37 bb 84 71 6a ba 20 21 a5 ba
       -0.0047026174 -0.0028009887 -0.0008943307 -0.0012598373
0000a0 2f 8f 2f ba e4 f2 79 ba 0a d3 94 3b fa 1e ac 3a
       -0.0006697056 -0.000953479 0.0045417594 0.001313179
0000b0 78 d2 f0 3a e0 a6 ae 3a 1e be de 3a aa 92 72 3a
       0.0018373271 0.0013324879 0.0016993915 0.0009253422
0000c0 f6 84 14 3b f8 be c6 3a 00 ca 8d b7 e0 5b 12 b9
       0.0022662259 0.0015163114 -1.6902573e-05 -0.00013957871
0000d0 3b 13 82 b9 6c 07 f3 b9 f5 9b a8 3b 43 6a 30 3b
       -0.0002480986 -0.00046354102 0.0051455447 0.0026918806
0000e0 06 b6 1a ba b5 d6 3d ba 2c 93 3b ba e6 16 82 ba
       -0.00059017574 -0.00072417717 -0.0007155414 -0.0009925037
0000f0 15 21 40 3a 56 5a 39 39 27 ed 3e 39 68 86 12 b8
       0.00073291484 0.00017676628 0.00018208158 -3.4934288e-05
000100 92 4a 17 39 82 42 23 b9 1a cd 71 bb 66 23 77 bb
       0.00014428262 -0.00015569667 -0.0036895932 -0.0037710308
000110 b0 c4 5c 3a 7a 14 e4 39 8c 4b 8b 3a 4e 17 51 3a
       0.00084216427 0.00043502805 0.0010627373 0.000797619
000120 f1 e2 9d 3b 0f 44 af 3b df 0c 6a ba 94 6c 0d ba
       0.0048183133 0.0053486894 -0.00089283095 -0.00053949025
000130 2a a4 ba ba cc 5a 85 ba 97 6f f6 3b c6 ca 10 3c
       -0.0014239599 -0.0010174154 0.0075206268 0.008837407
000140 78 c9 35 ba f4 1c 49 b9 29 94 78 ba 94 2f 18 ba
       -0.0006934623 -0.0001917964 -0.0009482527 -0.00058054295
000150 87 f7 50 bb de 8e 32 bb a2 f1 7e b9 28 5e 1e ba
       -0.003188582 -0.00272458 -0.00024313343 -0.0006041252
000160 58 94 49 b8 fa 94 b8 b9 ab 1f 1b bb a6 6b a3 3a
       -4.806029e-05 -0.0003520621 -0.0023669999 0.0012467995
000170 0b 69 35 ba ec ae 17 ba 3e 4d 21 ba 56 d5 dc b9
       -0.00069202547 -0.0005786258 -0.00061531726 -0.00042120618
000180 36 1c 1d 3a 38 e8 ad ba 21 52 91 3a 5d 99 2d 3a
       0.00059932785 -0.0013268059 0.0011087098 0.0006622279
000190 fb 7a 85 3a 7c d3 0d 3a 4e 8f 5f bb fe 4d 52 3a
       0.0010183746 0.0005410237 -0.0034112516 0.0008022486
0001a0 a6 cb 36 39 5c 32 33 b9 a7 21 9a 39 ec 78 61 b7
       0.00017432738 -0.0001708953 0.00029398242 -1.3439199e-05
0001b0 a6 e8 ec 3b 7a 31 2e 3b 69 4b 40 3a 2c e6 8c 3a
       0.0072298823 0.0026579783 0.0007335456 0.0010749749
0001c0 71 55 97 39 70 2c 19 3a ce 70 ea 3b 50 3c 41 3a
       0.00028864623 0.00058431085 0.0071545606 0.0007371353
0001d0 e7 27 2e 3b 9e 25 22 3b 94 2e 23 3b 68 5e 04 3b
       0.0026574077 0.002474166 0.002489959 0.0020197872
0001e0 de 28 ac 3b 50 92 4e 39 af de 12 3b e3 d8 f3 3a
       0.005253895 0.00019700197 0.0022410562 0.0018604066
0001f0 f4 cf 06 3b 5f 85 c6 3a 9e d0 3f b8 c2 c3 d4 b9
       0.0020570727 0.0015145949 -4.573224e-05 -0.00040581642
000200 f9 32 aa 39 44 d1 20 39 64 89 90 39 fd 45 01 39
       0.00032462904 0.00015336747 0.00027568184 0.00012328471
000210 fc b0 b2 39 b2 94 ec 3a f0 0f a5 ba c8 c6 82 ba
       0.0003408267 0.0018049686 -0.0012593251 -0.0009977454
000220 83 bf 9f ba 8c 7a 7e ba 0a d0 d4 bb 09 90 85 bb
       -0.0012187812 -0.0009707592 -0.0064945268 -0.004076008
000230 80 7e 03 b7 89 3b 8a b9 bf a2 aa 39 64 2d 13 39
       -7.8376615e-06 -0.00026365768 0.00032546182 0.00014035922
000240 e2 57 cc bb 32 12 da ba a5 8c b5 ba 0c af b4 ba
       -0.0062360624 -0.0016637503 -0.001385112 -0.0013785078
000250 bf a9 55 ba 96 77 71 ba 4d 24 10 3c 60 c3 2d 38
       -0.00081505993 -0.000921124 0.008797717 4.142837e-05
000260 89 59 80 3b 70 91 58 3b e0 9f 62 3b db 3a 30 3b
       0.0039169234 0.0033045672 0.0034580156 0.002689055
000270 49 d9 92 bb 24 a4 03 bc ca c8 1b 3b 91 ba b4 3a
       -0.004481469 -0.00803474 0.0023770803 0.0013788511
000280 e4 34 36 3b cd f1 f1 3a 60 80 75 bc ee e9 53 bc
       0.0027802521 0.0018458903 -0.01498422 -0.012934191
000290 0b f8 85 b9 54 14 a6 ba d8 0d 0c 3a 50 46 08 b9
       -0.00025552543 -0.0012670853 0.0005342639 -0.00012996164
0002a0 b4 5d 0d b9 b2 60 0d 39 40 06 75 b7 db 6d ac b9
       -0.00013481715 0.0001348283 -1.4604593e-05 -0.00032888245
0002b0 a4 14 06 39 47 3f 8b b9 ec 4b a8 3b b1 08 18 3b
       0.00012786925 -0.0002655929 0.0051360037 0.002319854
0002c0 c4 69 1c 39 2c 32 54 b9 90 2b 1b b9 80 ad 39 ba
       0.0001491672 -0.00020236586 -0.0001479818 -0.00070830435
0002d0 96 43 d0 ba a0 13 b8 b9 87 a6 39 3a 4c 8d d1 39
       -0.0015889283 -0.00035109837 0.00070820044 0.0003996886
0002e0 4a f5 67 3a 02 9c 06 3a 31 26 0b 3c 47 2b ae 3b
       0.00088485016 0.00051349413 0.008492992 0.0053152177
0002f0 40 e5 ef b9 4d 9d 4f ba 6d 2f 76 ba 84 64 c2 ba
       -0.00045756437 -0.0007919863 -0.0009391222 -0.0014830981
000300 1a 85 61 3b 9b 82 c3 3a a9 0e ce 39 9d f4 95 39
       0.003441161 0.0014916243 0.00039302305 0.00028601746
000310 1b b8 3f 39 ec e9 56 38 90 e3 32 bb 45 26 1b bb
       0.00018283764 5.1239433e-05 -0.0027296282 -0.0023673933
000320 f6 0d 82 38 28 03 39 b9 80 fd 22 b7 8e 90 00 b9
       6.2014835e-05 -0.0001764415 -9.714975e-06 -0.00012260882
000330 b9 3d ac ba f3 c1 4c 39 56 00 98 ba 94 4a a3 ba
       -0.0013140953 0.00019527208 -0.001159678 -0.0012458139
000340 0e 0f b3 ba b0 3d b9 ba 55 2d 27 b9 fd 26 67 ba
       -0.0013661103 -0.0014132764 -0.00015943249 -0.00088177604
000350 46 15 7a b8 10 ba c6 39 35 34 85 b8 1d c8 b6 39
       -5.9624457e-05 0.0003790413 -6.3516585e-05 0.0003486284
000360 ac 74 c6 ba 34 e8 fd 3c 70 79 7a bb a3 c2 0c bb
       -0.0015140972 0.030994512 -0.0038219355 -0.0021478317
000370 d5 26 63 bb 02 40 e6 ba 55 bf ac 3a c8 36 3f bc
       -0.0034660597 -0.0017566683 0.001317958 -0.011670776
000380 f0 5e 3a 3a 6c 78 92 39 1b 90 93 3a 47 6a 4b 3a
       0.00071094837 0.0002793701 0.0011258157 0.0007759672
000390 0e 87 2f bc 24 32 a2 3d dd b9 81 bc 23 29 30 bc
       -0.010713352 0.0791972 -0.015835697 -0.010751995
0003a0 67 86 8b bc ee 3a 3e bc 5a 62 87 3a 47 6d 8d bc
       -0.017031861 -0.01161073 0.0010328994 -0.017264022
0003b0 8c d9 d9 3a fa 97 00 3b 17 ad b7 3a 9e 71 d0 3a
       0.001662062 0.0019621835 0.0014013377 0.0015903001
0003c0 06 1e 11 ba 7c 83 a5 bb 00 01 8f ba 18 93 5c ba
       -0.0005535785 -0.0050510745 -0.0010910332 -0.00084142527
0003d0 4c 15 5b ba bf 57 3b ba 8d 36 3a 3c 2d 54 88 bd
       -0.00083573605 -0.0007146559 0.011365545 -0.0665668
0003e0 30 5d 40 3c 5b d3 2f 3c 6a bc 42 3c a0 77 2d 3c
       0.011740968 0.010731543 0.011885742 0.010587603
0003f0 f0 46 7e b9 60 86 34 bb 2c e7 38 ba 16 4e 0b ba
       -0.00024249754 -0.0027545914 -0.000705349 -0.0005314065
