checkpoints_gp2/discriminator_checkpoint60.pth.tar (torch_old, 149607 bytes, 27 tensors)

gru.weight_ih_l0 f4 [105, 6]
0	0x3d828f6d	0.063750125
1	0x3c77fbbf	0.015135705
2	0x3c44e3d8	0.012017213
3	0x3d7d54a8	0.061848313
4	0x3da0a714	0.078443676
5	0xbe0b502c	-0.13604802
6	0x3d8cd081	0.068757065
7	0xbdc70946	-0.09718566
8	0x3e7af65a	0.24508038
9	0xbd38e058	-0.045135826
10	0x3dbf96f2	0.093549624
11	0x3d734caa	0.059399284
12	0x3d8dd50e	0.069254026
13	0xbe47c5ec	-0.19509095
14	0x3cd3127f	0.025765656
15	0x3e3a2775	0.18179114
16	0x3e084cc1	0.1331053
17	0x3e626712	0.2210963
18	0xbd5a1b98	-0.05324897
19	0xbeb29bf8	-0.3488462
20	0x3e17f8ce	0.14841005
21	0xbcaba830	-0.020954221
22	0xba98b54b	-0.0011650709
23	0x3d063431	0.032764617
24	0xbe1f08ab	-0.1553065
25	0xbe8cfed1	-0.2753816
26	0xbd5bc849	-0.053657804
27	0x3df4dbfa	0.1195602
28	0xbd2f7269	-0.04283372
29	0x3e34cb16	0.17655596
30	0xbe24eb8b	-0.16105478
31	0xbdc21d0e	-0.09478198
32	0xbd520e0a	-0.05128292
33	0x3cc4f0a1	0.024040522
34	0xbd06d621	-0.032919053
35	0x3e3180cc	0.17334288
36	0xbdbff3b9	-0.09372658
37	0x3e106e09	0.14104475
38	0x3c831a0e	0.016003635
39	0x3e5bf4ca	0.21480098
40	0x3e0d23b3	0.1378315
41	0x3d585a60	0.052820563
42	0xbe3979ae	-0.18112823
43	0xbe1a60ad	-0.15075941
44	0xbdc4bd7d	-0.096064545
45	0xbe0389a0	-0.12845469
46	0xbdcf42b7	-0.10120147
47	0x3e28cd39	0.16484536
48	0x3db8eef7	0.09029954
49	0x3cbb3bff	0.022855757
50	0xbbfac906	-0.0076533584
51	0xbc7c4ec8	-0.015399642
52	0x3cc142f7	0.023591502
53	0x3e1a7c9c	0.15086597
54	0xbde12979	-0.109942384
55	0xbe60b045	-0.21942241
56	0xbd474fd0	-0.0486601
57	0x3d801ab9	0.06255097
58	0xbcdd1fd2	-0.026992712
59	0x3d8d1c46	0.06890158
60	0xbe2bbf96	-0.16772303
61	0xbde60b56	-0.11232631
62	0x3d682776	0.056678258
63	0xbd834ec5	-0.064115085
64	0x3db12059	0.08648748
65	0x3d9e89ff	0.077411644
66	0xbe2993b3	-0.16560249
67	0xbe0549b1	-0.13016392
68	0x3d9a1962	0.07524373
69	0x3e368c6c	0.17827004
70	0x3cd8da5b	0.026471308
71	0xbdcbc60d	-0.099498846
72	0x3e0f3946	0.13986692
73	0xbda51612	-0.0806085
74	0x3da552b1	0.08072413
75	0x3e4a6dd2	0.19768456
76	0x3c919047	0.017768992
77	0x3cdc2ac2	0.026875857
78	0xbdd4170f	-0.103559606
79	0xbe17331e	-0.14765593
80	0xbd897e68	-0.06713563
81	0xbe0d00cf	-0.1376984
82	0xbdf9b1e4	-0.12192133
83	0xbe4ea28a	-0.20179191
84	0x3ddfac26	0.109215066
85	0x3d5341e3	0.051576506
86	0x3e1dd183	0.15411954
87	0x3da6213c	0.08111808
88	0xbe19f6c1	-0.15035535
89	0x3dcfe661	0.10151363
90	0xbe0c31e3	-0.13690905
91	0xbe8a063a	-0.26957875
92	0xbcbbb0b7	-0.022911413
93	0x3e74853d	0.23878951
94	0x3caf3d96	0.021391671
95	0x3e689e5d	0.22716661
96	0x3cc10ca2	0.023565594
97	0xbe260692	-0.16213444
98	0x3d5c109b	0.053726774
99	0x3dc767d8	0.097366035
100	0x3e1f6062	0.15564111
101	0x3d615521	0.055012826
102	0x3df56b0a	0.11983307
103	0xbe1e9462	-0.15486291
104	0x3db9b22a	0.09067185
105	0x3e18f374	0.1493662
106	0x3d655200	0.055986404
107	0xbd133c63	-0.03594626
108	0xbda12e98	-0.07870215
109	0xbe3d3609	-0.18477644
110	0xbd23646d	-0.039890695
111	0xbd5f4f2e	-0.05451887
112	0x3e0c7888	0.13717854
113	0x3cc665ae	0.024218407
114	0x3dbf20a8	0.093324006
115	0xbd6050d3	-0.05476458
116	0x3d61d2fb	0.055132847
117	0x3c435efa	0.0119245
118	0x3e0e8533	0.13917999
119	0x3cb4316a	0.021996219
120	0xbe927b66	-0.2860977
121	0xbe8ed704	-0.2789842
122	0x3cf4f5a0	0.02990228
123	0x3e1281b3	0.14307289
124	0xbc347a7e	-0.011015533
125	0x3d82576b	0.0636433
126	0x3c6aa6fd	0.01432204
127	0xbe687474	-0.22700673
128	0xbc35241a	-0.011055971
129	0x3e1ce4b8	0.15321624
130	0x3e32f7f6	0.17477402
131	0x3ddc984e	0.10771237
132	0x3e662c48	0.2247783
133	0xbb57675c	-0.0032868003
134	0x3c28ff97	0.010314844
135	0xbc40e7b0	-0.011773989
136	0x3d8aea95	0.06783024
137	0xbdaa2164	-0.0830715
138	0x3d001202	0.031267174
139	0xbd7a4e49	-0.061109815
140	0x3d8c2afb	0.068441354
141	0xbc926f84	-0.01787544
142	0xbda7dbd5	-0.081962265
143	0x3e653f08	0.22387326
144	0x3dfa4667	0.122204594
145	0x3dd4627d	0.10370348
146	0x3e00a4a4	0.12562805
147	0xbdd0fe8c	-0.10204801
148	0x3dc6d2b5	0.09708158
149	0x3e245f6e	0.16052029
150	0x3dc5ed0d	0.096643545
151	0xbe934a3e	-0.2876758
152	0xbdb570bc	-0.08859393
153	0x3e23e04d	0.16003533
154	0x3de0f0f5	0.10983459
155	0xbdf10636	-0.11768763
156	0xbd6396de	-0.0555638
157	0xbdba65b1	-0.09101427
158	0x3d80c989	0.0628844
159	0xbc0d6461	-0.008629889
160	0x3cd3d6cd	0.025859261
161	0x3e0fa6bb	0.14028446
162	0xbe11e84c	-0.1424877
163	0x3d89ccd8	0.06728524
164	0x3dfd71d1	0.123752244
165	0xbb38426a	-0.0028115758
166	0xbc245fcf	-0.010032608
167	0x3e300dac	0.17192715
168	0xbdaf288f	-0.08552658
169	0xbe2b11d7	-0.16706024
170	0x3c8b0d93	0.016974246
171	0x3d59ce10	0.053175032
172	0x3cb09520	0.021555483
173	0x3dba729f	0.091038935
174	0x3e029b37	0.12754522
175	0x3d805642	0.06266452
176	0x3e6e0d85	0.23247345
177	0x3d1a3294	0.03764589
178	0xbded087d	-0.11573885
179	0xbd91c870	-0.071183085
180	0x3e0c1da1	0.13683178
181	0xbe81239a	-0.25222474
182	0x3e021939	0.12704934
183	0x3e68f4bd	0.2274961
184	0x3d974dc5	0.0738788
185	0x3e67b65e	0.22628161
186	0x3d3fbf54	0.046813324
187	0xbe14bb3e	-0.14524552
188	0xbdda6bf7	-0.10665124
189	0x3c8ed2d3	0.017434513
190	0x3cf964f9	0.030443655
191	0x3e2f91d6	0.17145476
192	0x3d58ebff	0.05295944
193	0x3e354829	0.17703308
194	0x3e084b19	0.13309897
195	0x3dc89c09	0.09795386
196	0x3e32ef29	0.17474045
197	0x3e4035d0	0.18770528
198	0xbe4a387c	-0.1974811
199	0xbe59a226	-0.21253261
200	0x3d3c0ba5	0.045909543
201	0x3e34d64b	0.17659871
202	0x3e4e4305	0.20142753
203	0x3e432337	0.19056402
204	0x3dd9b438	0.10630077
205	0x3cc6f06d	0.024284566
206	0x3db48b5b	0.088156424
207	0xbc9969f7	-0.018727286
208	0xbe159ef7	-0.14611422
209	0x3dedd578	0.116129816
210	0x3d61c34a	0.055117883
211	0x3d26b8e8	0.040703684
212	0xbaf99120	-0.0019040443
213	0xbe0de72d	-0.13857718
214	0xbddffc17	-0.10936754
215	0xbd17cfc1	-0.037063364
216	0x3d4a4c70	0.049389303
217	0xbeb85435	-0.36001745
218	0x3d85a6ba	0.06525941
219	0x3e0182c1	0.12647535
220	0x388da6e2	6.754488e-05
221	0x3c18e6af	0.009332343
222	0x3dda1e46	0.106503054
223	0x3eacbb8b	0.33736834
224	0xbe846d6d	-0.25864735
225	0x3c82136f	0.015878407
226	0xbb897b71	-0.0041956236
227	0x3cb1db00	0.021710873
228	0xbcce1ea3	-0.025161093
229	0xbeef84db	-0.46781048
230	0x3dfb68d7	0.12275856
231	0xbcf46ac7	-0.029836072
232	0x3e0d559a	0.13802186
233	0x3e18717a	0.14887038
234	0x3dbd4d98	0.092433155
235	0x3e437310	0.19086862
236	0xbf027042	-0.5095254
237	0xbea2f2dc	-0.31825912
238	0xbe921fa7	-0.28539774
239	0xbe88e971	-0.26740602
240	0x3e5c5179	0.21515454
241	0x3e9fc9ea	0.31208736
242	0x3d279b6b	0.040919703
243	0x3e807cf0	0.2509532
244	0xbe8ca8ae	-0.27472442
245	0xbd7f9bf9	-0.062404606
246	0x3e109f26	0.1412321
247	0x3edc6f89	0.43053845
248	0xbe9e534d	-0.30922928
249	0xbd70064a	-0.058599748
250	0xbc974bd6	-0.018468779
251	0x3dab6ef6	0.083707735
252	0x3ea74906	0.326729
253	0x3ed7a4ab	0.4211782
254	0xbdbdb67f	-0.09263324
255	0xbc0ff43b	-0.008786256

gru.weight_hh_l0 f4 [105, 35]
0	0x3ca07f78	0.019592032
1	0x3e7804da	0.242206
2	0x3d87a70c	0.066236585
3	0x3e1daaca	0.15397182
4	0xbd51aa38	-0.051187724
5	0x3e0f7d2d	0.14012595
6	0x3ddffe35	0.10937158
7	0xbdd923a1	-0.10602499
8	0x3c4a4d68	0.012347557
9	0xbdbcdd86	-0.0922194
10	0xbd4a6ace	-0.049418263
11	0x3d2449ab	0.040109318
12	0x3d8a862c	0.067638725
13	0x3da6c6a4	0.081433564
14	0x3d1f503f	0.038894888
15	0xbe35a218	-0.17737615
16	0x3dd8d1b9	0.105868764
17	0x3dd8cd87	0.10586076
18	0x3d4de2fd	0.0502653
19	0x3dde3636	0.10850184
20	0x3d6431d0	0.055711567
21	0x3e02017a	0.12695876
22	0x3ae3c544	0.0017377515
23	0xbd5a0953	-0.05323155
24	0x3d8960a1	0.067078836
25	0xbe4f03af	-0.20216249
26	0x3dc4c524	0.09607914
27	0xbe19e18f	-0.1502745
28	0x3d9d3dab	0.07677778
29	0xbe02afdb	-0.12762396
30	0x3e1248e2	0.14285615
31	0x3db80380	0.089850426
32	0x3d40c310	0.047061026
33	0xbe514174	-0.20435125
34	0x3e127e3a	0.14305964
35	0xbe83a4ad	-0.25711575
36	0xbd2ed8f4	-0.04268737
37	0x3e4a7502	0.19771197
38	0x3cd2377f	0.025661228
39	0x3d1dddbb	0.038541537
40	0x3e8c6c34	0.27426302
41	0xbdd001cf	-0.10156595
42	0x3ea696e8	0.32537007
43	0xbd246028	-0.040130764
44	0xbdcdb2ea	-0.10043891
45	0xbcad98f8	-0.021191105
46	0x3e24f8f1	0.16110589
47	0x3de3bc4a	0.11119898
48	0xbe801668	-0.25017095
49	0xbe3fb3a6	-0.18720874
50	0x3dc472f3	0.09592237
51	0xbd1cf4b8	-0.03831932
52	0x3cccd96e	0.025006022
53	0xbd99da75	-0.075123705
54	0xbe108cb8	-0.1411618
55	0xbde739af	-0.11290299
56	0xbd830b16	-0.06398599
57	0xbe503cdf	-0.2033572
58	0x3e9c6bb2	0.30550915
59	0x3e272415	0.16322358
60	0xbda34655	-0.07972399
61	0x3e25a8ad	0.16177626
62	0xbd0fa047	-0.03506496
63	0xbe388ad5	-0.1802171
64	0x3c40642e	0.011742635
65	0x3e2ccb3d	0.16874404
66	0x3d838612	0.06422056
67	0x3d16f778	0.0368571
68	0xbcb1ba94	-0.021695413
69	0x3deae6f3	0.11469831
70	0xbe1d5bf6	-0.15367112
71	0xbdbd260f	-0.09235775
72	0xbdf6350f	-0.12021839
73	0xbcd66756	-0.026172321
74	0x3d0a69c4	0.033792272
75	0xbccdae91	-0.025107654
76	0x3dad03d0	0.08447993
77	0xbe126519	-0.14296378
78	0xbd180c05	-0.037120838
79	0x3d74a829	0.059730683
80	0xbe0b3fed	-0.13598605
81	0xbcbf98a7	-0.02338822
82	0xbde4e915	-0.11177269
83	0xbdf4aa33	-0.119465254
84	0xbe326b2d	-0.17423697
85	0x3d931e67	0.07183533
86	0x3e450b1f	0.19242524
87	0x3da140a4	0.07873657
88	0x3daad2c4	0.083409816
89	0x3e1cd4ff	0.15315627
90	0x3deba386	0.11505799
91	0x3d227fdc	0.039672717
92	0x3d76a4db	0.060215812
93	0x3dbdcbe3	0.09267404
94	0xbe077b70	-0.13230681
95	0x3dd30c2f	0.10305058
96	0xbd9c6b5d	-0.076376654
97	0x3a546c06	0.0008103255
98	0xbdc6257c	-0.09675118
99	0xbdeb0047	-0.11474662
100	0xbc9b73ac	-0.018976055
101	0x3e05182c	0.12997502
102	0xbd989e3a	-0.07452054
103	0xbdbe65dd	-0.09296773
104	0x3e057fcb	0.1303703
105	0x3bf745a8	0.0075461455
106	0xbe6883ac	-0.22706479
107	0x3cbac072	0.022796843
108	0x3e8d14ee	0.2755503
109	0xbdbe314f	-0.092867486
110	0x3cd502dd	0.026002342
111	0xbe422a5b	-0.1896147
112	0xbb0e06c3	-0.002167151
113	0x3cbb23fc	0.022844307
114	0x3d37d558	0.044881195
115	0xbe342104	-0.1759072
116	0xbccd582f	-0.025066463
117	0x3cf4a418	0.029863402
118	0x3d27746c	0.040882513
119	0x3c90e4d6	0.017687242
120	0xbd2f102a	-0.042740025
121	0xbd2b8725	-0.04187693
122	0xbe55df2e	-0.20885918
123	0xbe5e2275	-0.21692832
124	0x3e290530	0.16505885
125	0xbe0e82f0	-0.13917136
126	0x3db8422e	0.08996998
127	0xbdb80b34	-0.08986512
128	0x3de74d9c	0.112941
129	0xbe0c6452	-0.13710144
130	0x3e32c34d	0.17457314
131	0x3df83210	0.12118924
132	0x3d4920c3	0.04910351
133	0x3dd3d4aa	0.10343297
134	0x3d5af473	0.05345578
135	0xbe290ee5	-0.16509588
136	0xbd572db4	-0.05253382
137	0xbdc5985c	-0.09648201
138	0x3e7073f9	0.2348174
139	0x3cd40dd8	0.025885507
140	0xbdfd6730	-0.12373197
141	0xbe6b2130	-0.22961879
142	0x3dafe382	0.085883155
143	0x3da7c8b7	0.0819258
144	0xbe0754db	-0.13215964
145	0x3c89bb6c	0.016813003
146	0x3c91fbe7	0.017820312
147	0x3e061330	0.13093257
148	0xbd889e37	-0.06670802
149	0xbd145ef6	-0.036223374
150	0x3c465252	0.012104588
151	0xbc8361f8	-0.016037926
152	0x3c91c5f0	0.01779458
153	0x3d9d0655	0.07667223
154	0xbd31aee6	-0.043379687
155	0xbdbe7968	-0.093005
156	0xbc399ae9	-0.011328437
157	0xbdcad2e4	-0.099035054
158	0xbcc0f102	-0.023552421
159	0x3d6728e6	0.05643549
160	0xbde49ee9	-0.11163122
161	0xbe60cb84	-0.21952635
162	0xbd6e9b4d	-0.058253575
163	0xbd3fa8fd	-0.04679202
164	0xbe390fc7	-0.18072425
165	0xbe2f32f6	-0.17109284
166	0x3de54fdd	0.11196873
167	0xbde892ff	-0.11356162
168	0xbc9fa93a	-0.019489873
169	0xbe012650	-0.12612271
170	0xbc3cef11	-0.011531607
171	0x3c6e5f24	0.0145490505
172	0xbcb562c9	-0.022141831
173	0x3e1d8b74	0.15385228
174	0x3e03f741	0.12887289
175	0xbe640714	-0.22268325
176	0xbc5c8a0c	-0.013460647
177	0x3cc67072	0.02422354
178	0x3e9870a2	0.29773432
179	0xbe179daf	-0.14806245
180	0xbc1b37be	-0.009473739
181	0x3da20bb4	0.079123884
182	0xbd030fed	-0.03199761
183	0xbdab16a3	-0.08353927
184	0xbd8631fd	-0.06552503
185	0xbca04df2	-0.019568417
186	0x3e321ca7	0.17393743
187	0xbd80a1ca	-0.06280859
188	0xbdcf0a7f	-0.10109424
189	0xbdc54ed9	-0.096341796
190	0x3e3c1eed	0.18371172
191	0xbbc7e3d3	-0.006100157
192	0xbe0b5088	-0.13604939
193	0xbdd978db	-0.106187545
194	0x3d75d455	0.06001695
195	0x3ddb3a69	0.107045
196	0x3ce12c53	0.027486956
197	0x3d8cee8f	0.06881439
198	0xbdc5ae8d	-0.096524335
199	0xbe5438d7	-0.20724808
200	0xbd46435f	-0.048404094
201	0xbe42f059	-0.19036998
202	0xbdc30bde	-0.09523748
203	0xbe3085cf	-0.17238544
204	0x3e2d91c7	0.16950141
205	0xbe6601be	-0.22461602
206	0x3dcdd807	0.100509696
207	0x3e1280df	0.14306973
208	0x3d49866c	0.04920046
209	0x3e219615	0.15779908
210	0x3d38d9a2	0.045129426
211	0xbe24e468	-0.16102755
212	0x3e10550f	0.14094947
213	0x3d74f0fb	0.05980013
214	0xbd3db922	-0.046319135
215	0xbc62adb1	-0.013835357
216	0xbe76cac2	-0.24100783
217	0x3d3f6b1f	0.046733018
218	0x3d2b6897	0.04184779
219	0x3d7feb8e	0.0624805
220	0xbd0b87ee	-0.03406518
221	0x3e337f44	0.17529017
222	0x3e106bcb	0.1410362
223	0xbd8e89da	-0.06959887
224	0xbda50076	-0.080567285
225	0x3e46743e	0.1938028
226	0xbe16df86	-0.14733705
227	0xbd0f98a8	-0.035057694
228	0xbd6dacdc	-0.05802618
229	0x3dc8414f	0.097780816
230	0xbe32ccad	-0.1746089
231	0xbe039ddd	-0.12853189
232	0x3d2e4cb9	0.042553637
233	0x3da58432	0.08081855
234	0x3c33bc66	0.010970211
235	0xbe20e64a	-0.15712848
236	0x3e250d65	0.16118391
237	0xbd57df4b	-0.052703183
238	0xbdeca3c4	-0.11554673
239	0x3b2972fe	0.0025855894
240	0xbdd41c3d	-0.103569485
241	0x3e06b460	0.13154745
242	0xbcf9ebda	-0.03050797
243	0x3e23f1c3	0.16010194
244	0x3e349d20	0.17638063
245	0xbd853313	-0.06503882
246	0xbd2b2fbb	-0.041793566
247	0xbc37f08b	-0.0112267835
248	0x3e1be403	0.15223698
249	0x3e15e906	0.14639673
250	0x3c8d50cf	0.017250447
251	0x3d2ef255	0.042711575
252	0xbd2b6e9f	-0.041853543
253	0xbc83086d	-0.015995229
254	0x3d263240	0.040575266
255	0x3cd5c936	0.026096921

gru.bias_ih_l0 f4 [105]
0	0x3e531d7c	0.20616716
1	0x3b2189f5	0.002464888
2	0x3e010f47	0.12603484
3	0xbce5dcb5	-0.028059343
4	0x3e0a6ce0	0.13518095
5	0x3e4af5fe	0.19820401
6	0xbd206599	-0.03915939
7	0xbdf5a621	-0.11994577
8	0x3e74cf70	0.23907256
9	0x3e7bcfc0	0.24590969
10	0xbd25e3f0	-0.04050058
11	0x3e39e39d	0.18153234
12	0xbd89d183	-0.06729414
13	0x3e4de6ff	0.2010765
14	0x3e653f17	0.22387348
15	0x3d55d4de	0.05220496
16	0xbd46f51d	-0.048573602
17	0x3e6d78aa	0.23190561
18	0x3e0c65c7	0.137107
19	0x3d6757c9	0.056480203
20	0xbdaf4bd8	-0.08559388
21	0x3da61fd4	0.081115395
22	0x3dfd25fc	0.123607606
23	0x3e322d48	0.17400086
24	0x3ce934bf	0.028467534
25	0xbdbf7069	-0.093476124
26	0x3d0ac846	0.033882402
27	0xbcf4be21	-0.029875817
28	0x3c15dc62	0.009146782
29	0x3e00febf	0.12597178
30	0x3e2476fc	0.16061014
31	0xbb613e3c	-0.003436937
32	0xbd8d75c4	-0.06907228
33	0x3e879d5a	0.26487237
34	0xbd1c2abb	-0.03812669
35	0xbe585021	-0.21124317
36	0x3dfe94fb	0.124307595
37	0xbc7ac405	-0.015305524
38	0x3c63cb81	0.0139035
39	0xbee2cd75	-0.44297376
40	0x3dad1a44	0.084522754
41	0x3e34d99f	0.17661141
42	0x3def9883	0.11699011
43	0xbe0c2776	-0.13686928
44	0xbd84aed3	-0.064786576
45	0xbe6ff825	-0.23434503
46	0xbda9d563	-0.082926534
47	0xbe1d2b47	-0.1534854
48	0xbe147ff5	-0.14501937
49	0xbe152d3c	-0.14568037
50	0x3c849d20	0.016188204
51	0xbda1269e	-0.07868694
52	0xbdc3b7f6	-0.09556572
53	0xbedffd55	-0.43747965
54	0x3e2545c2	0.16139892
55	0x3dedf50d	0.11619005
56	0xbea3aefb	-0.31969437
57	0x3d1e784e	0.03868895
58	0x3d891db6	0.0669512
59	0x3da2bd39	0.079462476
60	0xbd2f070e	-0.042731337
61	0xbb811a8d	-0.0039399327
62	0xbe9e621c	-0.30934227
63	0xbec017b3	-0.3751808
64	0xbe2a08d5	-0.16604932
65	0xbeee79da	-0.4657734
66	0xbdb398a2	-0.08769347
67	0xbe184e1f	-0.14873551
68	0x3d0ef9e9	0.0349063
69	0xbe0e7e6d	-0.13915415
70	0x3cc1df0f	0.023665933
71	0xba88c117	-0.0010433522
72	0xbd2a496f	-0.041573938
73	0x3d53f483	0.051746856
74	0xbdee2701	-0.11628533
75	0xbd098e0f	-0.033582743
76	0xbdec111d	-0.115267016
77	0xbd22e8e5	-0.039772887
78	0x3e0c9eb4	0.13732415
79	0x3d684b4a	0.056712426
80	0xbddf447a	-0.10901733
81	0x3e3ba971	0.18326356
82	0x3de39728	0.11112815
83	0xbe65ed30	-0.22453761
84	0xbd969d61	-0.073542364
85	0x3d215c2f	0.039394554
86	0x3dd513d4	0.104041725
87	0x3d8387e8	0.064224064
88	0xbdf5e2c2	-0.12006141
89	0xbd8d1fd9	-0.0689084
90	0x3da698cd	0.08134613
91	0xbde5b399	-0.11215896
92	0xbd5f088a	-0.054451503
93	0x3e037538	0.12837684
94	0x3bfb45ed	0.007668248
95	0x3e27ac3a	0.16374293
96	0x3d324d45	0.04353072
97	0xbdb3233b	-0.08746954
98	0xbd48cc44	-0.049022928
99	0x3e058194	0.13037711
100	0x3dd8c716	0.10584848
101	0xbd945c76	-0.07244198
102	0xbe0b9d71	-0.13634278
103	0x3c85b9c8	0.016323939
104	0x3e41c33f	0.18922137

gru.bias_hh_l0 f4 [105]
0	0x3d02d00a	0.031936683
1	0x3df99159	0.12185926
2	0xbd3692a0	-0.044573426
3	0xbd58107a	-0.05275009
4	0xbd4004cb	-0.04687957
5	0x3cc00c56	0.023443382
6	0x3e073473	0.13203602
7	0xbd3d3628	-0.046194226
8	0x3d9da0db	0.07696696
9	0x3e3a1845	0.1817332
10	0xbd0394d1	-0.032124344
11	0xbd9570c3	-0.07296898
12	0xbd2844d8	-0.04108128
13	0x3c6ecef2	0.014575707
14	0x3e71cdd9	0.23613681
15	0x3dcb2a79	0.099202104
16	0x3dcd9477	0.10038083
17	0x3e364852	0.17801026
18	0x3e4875a7	0.19576131
19	0x3e545cdf	0.20738553
20	0xbd46fdf8	-0.048582047
21	0x3e773f5a	0.2414526
22	0x3db4a96e	0.08821379
23	0x3df43797	0.119246654
24	0xbca02be7	-0.019552184
25	0x3d1509df	0.036386367
26	0xbd95eee4	-0.073209554
27	0x3df45b20	0.11931443
28	0x3d924299	0.07141609
29	0xbc56e9e7	-0.01311729
30	0x3e453daa	0.19261804
31	0x3e2d6b4e	0.16935465
32	0xbce8e012	-0.028427158
33	0x3e0b7426	0.13618526
34	0x3d9e8ec0	0.07742071
35	0xbdd5fe90	-0.104489446
36	0x3e07996a	0.13242117
37	0xbd8fe3ac	-0.07025847
38	0x3e6533a5	0.22382982
39	0xbe9dae23	-0.30796918
40	0x3cc89b9d	0.024488265
41	0x3e43ac91	0.19108798
42	0xbde75fe8	-0.112975895
43	0xbe1e8aca	-0.15482631
44	0xbe2079eb	-0.15671508
45	0xbe10e9f1	-0.14151742
46	0x3e463629	0.19356598
47	0xbdec7e7b	-0.11547562
48	0xbc71d412	-0.014760034
49	0xbe0ec44f	-0.13942073
50	0xbc5b4dd3	-0.013385254
51	0xbdd2ab1c	-0.10286543
52	0xbe8edcf0	-0.27902937
53	0xbe9e429b	-0.3091019
54	0xbda7f240	-0.082005024
55	0x3b15153a	0.0022748248
56	0xbe7cd682	-0.24691203
57	0xbe0c8e54	-0.13726169
58	0x3d868456	0.0656821
59	0x3e2d2656	0.16909155
60	0xbd78bfe3	-0.060729872
61	0xbcb09704	-0.021556385
62	0xbe899d26	-0.26877707
63	0xbdd7018a	-0.104983404
64	0xbc95d447	-0.018289698
65	0xbee3d245	-0.4449636
66	0x3d9c7f6a	0.0764149
67	0xbd98378e	-0.07432471
68	0x3e140904	0.14456564
69	0xbea7a372	-0.32741886
70	0xbd8c70cb	-0.06857451
71	0x3e4302ae	0.19043991
72	0x3e45931b	0.19294398
73	0x3db12f22	0.08651568
74	0xbd8df842	-0.06932117
75	0x3d77cb6d	0.060496736
76	0x3cdc7195	0.026909629
77	0xbd037a34	-0.032098964
78	0xbc7623cd	-0.015023184
79	0x3b709ea6	0.0036715656
80	0xbcd064f6	-0.025438767
81	0xbbd388f6	-0.006455536
82	0xbe077291	-0.13227297
83	0xbd8a9aff	-0.067678444
84	0xbe23ccb3	-0.15996055
85	0xbd940489	-0.072274275
86	0xbc8b0824	-0.016971655
87	0x3d14e386	0.036349796
88	0xbe212a1d	-0.15738721
89	0xbd8411be	-0.064486966
90	0x3dc4a610	0.096019864
91	0xbe1dbef1	-0.1540487
92	0xbda15f38	-0.0787949
93	0xba4b9b27	-0.0007766955
94	0x3e112174	0.14172918
95	0xbe1f65ef	-0.15566228
96	0x3de9dd84	0.11419204
97	0xbe4219c4	-0.18955141
98	0x3ccf91bc	0.025338046
99	0x3d6ffe8c	0.058592364
100	0x3d9a3c34	0.07531014
101	0x3d890780	0.06690884
102	0xbd2ae6e7	-0.041724112
103	0xbdda05e7	-0.10645657
104	0x3ddd35d3	0.10801282

gru.weight_ih_l1 f4 [105, 35]
0	0xbda38254	-0.079838425
1	0xbe8b6aec	-0.27230012
2	0xbdbddb24	-0.092703134
3	0x3d93f533	0.072245024
4	0xbd85f6ba	-0.065412
5	0xbe3dea14	-0.18546325
6	0xbe10e388	-0.14149296
7	0x3c985500	0.018595219
8	0xbbe47e8b	-0.006973093
9	0x3db02579	0.08600897
10	0xbcb9bf77	-0.022674305
11	0x3b12ac51	0.002238054
12	0xbe01a1ec	-0.12659425
13	0x3e61552d	0.22005148
14	0xbdc5e911	-0.096635945
15	0xbc072401	-0.00824833
16	0x3c5aaa89	0.013346323
17	0x3e415bfc	0.18882746
18	0x3e2a068f	0.16604064
19	0x3e4f2cbb	0.20231907
20	0xbddc31b7	-0.1075167
21	0xbdd528b1	-0.10408152
22	0xbd052709	-0.03250793
23	0xbcece794	-0.028919019
24	0x3e140e2f	0.14458536
25	0x3dc6ca2b	0.09706529
26	0x3e2d9b38	0.16953743
27	0xbd0d6483	-0.034519684
28	0x3d862264	0.06549528
29	0x3e038900	0.1284523
30	0x3dbdd8f4	0.09269896
31	0xbe68412c	-0.22681111
32	0xbc7c0fde	-0.015384642
33	0xbda3715b	-0.07980605
34	0x3d9447c6	0.07240252
35	0xbe301c4c	-0.17198294
36	0x3e633979	0.22189893
37	0x3c8e88e4	0.017399259
38	0xbd78d1ca	-0.060746945
39	0x3d9ceca0	0.0766232
40	0x3e46af60	0.19402838
41	0xbe039e8a	-0.12853447
42	0x3e7be07e	0.24597356
43	0xbe4339c9	-0.19065012
44	0x3e24cbfd	0.1609344
45	0xbd852307	-0.065008216
46	0x3dc22efb	0.09481617
47	0x3d2ae925	0.04172625
48	0xbd8b05a2	-0.06788184
49	0x3c66faaa	0.014097849
50	0xbe2846bd	-0.16433235
51	0xbd9ec74b	-0.07752856
52	0x3da7e929	0.08198769
53	0x3d63130a	0.05543808
54	0xbe4b1a6e	-0.19834301
55	0x3e51c37f	0.20484732
56	0xbe307743	-0.17232995
57	0xbcc810f0	-0.024422139
58	0x3e1567b7	0.14590345
59	0xbe0f6ccf	-0.14006351
60	0x3d9358c3	0.07194664
61	0xbb7d680f	-0.003866676
62	0xbdd5577a	-0.104170755
63	0xbd9e9cdd	-0.07744763
64	0x3cb43277	0.02199672
65	0xbe8db422	-0.27676493
66	0x3e47ec77	0.19523798
67	0x3d1bcea3	0.03803886
68	0xbe7ac0b5	-0.24487574
69	0xbd3af945	-0.04564788
70	0xbdd64529	-0.1046241
71	0xbe32fa50	-0.17478299
72	0xbcc11d49	-0.023573535
73	0x3db8eb06	0.09029202
74	0xbe53572e	-0.20638725
75	0x3d20cc9e	0.03925764
76	0xbe56bb72	-0.20969942
77	0x3bb806ff	0.0056160684
78	0x3dedcc26	0.11611204
79	0x3d92ed80	0.07174206
80	0xbe7f6f0e	-0.24944708
81	0x3e3a478a	0.18191352
82	0xbcf7edd8	-0.03026478
83	0xbd2bcbe9	-0.04194251
84	0xbe254726	-0.16140422
85	0x3e195cbe	0.14976785
86	0xbc14fd51	-0.009093598
87	0xbe0b054c	-0.1357624
88	0x3c737607	0.014859683
89	0x3d915d94	0.07097927
90	0x3d533a29	0.051569138
91	0x3c5e54ba	0.013570005
92	0x3c40de62	0.01177177
93	0x3e6aa89b	0.2291588
94	0x3e28e999	0.1649536
95	0xbd5365c8	-0.051610738
96	0xbdbf6674	-0.09345713
97	0xbe1c289e	-0.15249869
98	0x3d9cb5a5	0.076518334
99	0x3d656a2d	0.05600946
100	0x3dd12b5a	0.10213347
101	0x3e33e5ab	0.1756808
102	0x3d085e0a	0.033292808
103	0x3b2e29ae	0.0026575136
104	0xbd978f9e	-0.0740044
105	0x3de63ba2	0.11241843
106	0xbdb27f80	-0.08715725
107	0x3e5a7cbe	0.21336648
108	0xbc64b60f	-0.013959422
109	0x3d5c0534	0.0537159
110	0x3e2ee1a6	0.17078266
111	0xbdb85435	-0.09000436
112	0xbd0b986b	-0.034080904
113	0xbd3c5531	-0.045979682
114	0x3e63c0e1	0.22241546
115	0xbdb0f124	-0.08639744
116	0xbd939fc5	-0.07208208
117	0x3d98790d	0.074449636
118	0xbd3b8440	-0.04578042
119	0xbd71eab0	-0.059061706
120	0x3d672b1b	0.056437593
121	0x3d73f77d	0.059562195
122	0x3dd60d9d	0.10451815
123	0xbe5e998f	-0.21738265
124	0xbdc3e5a0	-0.09565282
125	0x3bdf0eac	0.006807169
126	0xbdbd996b	-0.09257778
127	0x3de7701a	0.113006786
128	0x3d3ab99f	0.04558718
129	0xbe29204f	-0.16516231
130	0xbdcd11b7	-0.100131445
131	0xbdca1fbf	-0.09869336
132	0xb8db336c	-0.00010452312
133	0x3e0cfdac	0.13768643
134	0xbcbc62d6	-0.022996347
135	0x3d2f68da	0.042824604
136	0x3e499ffb	0.19689934
137	0x3e22eb68	0.15910113
138	0xbe477c1d	-0.19480939
139	0x3d353b7a	0.044246174
140	0xbe02e167	-0.12781297
141	0xbcb7a025	-0.02241523
142	0xb98d18d8	-0.00026912126
143	0x3e20f7a0	0.15719461
144	0x3c92aa7b	0.017903557
145	0xbc31e09b	-0.010856773
146	0xbd2980c1	-0.041382555
147	0x3a973844	0.0011537154
148	0xbe54615b	-0.20740263
149	0x3d4040d1	0.046936814
150	0xbe1ef8cf	-0.155246
151	0x3d00ddb4	0.031461433
152	0xbe4c2e1b	-0.19939463
153	0x3d04d265	0.03242721
154	0xbc9cdeeb	-0.019149264
155	0xbdf67eed	-0.12035928
156	0x3c9b7d28	0.018980578
157	0xbc99d7de	-0.018779691
158	0xbe1b7483	-0.15181164
159	0xbd731842	-0.059349306
160	0xbca5ba11	-0.020230325
161	0xbe66b5a8	-0.22530234
162	0xbd1d45b1	-0.03839654
163	0x3e04de5c	0.12975448
164	0x3b675e67	0.003530407
165	0xbd64c0e9	-0.055848036
166	0xbdc3eb5e	-0.09566377
167	0x3d8e4d76	0.06948368
168	0xbe428b0b	-0.18998353
169	0x3d5267f3	0.051368665
170	0x3d308a92	0.0431009
171	0x3e2f3a5d	0.17112108
172	0x3dc86317	0.09784525
173	0xbe2da862	-0.16958764
174	0x3e2190e9	0.15777935
175	0xbe08c344	-0.13355738
176	0xbe543442	-0.2072306
177	0x3e0267bc	0.12734884
178	0x3ea93469	0.33047798
179	0xbe2fbe5c	-0.1716246
180	0x3d767167	0.060166743
181	0xbe05c00f	-0.13061546
182	0xbcaff0f2	-0.021477196
183	0xbe28027d	-0.16407199
184	0x3e3e7ea5	0.18602999
185	0xbe8ea52d	-0.27860394
186	0x3ded6a50	0.11592543
187	0xbe226627	-0.1585928
188	0x3d07cd92	0.03315503
189	0x3df7ec6a	0.12105639
190	0x3da91e98	0.082577884
191	0xbd97a8e5	-0.07405261
192	0xbc12544d	-0.008931232
193	0xbe564468	-0.20924532
194	0xbd12def6	-0.035857163
195	0xbe2c50bf	-0.16827677
196	0xbe183867	-0.14865266
197	0xbe022e9c	-0.12713093
198	0x3e3b1373	0.18269138
199	0x3df78263	0.12085416
200	0x3da11bab	0.07866605
201	0x3dafb8b7	0.085801534
202	0x3d330c54	0.04371293
203	0xbdbd9b6b	-0.09258159
204	0xbded3a6f	-0.11583411
205	0xbd4445f2	-0.047918268
206	0xbdc26f57	-0.09493893
207	0xbe1b1e5d	-0.15148301
208	0x3dfbdb5e	0.122977
209	0x3de5e72a	0.11225732
210	0x3bf62b5a	0.007512492
211	0x3cbc6123	0.022995537
212	0x3de27609	0.1105767
213	0x3e2201a5	0.1582094
214	0x3e16acf4	0.14714414
215	0x3dff1e8b	0.124569975
216	0xbd88fa6c	-0.06688389
217	0xbdc8c8b6	-0.098039076
218	0x3e1db32c	0.1540038
219	0xbdcaed22	-0.09908511
220	0xbdf9b07a	-0.12191863
221	0x3dc8a705	0.097974814
222	0x3e2b0206	0.1669999
223	0xbdc35662	-0.095379606
224	0xbd8ebf9d	-0.06970141
225	0xbdbca4d7	-0.09211128
226	0x3e430362	0.19044259
227	0xbddf0422	-0.1088946
228	0x3cd20872	0.025638793
229	0x3d0c437f	0.034244057
230	0x3e3f8ee3	0.1870685
231	0x3d3f4ea6	0.046705864
232	0x3dbd5307	0.09244352
233	0xbd96a3e7	-0.07355481
234	0xbdcbcb87	-0.09950929
235	0xbcbea9e6	-0.023274373
236	0xbd2eaa7f	-0.042643066
237	0x3d87427d	0.066044785
238	0x3cb7458c	0.02237203
239	0xbdeac602	-0.11463548
240	0x3d9dd3ca	0.07706411
241	0xbe2d3ac3	-0.16916947
242	0xbd607e11	-0.054807726
243	0x3c13ca8c	0.009020459
244	0x3c1d5e03	0.009604934
245	0xbdf68e8d	-0.12038908
246	0xbe0e2216	-0.1388019
247	0x3d33724f	0.043810185
248	0xbe3074f8	-0.1723212
249	0xbe6ee6b6	-0.23330197
250	0x3dd11986	0.10209946
251	0x3dad0e98	0.08450049
252	0xbe093c83	-0.1340199
253	0x3e5091c6	0.20368108
254	0x3c7fb791	0.0156077305
255	0xbe053d69	-0.13011707

gru.weight_hh_l1 f4 [105, 35]
0	0xbbaf42d8	-0.0053485446
1	0x3d8be2cb	0.06830367
2	0x3e01b671	0.12667252
3	0xbce18302	-0.02752829
4	0xbb1a28c6	-0.0023522838
5	0xbe100b1f	-0.14066742
6	0xbe16b85a	-0.14718762
7	0xba959289	-0.0011411469
8	0x39d82c18	0.00041231583
9	0x3d5f7256	0.0545524
10	0x3dca3d9e	0.09875034
11	0xbdabe127	-0.08392554
12	0xbdeb3c98	-0.11486167
13	0xbe5d3114	-0.21600753
14	0xbdfd621e	-0.1237223
15	0x3e15e0fe	0.14636609
16	0xbe0a3ef4	-0.13500577
17	0xbda6e898	-0.081498325
18	0xbbf9e137	-0.0076257247
19	0x3db5949e	0.08866237
20	0x3df32cad	0.118737556
21	0x3ba89705	0.005144956
22	0x3dfc25b9	0.123118825
23	0x3dbee567	0.09321099
24	0x3de98914	0.11403099
25	0xbe510e03	-0.20415501
26	0x3d0867b6	0.03330203
27	0x3da1fdc7	0.07909732
28	0x3d28d9c6	0.04122331
29	0x3e201b8d	0.1563551
30	0xbd2f658f	-0.042821463
31	0xbd9b5ef8	-0.07586473
32	0x3e01c683	0.12673382
33	0x3e3f9455	0.18708928
34	0xbdab837e	-0.083746895
35	0xbdc3cb35	-0.09560243
36	0x3debc658	0.115124404
37	0x3df761a9	0.12079174
38	0xbdcbb514	-0.09946647
39	0xbe175a01	-0.14780428
40	0x3d961872	0.07328881
41	0x3cf605f4	0.030032136
42	0x3e4e3fe6	0.20141563
43	0xbe191ad0	-0.14951634
44	0xbe0c1e25	-0.13683374
45	0x3e0bdc27	0.136582
46	0xbd8f9859	-0.0701148
47	0xbdc94e28	-0.0982936
48	0x3d534496	0.05157908
49	0x3c92c4a9	0.01791604
50	0x3d13ddb2	0.036100097
51	0x3c80287a	0.0156443
52	0xbe0a9928	-0.13534987
53	0x3c05f94c	0.008177113
54	0xbe1777b2	-0.14791754
55	0x3e12b823	0.14328055
56	0xbb96cd49	-0.0046021086
57	0xbe25a429	-0.16175903
58	0x3e492ff7	0.19647203
59	0xbcf4d785	-0.029887924
60	0xbd5e3758	-0.054252
61	0xbd9b68bd	-0.075883366
62	0xbcaf4d99	-0.021399306
63	0xbc457a64	-0.012053106
64	0xbdf9b9e3	-0.12193658
65	0xbde58da7	-0.11208659
66	0x3bf30f39	0.007417586
67	0xbd7b3b70	-0.06133598
68	0xbe1e32fa	-0.15449134
69	0xbe29b1e4	-0.16571766
70	0x3d168fb9	0.03675816
71	0x3e322fbf	0.17401026
72	0xbcb4db0a	-0.022077102
73	0xbe05ca87	-0.1306554
74	0xbd132844	-0.035927072
75	0x3de28a54	0.1106154
76	0x3e213ba6	0.1574541
77	0xbd8b51d2	-0.06802715
78	0xbe2a8930	-0.16653895
79	0x3e044334	0.12916261
80	0x3ca54d41	0.02017844
81	0x3debd3e5	0.11515025
82	0x3d8709a5	0.065936364
83	0x3cbb0b67	0.022832585
84	0x3e19765e	0.1498656
85	0x3e3ab916	0.18234667
86	0x3d98310d	0.07431231
87	0xbe2b5447	-0.16731368
88	0xbe43bafb	-0.19114296
89	0xbdfe706f	-0.12423789
90	0x3e27ded7	0.163936
91	0x3e22297e	0.1583614
92	0x3dd25997	0.10270994
93	0x3e06724e	0.13129541
94	0xbe5ce65f	-0.21572255
95	0xbd255fd0	-0.040374577
96	0x3e3bb9b1	0.18332554
97	0x3e1acf2b	0.15118091
98	0xbdc80ac6	-0.0976768
99	0x3dfbec40	0.123009205
100	0x3e19f645	0.1503535
101	0x3d5399d3	0.05166037
102	0xbd33a45d	-0.04385792
103	0x3cf07597	0.029352946
104	0xbe267aeb	-0.16257827
105	0xbe28494c	-0.1643421
106	0xbbf9caa2	-0.0076230327
107	0xbdeab33d	-0.11459968
108	0x3dc74f49	0.09731919
109	0xbd6d8ee2	-0.05799759
110	0x3ddfd1c6	0.10928683
111	0x3d98666c	0.074414104
112	0xbd1d2924	-0.038369313
113	0xbdbbc7a4	-0.09168938
114	0x3e179796	0.14803919
115	0xbbae63bd	-0.0053219483
116	0x3e07398c	0.13205546
117	0xbc8d4ca9	-0.017248468
118	0xbdd1e47a	-0.102486566
119	0x3d603655	0.054739315
120	0xbcfa1273	-0.030526375
121	0x3dc1be92	0.094601765
122	0xbd8a33a5	-0.06748132
123	0xbb279bdc	-0.0025575077
124	0x3e2ce54b	0.16884343
125	0xbcc681e5	-0.02423186
126	0x3d924d7e	0.07143687
127	0x3dca7d46	0.09887175
128	0x3dc36d79	0.095423646
129	0x3c86eb5b	0.016469648
130	0x3d949b11	0.07256139
131	0xbd3612bb	-0.044451457
132	0x3e2f7539	0.1713456
133	0x3e2da1cf	0.16956256
134	0xbc26c25b	-0.010178174
135	0xbdade408	-0.08490759
136	0xbdbef737	-0.09324496
137	0x3e0f9e01	0.14025117
138	0x3c07c41b	0.008286501
139	0x3e028b47	0.12748443
140	0x3e15b058	0.14618051
141	0x3d77bc78	0.060482472
142	0xbd9a0d35	-0.0752205
143	0xbdf49136	-0.11941759
144	0xbdde89c0	-0.108661175
145	0x3d838b52	0.064230576
146	0x3e39a1f0	0.1812818
147	0x3e164d67	0.14677964
148	0x3d92ec3c	0.071739644
149	0x3e054fcb	0.1301872
150	0xbd9d5bd4	-0.076835304
151	0xbdccd7df	-0.10002112
152	0xbd0a7160	-0.03379953
153	0xbb80b7c6	-0.0039281575
154	0xbd2575bc	-0.040395483
155	0xbd2338f0	-0.03984922
156	0xbcdbd682	-0.026835684
157	0xbe03e526	-0.12880382
158	0xbde05401	-0.109535225
159	0x3da1ea46	0.07906012
160	0x3d1bea2b	0.038065117
161	0x3b81c9c4	0.00396082
162	0x3d5121fc	0.0510578
163	0x3e1375b0	0.14400363
164	0xbd64408c	-0.05572562
165	0xbe0b6fb7	-0.13616835
166	0x3d34db57	0.04415449
167	0x3df831b8	0.12118858
168	0x3cd639eb	0.026150664
169	0x3e13b06f	0.14422773
170	0xbd5095d5	-0.05092414
171	0x3dc74441	0.09729815
172	0xbe02471a	-0.12722436
173	0x3c7475c4	0.014920656
174	0xbe0c5a1d	-0.1370625
175	0x3de3299d	0.110919215
176	0xbdb21d35	-0.08696977
177	0xbd9b488f	-0.07582199
178	0xbd81fc30	-0.06346929
179	0xbdd3442c	-0.10315737
180	0xbd999555	-0.07499186
181	0x3e05a918	0.13052785
182	0xbdb178cd	-0.08665619
183	0xbdbb6282	-0.09149648
184	0xbc06b637	-0.008222154
185	0x3df17d1e	0.11791442
186	0xbc8ce57e	-0.017199274
187	0x3dab60a4	0.08368042
188	0xbe4ed8ba	-0.20199862
189	0xbd870c0d	-0.065940954
190	0x3d11a725	0.035559792
191	0xbe2e0526	-0.16994151
192	0x3da27ed9	0.079343505
193	0xbb7c2299	-0.003847277
194	0xbe061c98	-0.13096845
195	0xbd46e60c	-0.048559234
196	0x3e046b9a	0.12931672
197	0xbe247465	-0.16060026
198	0xbc5d1bfd	-0.013495442
199	0xbe1363cc	-0.14393538
200	0x3deac84d	0.114639856
201	0xbdb87bc0	-0.090079784
202	0xbd5b12af	-0.053484615
203	0xbd11c919	-0.035592172
204	0x3e4f784c	0.20260733
205	0x3e4e157a	0.2012538
206	0xbe514590	-0.20436692
207	0x3e4b0b3d	0.19828506
208	0x3d15ccee	0.03657239
209	0x3d2076c6	0.03917577
210	0x3d907366	0.070532605
211	0xbe0ead82	-0.13933375
212	0x3dd91d49	0.10601289
213	0x3e3dc69c	0.18532795
214	0xbd04e36b	-0.032443445
215	0x3d6d3f16	0.05792149
216	0xbc8e992b	-0.01740702
217	0xbe0d5f0c	-0.13805789
218	0xbe00e26d	-0.12586375
219	0x3d1f9b88	0.038966686
220	0x3da7987f	0.08183383
221	0x3d5ecb71	0.054393236
222	0x3d801f22	0.06255938
223	0x3d128a9a	0.035776712
224	0xbdbb0fd4	-0.09133878
225	0xbb68eae7	-0.0035540403
226	0xbdf17df3	-0.11791601
227	0xbddb3036	-0.10702555
228	0xbe2e295b	-0.17007963
229	0xbc90c57a	-0.01767229
230	0x3bd8b53e	0.0066134026
231	0xbe734f08	-0.23760617
232	0xbd8c3e29	-0.068477936
233	0xbe232c10	-0.15934777
234	0x3d8ad054	0.06778017
235	0x3c679a21	0.014135868
236	0x3d9147fa	0.070938066
237	0xbdaa79e7	-0.08324032
238	0x3d8e7dda	0.06957598
239	0x3e2a4d6e	0.166311
240	0xbdb06ec8	-0.0861488
241	0x3c8d0d5d	0.017218286
242	0x3cb47da7	0.022032572
243	0xbe0b0813	-0.13577299
244	0x3ded7532	0.11594619
245	0xbdb6e5d6	-0.089305565
246	0xbe0c871e	-0.13723418
247	0xbdc98dfd	-0.09841535
248	0x3da1cfa4	0.079009324
249	0x3cb8f638	0.022578344
250	0xbc360ad4	-0.01111098
251	0xb9c4388b	-0.0003742616
252	0x3d49e9f1	0.04929537
253	0xbe12289e	-0.14273307
254	0x3de92fdc	0.113860816
255	0x3d86da72	0.06584634

gru.bias_ih_l1 f4 [105]
0	0xbc0e2813	-0.008676547
1	0x3e1c1425	0.1524206
2	0x3e72a42c	0.23695439
3	0x3df0e197	0.11761778
4	0x3e253ba2	0.1613603
5	0x3e76757d	0.24068256
6	0x3dbfb07d	0.09359834
7	0x3ce84158	0.02835147
8	0x3e5bff2f	0.21484064
9	0x3e32449a	0.17408982
10	0x3e48998f	0.19589828
11	0x3e2f7794	0.17135459
12	0x3e528b97	0.20561062
13	0x3e34860a	0.17629257
14	0x3e86aad0	0.26302195
15	0x3e2ae171	0.16687562
16	0xbce8feb7	-0.02844177
17	0xbe18bb46	-0.14915189
18	0x3c8850b9	0.016640054
19	0x3e13c502	0.14430621
20	0x3e014577	0.12624155
21	0xbd90c18e	-0.070681676
22	0x3e79311d	0.24335141
23	0x3e0848e0	0.1330905
24	0x3d9c3b61	0.07628513
25	0xba493954	-0.0007676084
26	0x3e1b799d	0.1518311
27	0x3e3b0515	0.18263657
28	0x3da56abc	0.080769986
29	0x3e4e6b02	0.20158008
30	0x3e0b2739	0.13589181
31	0x3d77a054	0.060455635
32	0x3da811ae	0.08206497
33	0x3e276fcd	0.16351242
34	0xbd8a50ee	-0.06753717
35	0xbc2e8c13	-0.0106535135
36	0xbe9d0a44	-0.30671895
37	0xbe723276	-0.23652062
38	0xbc8fe6f6	-0.017566185
39	0xbe5c3081	-0.21502878
40	0xbe8b60d0	-0.272223
41	0x3d4bac8a	0.049725093
42	0xbe9b0557	-0.3027751
43	0xbe7ce105	-0.24695213
44	0xbe907d10	-0.28220415
45	0xbe3658db	-0.17807333
46	0xbe1e7d46	-0.15477476
47	0xbe52e081	-0.20593454
48	0xbe2a9e7a	-0.16662017
49	0x3d384d68	0.044995695
50	0xbcdf44cc	-0.027254485
51	0x3bfc098a	0.007691567
52	0xbdc0a877	-0.09407132
53	0xbe3a9b0f	-0.18223213
54	0xbe5c2ea5	-0.21502168
55	0xbe8b38a1	-0.27191642
56	0xbe1779df	-0.14792584
57	0xbdfb1669	-0.12260134
58	0xbdac303d	-0.08407638
59	0xbbc1bb33	-0.0059122085
60	0xbe62b22c	-0.2213828
61	0xbe6e8ceb	-0.23295943
62	0x3d34acc3	0.04411007
63	0xbe80d61a	-0.25163347
64	0xbde13146	-0.10995726
65	0xbe8f3192	-0.27967507
66	0xbe3f05c1	-0.18654539
67	0xbd95ebec	-0.07320389
68	0xbdf739db	-0.12071582
69	0xbe2d34d6	-0.16914687
70	0x3d5be23b	0.053682547
71	0x3da64909	0.08119399
72	0x3cc9e76d	0.024646485
73	0x3c8d86df	0.017276226
74	0xbdc6caf6	-0.097066805
75	0x3d04e0ec	0.032441065
76	0x3dbf3e7b	0.09338089
77	0xbdaa4fa4	-0.083159715
78	0x3db1d835	0.08683816
79	0xbd0321a6	-0.03201451
80	0xbcbc86e7	-0.023013545
81	0xbe35718f	-0.177191
82	0x3bfc587d	0.0077009783
83	0xbcfa2d3a	-0.030539144
84	0xbe5047a2	-0.20339826
85	0x3e07807b	0.13232605
86	0xbddcfae3	-0.1079004
87	0xbded6143	-0.11590817
88	0xbe0226e2	-0.12710145
89	0xbdd0c2e5	-0.10193423
90	0x3e195fca	0.14977947
91	0x3e563290	0.20917726
92	0xbdfa31b6	-0.12216513
93	0xbd9c8db0	-0.07644212
94	0x3dac9c1f	0.08428215
95	0x3d9a7e6e	0.07543646
96	0xbe2ff7a1	-0.17184307
97	0x3cc3c84d	0.023899222
98	0x3e4e90fe	0.20172498
99	0x3dea435e	0.114386305
100	0x3c4af88f	0.012388363
101	0xbda89392	-0.08231272
102	0x3d7b5013	0.06135566
103	0x3cc7ce87	0.024390472
104	0x3dce39d4	0.100696236

gru.bias_hh_l1 f4 [105]
0	0xbd75eb65	-0.060038943
1	0xbb891ee5	-0.004184591
2	0x3e616560	0.22011328
3	0x3d2874dd	0.041127075
4	0x3da2f13a	0.079561666
5	0xbc291929	-0.01032094
6	0x3e195197	0.1497253
7	0xbdfc3782	-0.12315275
8	0x3d14d61f	0.036337014
9	0x3d3dcd59	0.046338413
10	0xbdd4d3c5	-0.10391954
11	0x3e03cc06	0.12870798
12	0xbcf6fbf9	-0.030149447
13	0x3dc5010d	0.09619341
14	0x3e83c301	0.25734714
15	0x3d892a75	0.06697551
16	0x3e3cbee7	0.18432198
17	0x3da15431	0.07877386
18	0x3dfed37b	0.124426804
19	0x3dbeab81	0.093100555
20	0xbdf028b6	-0.11726515
21	0xbe3dd693	-0.18538885
22	0xbd2a12e7	-0.041521933
23	0x3ce618f5	0.028088072
24	0x3e062eee	0.1310384
25	0x3e6032c8	0.21894372
26	0x3e723eb0	0.23656726
27	0x3d821b87	0.06352907
28	0x3d4eac4b	0.05045728
29	0x3e51f792	0.20504597
30	0x3e4dfa43	0.20114999
31	0xbdef8c7f	-0.116967194
32	0xbd14a2b4	-0.03628798
33	0xbd71f590	-0.059072077
34	0x3ccadf07	0.02476455
35	0x3dae9b62	0.08525731
36	0xbe16aa46	-0.14713392
37	0x3b8e0fd1	0.0043353816
38	0xbc677ef9	-0.014129394
39	0xbe9906eb	-0.2988809
40	0xbe7d2299	-0.24720229
41	0xbb52dda2	-0.003217556
42	0xbe65ddce	-0.22447893
43	0xbe879918	-0.2648399
44	0xbe804b3e	-0.25057405
45	0xbd824593	-0.063609265
46	0xbc6085d8	-0.013703786
47	0xbe8ec885	-0.2788736
48	0xbbe26dd4	-0.006910065
49	0x3c64e040	0.013969481
50	0x3ab6b993	0.0013940803
51	0x3cc6a79a	0.02424984
52	0xbe920ed1	-0.2852693
53	0xbe98d687	-0.2985117
54	0xbdf8d4ff	-0.12150001
55	0xbe3eff26	-0.18652019
56	0xbe83c2db	-0.257346
57	0x3b4ec5b8	0.0031550955
58	0xbd70dee0	-0.0588063
59	0xbe89a0f3	-0.26880607
60	0xbd7cd367	-0.061725046
61	0xbe9721f7	-0.295181
62	0xbe19d072	-0.15020922
63	0xbea4e434	-0.32205355
64	0x3d36eadd	0.044657577
65	0xbdd08cfd	-0.101831414
66	0xbd92a06a	-0.07159503
67	0x3c9b4906	0.018955719
68	0xbe91dce4	-0.2848884
69	0x3df6ab97	0.12044447
70	0xbdd797e4	-0.10527018
71	0x3d17868a	0.03699354
72	0x3e489aef	0.19590352
73	0xbdb7c28f	-0.08972656
74	0x3b0b65a7	0.0021270306
75	0xbe156be5	-0.1459194
76	0x3bc36613	0.005963096
77	0x3d2732f1	0.040820066
78	0x3dc0a771	0.09406937
79	0xbc56b5a5	-0.013104831
80	0xbdd4866d	-0.10377202
81	0x3c7c568b	0.015401493
82	0x3e395229	0.18097748
83	0xbe29224f	-0.16516994
84	0xbcedbbd1	-0.029020222
85	0x3e06beb7	0.1315869
86	0x3dc65400	0.096839905
87	0x3e674e70	0.22588515
88	0x3e2658f8	0.16244876
89	0xbda65cbc	-0.081231564
90	0xbcf16525	-0.029467175
91	0x3a25c18b	0.00063230906
92	0xbd42e9ec	-0.047586367
93	0xbe658be5	-0.22416647
94	0xbd2c6369	-0.042086992
95	0x3cd7ba9a	0.026334096
96	0x3ddebf03	0.10876276
97	0xbe09bcf7	-0.1345099
98	0x3d69a89d	0.057045568
99	0x3e31e68e	0.17373106
100	0x3cfccbea	0.030858953
101	0xbe24aced	-0.16081591
102	0x3cb2d004	0.021827705
103	0x3e069069	0.13141026
104	0x3d3645b9	0.044500086

dense.weight f4 [1, 35]
0	0x3e283470	0.16426253
1	0x3e81d9c4	0.25361454
2	0xbe61b01b	-0.22039835
3	0xbe28e6bc	-0.16494268
4	0x3e4ebb32	0.20188597
5	0x3e3d02d9	0.18458118
6	0x3e862d93	0.26206645
7	0x3dfca1a0	0.12335515
8	0xbe8525f8	-0.2600553
9	0x3e5a8fd1	0.21343924
10	0x3e0d1036	0.13775715
11	0x3e8b5fd7	0.27221557
12	0xbe1ef22d	-0.1552207
13	0x3e556181	0.20837976
14	0x3e4dc97c	0.20096391
15	0x3d649d42	0.055814035
16	0x3ddc6351	0.107611306
17	0xbe528af2	-0.20560816
18	0xbe2891fc	-0.16461939
19	0xbe2276ef	-0.15865682
20	0x3e37821d	0.17920728
21	0x3e946fe5	0.2899162
22	0xbe362889	-0.177889
23	0x3e6e99a4	0.23300797
24	0xbe2416a6	-0.16024265
25	0x3e8ec3f9	0.2788389
26	0x3e6edb3b	0.23325817
27	0xbe1fb6e0	-0.15597105
28	0xbdcd7c13	-0.10033431
29	0xbe632565	-0.22182234
30	0x3e286b26	0.16447124
31	0x3e73be1d	0.23802991
32	0xbe6f0084	-0.2334004
33	0xbe1c8fb4	-0.15289193
34	0xbe39d099	-0.1814598

exp_avg f4 [105, 6]
0	0x3af5d624	0.0018755835
1	0x3b0e49f8	0.002171157
2	0x3b06c106	0.0020561828
3	0x3a066e92	0.00051281706
4	0x3b2c3ba5	0.0026280668
5	0xb9429b70	-0.00018559187
6	0x3d0bf522	0.034169324
7	0xbb81ab86	-0.0039572148
8	0xbb52ddd2	-0.0032175672
9	0x3bb3b700	0.005484462
10	0xbac99fbc	-0.0015382688
11	0x3c09947e	0.00839722
12	0x3b8f1efd	0.0043677078
13	0x3bbb7341	0.0057205264
14	0xbaf69af4	-0.001881449
15	0x3a5f38c8	0.0008515236
16	0xbb4034ee	-0.0029328424
17	0x3b142f68	0.0022611264
18	0x3c8af406	0.016962063
19	0x3cdc1920	0.02686745
20	0xbcb5bf24	-0.02218587
21	0xbb883f98	-0.0041579716
22	0xbcc3fae8	-0.023923352
23	0x3c00aebf	0.007854163
24	0x3b7535d8	0.0037416127
25	0x3c1455cc	0.009053659
26	0xbbbb3150	-0.0057126656
27	0xba4aedb8	-0.00077411113
28	0xbba98d09	-0.0051742834
29	0x3a450c36	0.0007516773
30	0x3bf3676e	0.0074281013
31	0x3be891af	0.007097445
32	0xbc0d55fd	-0.008626458
33	0xba29e378	-0.0006480734
34	0xbc1bcb3b	-0.009508903
35	0x3b5b497e	0.0033460553
36	0x3c91037e	0.01770186
37	0x3cb0c444	0.021577962
38	0xbca83449	-0.020532744
39	0xbb399f88	-0.0028323848
40	0xbcc68620	-0.024233878
41	0x3bbac150	0.005699314
42	0x3c44cea4	0.012012158
43	0x3bb183bc	0.0054173153
44	0xbb3bbdf0	-0.0028647147
45	0x3b178262	0.0023118486
46	0xbb28a20f	-0.002573136
47	0x3ba64958	0.005074661
48	0x3c124cef	0.008929475
49	0x3b740f6f	0.0037240644
50	0xbafb47a6	-0.0019171133
51	0x3a39a6e8	0.0007082061
52	0xbb080504	-0.0020754943
53	0x3b38a71e	0.0028175781
54	0x3c5e7fb5	0.013580252
55	0x3a6ccd7c	0.0009033305
56	0x3b020dac	0.0019844575
57	0x3b167320	0.0022956803
58	0x3b28de50	0.0025767274
59	0x3b96c91b	0.0046016104
60	0xba512011	-0.00079774956
61	0x3abede3c	0.0014562081
62	0xba321c17	-0.0006794347
63	0xb8dd25da	-0.000105451516
64	0xba480dfc	-0.00076314784
65	0x3778b8d0	1.4824982e-05
66	0x3a3a5228	0.0007107579
67	0x3b018132	0.0019760844
68	0xba9eb4b0	-0.0012108292
69	0xb9b4ee44	-0.00034509797
70	0xbaac9b98	-0.0013168929
71	0x391712e8	0.00014407525
72	0x3b608244	0.0034257332
73	0xbbada443	-0.0052991225
74	0x3b8d69cb	0.00431559
75	0x3b27a80d	0.0025582344
76	0x3b985a66	0.004649448
77	0x3b285477	0.002568511
78	0xbb5858e9	-0.003301198
79	0x3bfb0278	0.0076602064
80	0x39f02bfd	0.0004580914
81	0xb9aa1a74	-0.00032444636
82	0xba4a19d1	-0.00077095354
83	0xbb1836e8	-0.0023226086
84	0x3b14f02b	0.002272616
85	0x3ae9735c	0.0017810869
86	0xba430ad8	-0.00074402755
87	0x3a711856	0.0009197047
88	0xba1f3774	-0.0006073632
89	0x3a841ffc	0.0010080333
90	0xba53f05b	-0.0008084827
91	0x3b0a8bdd	0.0021140494
92	0xbbaecc18	-0.0053343885
93	0xbb66299b	-0.0035120014
94	0xbbe87b40	-0.0070947707
95	0xbb31d53c	-0.0027135154
96	0x3b50ddac	0.0031870408
97	0xbaba3384	-0.0014206027
98	0x3b9473c7	0.0045304033
99	0x3ac4f46b	0.0015026456
100	0x3bbc25d2	0.005741813
101	0x3a881fae	0.0010385418
102	0xbb15d1d8	-0.0022860672
103	0xb893f220	-7.0546055e-05
104	0xbb39ecae	-0.0028369832
105	0xbad4fcca	-0.0016249653
106	0xbb4eaf18	-0.003153747
107	0xba820da2	-0.0009922276
108	0xbabe0a7e	-0.0014498977
109	0x3bc49192	0.0059987986
110	0xba6bf3aa	-0.00090008473
111	0xba43fb42	-0.00074761
112	0xbabb657c	-0.0014297212
113	0xba6fda0d	-0.00091496186
114	0x3c160e64	0.009158704
115	0x3a2840e0	0.00064183585
116	0x3b6e7776	0.0036387122
117	0x3a8b4f71	0.0010628534
118	0x3b903113	0.0044003814
119	0x3a7845b4	0.0009470836
120	0x3c9ccfef	0.01914212
121	0x3bf07ed6	0.007339339
122	0xbaf5e2c2	-0.0018759596
123	0x3bc2a6c8	0.005940292
124	0xb95b9980	-0.00020942651
125	0x3c2c991d	0.010534552
126	0x3ab99370	0.001415832
127	0xb9f232ac	-0.0004619559
128	0x3a03f0d0	0.0005033137
129	0xb9bcbeae	-0.00036000222
130	0x3a89f451	0.0010525082
131	0xb9da1f10	-0.00041603344
132	0xbc1547f8	-0.009111397
133	0xbb78dd24	-0.0037973607
134	0x3a0c4092	0.0005350198
135	0xbb12857c	-0.0022357395
136	0xb9cb32d2	-0.0003875704
137	0xbb9324ca	-0.0044904696
138	0x3c23dfb0	0.010002062
139	0x3beacde8	0.007165659
140	0xbc17f35b	-0.009274329
141	0xb9c56130	-0.00037647178
142	0xbc2c58c4	-0.01051921
143	0x3b81d4bb	0.003962127
144	0xbc35ecb8	-0.011103801
145	0x39842bb0	0.00025209552
146	0xbbcd7eda	-0.0062712254
147	0xbba81aad	-0.005130133
148	0xbbe8fe1c	-0.0071103703
149	0xbbae127e	-0.005312263
150	0x3b984332	0.004646682
151	0x3b027e60	0.001991175
152	0x3aeb5550	0.0017954502
153	0x3b81a3f2	0.0039563114
154	0x3b2f50da	0.0026751072
155	0x3b5fcc84	0.0034149
156	0x3bf2b1ff	0.0074064727
157	0xbc435fa8	-0.011924662
158	0x3c118862	0.008882614
159	0x3b8de4cd	0.0043302537
160	0x3c4575db	0.012052025
161	0x3b7cea6f	0.0038591882
162	0x3ba9e970	0.0051852986
163	0x3c0a3891	0.008436338
164	0xbc541dbb	-0.012946541
165	0xbb8221ca	-0.003971313
166	0xbc728957	-0.014803252
167	0x3b16031c	0.0022890037
168	0xbc223fd0	-0.009902909
169	0x3b83f22a	0.004026671
170	0xbbb38c58	-0.0054793768
171	0xbba0d1b4	-0.004907811
172	0xbbf01b14	-0.0073274467
173	0xbbb8d2f7	-0.0056403833
174	0x3cc763b2	0.02433953
175	0x3c42bb02	0.011885406
176	0xbbb1f00f	-0.0054302285
177	0x3b8603c9	0.0040898067
178	0xbbd3f464	-0.0064683426
179	0x3c188951	0.0093100825
180	0xb9aead91	-0.00033317183
181	0xbb374e42	-0.002797023
182	0xbb0643ce	-0.0020487192
183	0xbaba67d8	-0.0014221622
184	0xba172800	-0.00057661533
185	0xba6ee21c	-0.00091126724
186	0x3cb4ea33	0.022084331
187	0x3c9fcebd	0.01950776
188	0xbbd5b402	-0.0065217027
189	0x3b727471	0.0036995674
190	0xbbe635f1	-0.0070254733
191	0x3bf69862	0.0075254897
192	0xbb3c2c16	-0.00287128
193	0xbb4b3187	-0.0031004862
194	0x3932ca08	0.00017050665
195	0xba5cb205	-0.0008418861
196	0x380bc450	3.3323013e-05
197	0xba8fa6c9	-0.001095974
198	0x3c2877db	0.010282482
199	0x3a84f84c	0.0010144799
200	0xbbc87b8e	-0.0061182445
201	0x38eb9dc0	0.000112350564
202	0xbbe64f66	-0.007028508
203	0x3b6a3af0	0.0035740696
204	0x3baf88a4	0.005356865
205	0x3a16edf4	0.00057575037
206	0xbaa538d8	-0.0012605442
207	0x39fb25bc	0.00047902565
208	0xba8540b4	-0.0010166378
209	0x3afacb56	0.0019134085
210	0xb9b532c7	-0.00034560842
211	0xba152b5c	-0.000569036
212	0xbaa09e1e	-0.0012254154
213	0xb9438d46	-0.00018649278
214	0xbabf9999	-0.0014617919
215	0xb8ffda70	-0.00012200035
216	0xbbf93464	-0.0076051224
217	0x3cdd47d3	0.027011788
218	0xbbb03e85	-0.0053785467
219	0xbc010b97	-0.007876298
220	0xbb4a5d0a	-0.003087821
221	0xb9011688	-0.00012310792
222	0x3ae93728	0.0017792927
223	0x3a8bb7b6	0.0010659609
224	0x397d8264	0.00024176534
225	0x385948b8	5.1804556e-05
226	0xb85b2db0	-5.225622e-05
227	0x3a0e5db0	0.00054308306
228	0xbbefbbfa	-0.0073161097
229	0x3d0b1c55	0.033962566
230	0x3c87c773	0.016574597
231	0x3c927ec4	0.017882712
232	0x3ce6b7c2	0.028163794
233	0x3c0f1728	0.008733548
234	0xb92f1111	-0.00016695658
235	0xbbe8c46f	-0.007103495
236	0x3b606a84	0.0034243176
237	0x3b0dbbd6	0.0021626852
238	0x3b2994f0	0.0025876127
239	0xba337a29	-0.00068465114
240	0x3aa87ff9	0.0012855522
241	0xbb79b420	-0.0038101748
242	0x3ae89b4d	0.0017746479
243	0x3a60b04a	0.0008571191
244	0x3b09ebc0	0.002104506
245	0x3b00ecde	0.0019672434
246	0xb9cbd1c0	-0.00038875453
247	0xbcf796e8	-0.030223325
248	0x3c35658f	0.011071577
249	0x3be3ba44	0.006949695
250	0x3c02a094	0.007972855
251	0x3b2a34df	0.0025971455
252	0x3a2877f4	0.0006426566
253	0xbbaee2d1	-0.005337097
254	0x3ab08778	0.0013468107
255	0x3a89c9ac	0.0010512373
