checkpoints_gp2/discriminator_checkpoint100.pth.tar (torch_old, 149607 bytes, 27 tensors)

gru.weight_ih_l0 f4 [105, 6]
000000 01 a1 5d bc 0f 93 c2 bc 30 f2 4a bc 57 db 7f 3d
       -0.013527156 -0.023751764 -0.012386844 0.06246504
000010 c8 5d 50 3d 6b ec f3 bd 2e 4b eb 3c 1d 96 ae bd
       0.050870687 -0.119103275 0.028722372 -0.085247256
000020 5a 4a 71 3e 87 ce 5b bd 67 a8 ba 3d 43 13 7e 3d
       0.23563519 -0.053663757 0.091141514 0.06203009
000030 c0 83 bd 3d 10 f2 77 be b3 df 35 bb 08 47 37 3e
       0.09253645 -0.24213433 -0.0027751743 0.1789819
000040 61 52 c0 3d af 2e 6e 3e b2 b0 1e be 50 f9 bd be
       0.093907125 0.23259996 -0.15497091 -0.37104273
000050 c8 eb 16 3e 46 7e 3e bd a9 33 15 bb 06 79 f4 3b
       0.14738381 -0.046507142 -0.0022766388 0.007460716
000060 0a 9c 25 be c3 3f 9e be 65 c2 59 bd c1 b0 1c 3e
       -0.16172805 -0.3090802 -0.053163905 0.15301801
000070 04 a3 40 bd 0a 2a 71 3e c0 c3 17 be f6 f8 de bd
       -0.047030464 0.23551193 -0.14820766 -0.10887329
000080 32 b4 83 bd 8d 37 92 3c 24 14 39 bd 50 a4 2e 3e
       -0.06430854 0.017848754 -0.045185223 0.17054868
000090 7d d6 f9 bd 41 65 f9 3d 8a 59 54 3c 77 3e 4a 3e
       -0.121991135 0.12177516 0.012960801 0.19750391
0000a0 c8 5e 0b 3e 4b b5 0b 3d 72 16 46 be 9f 0b 28 be
       0.13610375 0.03410844 -0.193445 -0.16410683
0000b0 53 69 dd bd 41 d9 0c be 4a ab e6 bd 08 be 29 3e
       -0.108111046 -0.13754751 -0.112631395 0.16576397
0000c0 f7 83 54 3d ed 15 99 3c 18 87 fb 3b 7b a7 df bc
       0.051883664 0.018687213 0.0076760165 -0.02730154
0000d0 33 9b 10 3d 7f d3 06 3e d5 53 f9 bd 0a 48 75 be
       0.03530426 0.13166617 -0.12174193 -0.23953262
0000e0 2f 43 5e bd 80 6d a6 3d 91 69 1c bd 6d 9a ba 3d
       -0.05426329 0.08126354 -0.038186613 0.09111486
0000f0 77 2d 2d be 1f 72 41 be c9 16 a6 3d 41 7e 20 bd
       -0.16911875 -0.1889119 0.08109815 -0.039182905
000100 81 c0 dc 3d 5a 47 d7 3d 23 ed 14 be 59 91 11 be
       0.10778905 0.10511656 -0.14543585 -0.14215602
000110 fe 1d db 3d 55 88 4c 3e fa dd 56 3d a0 a4 a8 bd
       0.1069908 0.19973882 0.052457787 -0.08234525
000120 41 01 28 3e 4c b9 c9 bd d1 bb 0a 3e 3a 3f 70 3e
       0.16406728 -0.09849796 0.13548209 0.23461619
000130 47 00 87 3d 55 f6 05 3d fa d6 02 be d2 cc 38 be
       0.0659185 0.032705624 -0.1277732 -0.18046883
000140 74 bc 81 bd ab 71 00 be 14 90 04 be fd 51 4a be
       -0.06334773 -0.12543361 -0.12945586 -0.19757839
000150 7d e6 ea 3d 5f ca 17 3d 81 dd 46 3e 95 44 07 3e
       0.114697434 0.03705823 0.19420435 0.13209756
000160 01 3e fe bd d7 2d bf 3d eb 8e e5 bd 9e b0 91 be
       -0.1241417 0.09334915 -0.112089 -0.2845506
000170 5d 7b 1e bc e5 eb 51 3e 1c bd 05 3d fb 1e 3f 3e
       -0.009672967 0.20500143 0.032651052 0.18664162
000180 ce 41 8d bd 76 83 5a be 3c 90 8c 3d e7 25 d7 3d
       -0.06897317 -0.21339211 0.06863448 0.10505276
000190 86 9a 2b 3e 09 ef a5 3d 80 78 25 3e 00 e3 45 be
       0.16758165 0.08102233 0.16159248 -0.19324875
0001a0 ff a4 c3 3d 9c 8f 0b 3e 3e 2e 82 3d ea 63 4a bd
       0.09552955 0.13629001 0.06356476 -0.04941169
0001b0 d5 49 d6 bd df 2c 98 be 28 3a 89 bd 8e 90 da bd
       -0.10463301 -0.29721734 -0.067005455 -0.10672103
0001c0 30 e9 d7 3d f3 9a 7c bc 81 cc a5 3d da 74 54 bd
       0.10542524 -0.015417802 0.08095647 -0.05186925
0001d0 8e 27 56 3d f5 7d e0 3c 21 b7 0b 3e 62 22 36 3d
       0.052283816 0.027403811 0.13644077 0.044466384
0001e0 a2 e9 9c be 37 ed 9a be 80 55 93 3c 65 be 24 3e
       -0.30646998 -0.30259106 0.017985106 0.16088255
0001f0 34 37 9a bc 05 9d c1 3d 04 da 97 bb b3 48 62 be
       -0.018825151 0.09453777 -0.004634144 -0.22098045
000200 17 88 09 bd 54 49 e6 3d 72 ab 15 3e 92 27 c5 3d
       -0.03357705 0.11244455 0.14616182 0.09626688
000210 9b 8c 9e 3e a3 c0 17 3d fd 0b de bc 7f 50 9d 3c
       0.30966648 0.037048947 -0.027105326 0.019203423
000220 c4 06 dc 3c 4a 99 4e bd 06 c1 32 3c b8 66 a5 bd
       0.026858695 -0.050439157 0.010910278 -0.08076233
000230 9b 1f 73 3d d0 c1 13 bd a6 e5 b9 bd 76 1b 51 3e
       0.059356313 -0.036073506 -0.09077005 0.20420632
000240 1c 3e 05 3e 18 33 10 3e 76 da de 3d ba 92 a2 bd
       0.13011974 0.1408199 0.10881512 -0.07938142
000250 20 cf ab 3d 8e 5e 38 3e f0 48 da 3d 16 0e 95 be
       0.08389115 0.1800482 0.10658443 -0.2911231
000260 52 d8 b4 bd 2d bb 37 3e 0b ae eb 3d f1 ac 82 bd
       -0.08830322 0.17942496 0.115078054 -0.06380642
000270 32 80 e2 bd 1a 4d 83 bd 01 5b a1 3d db 29 4d bb
       -0.110596076 -0.0641119 0.07878686 -0.0031305465
000280 3c d7 2b 3d 9b 77 1d 3e 82 c0 29 bd d2 a8 25 3d
       0.04195331 0.15377657 -0.041443355 0.040444203
000290 aa 53 f6 3d d8 06 17 ba 28 e3 66 bc 92 8b 24 3e
       0.120276764 -0.00057612127 -0.014092244 0.16068867
0002a0 5b 55 ab bd ba d7 63 be 6b 5d a3 3c 66 0c c4 3c
       -0.0836589 -0.22250262 0.019942006 0.023931693
0002b0 d3 02 a3 3c a8 67 81 3d 4c c1 e4 3d ba b5 9f 3d
       0.019898808 0.06318599 0.11169681 0.077983335
0002c0 1e da 6b 3e 66 73 e2 3c 0f 77 fd bd 9b 99 d8 bd
       0.23032424 0.027642917 -0.12376224 -0.10576173
0002d0 e3 a3 30 3e 46 c3 e8 be af e1 a2 3d 6c 53 d2 3d
       0.17250018 -0.45461482 0.07953202 0.10269818
0002e0 0f 42 39 3d 93 b5 12 3e a1 a5 64 3c 87 77 19 be
       0.045229014 0.14327078 0.013955505 -0.14987002
0002f0 4f a5 f9 bd 3a 8d 53 3c 02 92 46 3c bd 1d 29 3e
       -0.12189733 0.012912089 0.012119772 0.1651525
000300 cc b1 ef 3d 31 7a 98 3e 77 d8 13 3e d0 a1 3a 3e
       0.11703834 0.29780725 0.14438044 0.18225789
000310 83 1c 36 3e c3 1a 51 3e c2 ad 43 be b1 f9 5d be
       0.17784314 0.20420365 -0.19109252 -0.21677281
000320 30 23 1a 3d 77 87 28 3e d5 97 4a 3e 5c 03 31 3e
       0.037631214 0.16457926 0.19784482 0.17286438
000330 52 e5 96 3d 89 3d 7a 3c 0a fe c0 3d 17 54 29 bd
       0.07367958 0.01527346 0.09423454 -0.04133996
000340 f0 94 0f be 26 8d c2 3d bd f5 14 3e d8 92 a5 bd
       -0.14021659 0.09499578 0.14546867 -0.08084649
000350 8d 79 87 3d ff 39 bb bd b9 e8 67 bd 3a 81 b5 3c
       0.06614981 -0.09141921 -0.056618426 0.022156347
000360 f2 f8 40 bd 82 20 bc be 6a 34 9d 3d 48 09 e6 3d
       -0.047112413 -0.36743551 0.07676013 0.11232239
000370 32 83 a2 bc 31 9a 7b bd 04 37 a7 3c 72 2b a2 3e
       -0.01983795 -0.061426345 0.020411976 0.3167377
000380 82 94 a0 be c4 ae 80 bc 32 e1 4b bd 9e 83 00 bb
       -0.31363302 -0.015708335 -0.04977531 -0.00196097
000390 a6 6a 3d 3d d9 b9 e2 be 40 88 43 3d aa 05 06 bd
       0.046244286 -0.44282416 0.04773736 -0.032720245
0003a0 de 48 74 3d 8c 46 02 3e 96 50 16 3e bf 2d 4a 3e
       0.059639804 0.12722224 0.14679179 0.19744013
0003b0 17 1f 03 bf b3 cd 9b be c3 e0 93 be b1 7e 83 be
       -0.51219314 -0.30430374 -0.28882417 -0.25682595
0003c0 21 c4 ca 3d 4d 6e bc 3e 93 ad 82 3c 9c f8 87 3e
       0.0990069 0.36802903 0.015951907 0.2655686
0003d0 d8 b8 a6 be bd 63 00 be 2a 1d b0 3d f2 73 dd 3e
       -0.325629 -0.12538047 0.085993126 0.43252522
0003e0 fd b5 98 be f7 79 6c bd 40 77 0f 3c 0b c4 e6 3d
       -0.29826346 -0.057733502 0.008756459 0.11267861
0003f0 ef 4f a3 3e 28 7e df 3e b9 33 c4 bd f0 cb 96 bb
       0.31896922 0.43650937 -0.09580178 -0.004601948

gru.weight_hh_l0 f4 [105, 35]
000000 fd 59 87 3b 40 ac 8e 3e f4 c8 a1 3d 0f 1e 40 3e
       0.0041306005 0.2786579 0.07899657 0.18761466
000010 92 d5 08 bd 43 66 14 3e b5 b5 04 3e af 30 c1 bd
       -0.0334068 0.14492135 0.1295994 -0.09433114
000020 db 83 1e bc 01 c3 9f bd 61 4a 4f bd f9 c5 1c 3d
       -0.0096749915 -0.07800866 -0.050608043 0.03827474
000030 12 f2 54 3d 07 b0 74 3d 01 cf 94 3d bc ea ff bd
       0.05198867 0.059738185 0.07266045 -0.12495944
000040 b2 9c 05 3e 43 0a bf 3d 1a 84 16 3d 6a 4b af 3d
       0.13048056 0.09328129 0.036747076 0.08559306
000050 b9 21 b6 3d 73 76 06 3e 68 da 06 bd 02 51 28 bd
       0.08893151 0.13131122 -0.032923132 -0.04109288
000060 9e d6 86 3d b4 8e 6c be 10 0d f3 3d 8d 91 19 be
       0.06583904 -0.23101312 0.11867726 -0.1499693
000070 0f cb 89 3d 63 eb 16 be 83 4b 16 3e a7 ff 03 3e
       0.067281835 -0.1473823 0.14677243 0.12890492
000080 53 25 34 3d f2 8f 79 be 53 59 24 3e 4a 33 74 be
       0.043980908 -0.24371317 0.160497 -0.2384769
000090 78 95 4a bd c5 a6 3c 3e d1 b3 f5 3c 87 15 2e 3d
       -0.04945895 0.18422993 0.02999297 0.042501
0000a0 23 fe 87 3e c0 fd c8 bd 76 be a1 3e c1 c1 1a bd
       0.26561078 -0.09814024 0.31590623 -0.037782434
0000b0 14 13 ed bd de fd 3e 3b a5 fe 19 3e a2 8f 01 3e
       -0.115759045 0.0029143016 0.15038545 0.12652448
0000c0 8c 16 6a be aa 61 38 be 5b df cf 3d 3f 3c 62 bd
       -0.22860163 -0.18006006 0.101500235 -0.055233236
0000d0 da f6 2c 3d ef 4f 5c bd a3 fa 01 be fa 74 e4 bd
       0.042227603 -0.053787168 -0.12693267 -0.11155124
0000e0 cb 26 33 bd 8b 1f 5a be 87 fa 93 3e 43 26 08 3e
       -0.043738168 -0.21301095 0.28902075 0.13295846
0000f0 7a bd 93 bd a7 a5 06 3e 9b 9e a7 bc 93 cf 28 be
       -0.07213874 0.13149129 -0.020461371 -0.16485433
000100 46 af c6 3c 91 19 56 3e 5b d6 87 3d 81 24 41 3d
       0.024253499 0.2090819 0.06632682 0.047153953
000110 94 43 08 bd b4 46 d3 3d 3a 30 14 be 46 28 c0 bd
       -0.033267573 0.1031622 -0.14471522 -0.093826815
000120 8c b0 0a be fe e4 01 bc 37 d9 05 3d 3c ad 03 bd
       -0.1354391 -0.007928131 0.032677855 -0.03214763
000130 13 33 a4 3d f2 86 19 be f1 db 13 bd 81 2a 33 3d
       0.08017554 -0.14992884 -0.036098424 0.043741707
000140 c1 86 e4 bd 7b 42 68 bd df ee d2 bd 05 f2 db bd
       -0.11158515 -0.056704026 -0.10299467 -0.10739521
000150 e9 c4 34 be 8e f8 c5 3d d3 e2 2b 3e bd 88 b4 3d
       -0.1765324 0.09666549 0.16785745 0.08815143
000160 cb 7b d1 3d 62 93 24 3e 9b 93 c3 3d 59 c7 9a 3d
       0.1022869 0.16071847 0.09549638 0.07557554
000170 bc 99 f3 3c 11 0e ab 3d 6a dc ac bd 6a 49 ee 3d
       0.029736392 0.08352292 -0.08440478 0.11635096
000180 39 6b b4 bd 55 17 4f 3c 3c 7e 9d bd b3 29 eb bd
       -0.088095136 0.01263984 -0.07690093 -0.11482563
000190 35 85 6d 3b e1 cd 0c 3e 24 04 2e bd aa 40 bd bd
       0.0036242728 0.13750412 -0.042484418 -0.09240849
0001a0 96 d3 f9 3d 72 4e f8 3b 55 f8 5f be 96 09 f4 3b
       0.1219856 0.007577711 -0.21872075 0.007447432
0001b0 aa 72 87 3e 72 15 93 bd 76 96 f8 3c d3 28 2c be
       0.2645467 -0.07181825 0.030345183 -0.16812448
0001c0 9f 32 e7 b9 44 b1 43 3c 76 3b 37 3d 39 f9 24 be
       -0.0004409747 0.011944119 0.04473444 -0.16110696
0001d0 15 9e ce bc 1e 3b a2 3c 68 13 3f 3d 9b fe 50 3d
       -0.025221864 0.01980358 0.046649367 0.05102406
0001e0 89 38 4f bd 89 0e 35 bd 86 ec 47 be df b2 5d be
       -0.050591026 -0.044203315 -0.1952382 -0.21650265
0001f0 cf 42 29 3e 45 d3 c6 bd c2 32 b8 3d 46 88 a2 bd
       0.16529392 -0.09708265 0.08994056 -0.07936148
000200 7f 10 e3 3d 18 f4 3b be 64 ef 21 3e 6c e4 d7 3d
       0.11087131 -0.18354833 0.15813977 0.10541615
000210 c1 e8 92 3d e8 30 df 3d 8d 6f 60 3d 43 a9 24 be
       0.071733005 0.10898 0.054793883 -0.16080193
000220 f3 88 59 bd 91 d8 b5 bd c2 f1 42 3e 17 b1 ce 3c
       -0.05310912 -0.088791974 0.19037536 0.025230927
000230 b5 2f 08 be bc 80 56 be e1 78 fd 3d f2 83 1c 3e
       -0.13299449 -0.20947546 0.123765714 0.15284708
000240 e6 23 e4 bd b3 8d 18 3d 1e 21 20 3d b0 23 21 3e
       -0.111396596 0.03724451 0.039094083 0.1573627
000250 ed c8 d5 bd 04 d1 9c bc c4 85 71 bc 84 5a b5 bc
       -0.10438714 -0.019142635 -0.014741365 -0.022137888
000260 c1 d4 2a 3b 90 e3 9b 3d 33 68 be bc 40 33 d2 3a
       0.0026066753 0.076117635 -0.023243045 0.0016037002
000270 a9 23 c4 3c 4d 62 2a be aa c3 f2 bc 11 dc 16 3d
       0.023942785 -0.16639061 -0.029634316 0.036830965
000280 50 07 09 be b5 dc 6b be 0d c0 12 be 15 bd de bc
       -0.13381696 -0.23033412 -0.14331074 -0.02718977
000290 b0 67 64 be bb 16 57 be 39 5f 16 3e ca 32 c2 bd
       -0.22305179 -0.21004765 0.14684762 -0.094823435
0002a0 2f 64 2c bd e7 3f 20 be c0 23 72 bd 38 cd 3c 3d
       -0.04208773 -0.15649377 -0.059116125 0.04609415
0002b0 9e bb 01 bd 83 0e 02 3e bb e9 09 3e 78 ab 5f be
       -0.031673066 0.12700848 0.13468067 -0.21842754
0002c0 5e cd 2c bc 9d cc b0 3c 3d 95 9f 3e 35 22 fd bd
       -0.01054701 0.021581942 0.31168547 -0.1236004
0002d0 53 80 3d bb 44 4a cf 3d 8e b4 c3 bc 66 4e bb bd
       -0.0028915599 0.10121587 -0.023889806 -0.09145813
0002e0 a0 2b 96 bd 89 8f a1 bc d7 cb 29 3e 4f f6 71 bd
       -0.073325396 -0.019721763 0.16581665 -0.05907279
0002f0 55 8e be bd 44 24 cb bd 06 34 51 3e b8 b7 0b bc
       -0.093044914 -0.099190265 0.20430002 -0.008527689
000300 81 b1 09 be 18 a9 d3 bd dc fe 83 3d 47 bf e0 3d
       -0.13446619 -0.103349864 0.06445095 0.10973983
000310 9b 8f 05 3d f5 26 4e 3d 73 cd c7 bd ad 99 61 be
       0.032607656 0.05033012 -0.09755983 -0.22031279
000320 1a 71 84 bd 55 65 3e be 93 09 86 bd 96 96 2b be
       -0.06466885 -0.18593343 -0.06544795 -0.16756663
000330 5a ef 27 3e 5f e5 63 be 82 ff d7 3d 93 b7 ff 3d
       0.16399899 -0.22255467 0.10546781 0.12486186
000340 a2 59 2a 3d 29 61 1c 3e 5f 17 3e 3d 3f 1d 22 be
       0.041589387 0.15271439 0.046409007 -0.15831469
000350 66 8e 08 3e 71 ca 80 3d 9d 57 c1 bc ec 48 0c bc
       0.1333557 0.06288613 -0.023601348 -0.008562308
000360 56 76 5d be 6f 5c 60 3d 70 62 13 3d 80 12 70 3d
       -0.21627173 0.05477565 0.03598255 0.058611393
000370 40 76 f6 bc 99 e5 34 3e 0a 57 0e 3e ed 11 81 bd
       -0.030085683 0.1766571 0.1390039 -0.06302247
000380 cf c2 94 bd 33 7c 4a 3e a4 b3 17 be f1 fb ab bc
       -0.07263719 0.1977394 -0.14814621 -0.020994158
000390 01 cb 70 bd c4 b6 cc 3d b8 5c 1e be 5d 2e 06 be
       -0.05878735 0.09995797 -0.15465057 -0.13103624
0003a0 fa 79 20 3d ac 46 a1 3d 39 84 82 bc 87 01 2f be
       0.039178826 0.07874808 -0.01593219 -0.17090426
0003b0 ce aa 23 3e 2c 1e f7 bc 6e a1 e6 bd c9 00 3f 3b
       0.15983126 -0.030165754 -0.11261259 0.0029144755
0003c0 b6 8a d1 bd e0 4f 06 3e a3 ac 38 bd b9 2c 17 3e
       -0.10231535 0.13116407 -0.045086514 0.14763154
0003d0 b8 fe 31 3e 55 28 7b bd be 97 18 bd 6c 89 db bb
       0.17382324 -0.06131776 -0.037254088 -0.0066997316
0003e0 01 be 4f 3e d8 36 4c 3e 80 b1 a5 3c 6c b8 5d 3d
       0.20287324 0.19942796 0.02022624 0.054130957
0003f0 e8 de 10 bd 58 9a bb bc 77 52 14 3d 76 af c5 3c
       -0.03536883 -0.022900745 0.036211457 0.024131518

gru.bias_ih_l0 f4 [105]
000000 40 d0 5d 3e b9 7b 98 bc ea 02 e2 3d 2a 7f 1b bd
       0.21661472 -0.018613683 0.11035712 -0.03796307
000010 be b4 f4 3d d4 34 3f 3e 9a 13 3b bd 98 ff 0f be
       0.11948536 0.18672496 -0.04567299 -0.14062345
000020 d4 d3 71 3e 71 b2 60 3e 70 5c 00 3c 63 0c 5e 3e
       0.23615962 0.2194307 0.007834539 0.21684413
000030 af 1c dd bc 04 cd 7c 3e 04 f0 78 3e 1f 7b ae 3d
       -0.026991216 0.24687582 0.24310309 0.08519577
000040 f8 0b 57 bd 98 ae 7f 3e 8d 3c 00 3e 77 00 22 3d
       -0.05250165 0.24968946 0.12523098 0.039551225
000050 bd 23 d8 bd 86 65 50 3d 02 10 02 3e 9f 1f 2a 3e
       -0.105536915 0.05087807 0.12701419 0.16613625
000060 2c 7c 00 3d f4 47 e8 bd 5c ab 2c 3d ef d4 dd bc
       0.03136842 -0.11341849 0.04215561 -0.027079074
000070 8a 73 bf 3c 24 12 dc 3d 73 b7 9c 3d 99 b5 8f bc
       0.023370523 0.107456475 0.07652178 -0.017542647
000080 57 3e 6b bd 95 71 83 3e 2a 33 af bc d3 b5 1a be
       -0.0574325 0.25672594 -0.021386702 -0.15108423
000090 ef 31 02 3e 0e 20 b4 bd 18 1e a9 3c 3c 8a ed be
       0.1271436 -0.087951764 0.020644233 -0.46394527
0000a0 92 70 85 3d d0 00 37 3e ed ea f4 3d 81 1e aa bd
       0.06515612 0.17871404 0.11958871 -0.083065994
0000b0 ff 4b d6 bd fa 87 d9 be 79 4a 41 be e0 ea 92 be
       -0.10463714 -0.42486554 -0.18876065 -0.2869482
0000c0 4c 8e 56 be d2 be 81 be cb d2 5e 3d 52 8e 08 be
       -0.2095272 -0.25340897 0.054400247 -0.13335541
0000d0 b0 cd 04 be b3 6b e7 be 2a 07 57 3e b5 5b 9d 3d
       -0.12969089 -0.45199355 0.20998827 0.07683507
0000e0 f0 41 ba be 6d 66 72 3d 9c 5b 0f 3e f3 a1 83 bc
       -0.3637843 0.059179712 0.1399979 -0.016068434
0000f0 c9 fa ba bd 86 c8 7a 3d cb 30 99 be b3 85 eb be
       -0.09129865 0.06122639 -0.2992004 -0.46000442
000100 6a 8d 36 be 3f 19 26 bf 78 da 1e bd 49 c4 4d be
       -0.17827383 -0.6488227 -0.038782567 -0.20094408
000110 6a 36 31 3d 52 9d 1f be e5 b0 88 3c 07 d4 88 3b
       0.043264784 -0.15587357 0.016685912 0.0041756663
000120 f3 fa 55 bd 70 fe 30 3d 82 18 fb bd 1f eb 0d bd
       -0.052241277 0.0432114 -0.12260534 -0.034648057
000130 65 81 eb bd 5f 2f 52 bd 4a de 11 3e 0d f4 6f 3d
       -0.114992894 -0.051314708 0.14244953 0.058582354
000140 10 ee cd bd e5 99 3a 3e 70 91 a1 3d 82 79 97 be
       -0.100551724 0.18222769 0.07889068 -0.2958489
000150 92 11 7f bd fc 49 e1 3c 1e 2d cb 3d 52 e6 83 3d
       -0.062272616 0.027501099 0.09920715 0.064404145
000160 03 22 f0 bd 9b cf 86 bd aa 00 b5 3d 8a 1a dd bd
       -0.11725237 -0.06582566 0.08838017 -0.107960775
000170 ce dc 50 bd a5 a2 01 3e dd 55 46 3c a7 c5 2c 3e
       -0.050991826 0.126597 0.012105432 0.16872273
000180 3d b2 16 3d 31 d4 b3 bd 1f 2e 62 bd 4f 18 07 3e
       0.036791075 -0.08780707 -0.055219766 0.13192867
000190 7f 9c 2a 3e 2d 45 88 bd 08 05 1e be ee d3 1d 3c
       0.16661261 -0.06653819 -0.15431607 0.0096330475
0001a0 99 d6 58 3e
       0.21175613

gru.bias_hh_l0 f4 [105]
000000 c0 9a 2d 3d 1d 66 ce 3d ef c9 76 bd a5 50 80 bd
       0.04238391 0.1007807 -0.060251173 -0.06265382
000010 a7 27 80 bd 5b 05 44 3c ef 88 00 3e f9 f3 88 bd
       -0.06257563 0.0119641675 0.12552236 -0.06687159
000020 d5 a9 97 3d f6 fa 1e 3e 83 cc 84 3c 65 3e 1a bd
       0.0740544 0.15525422 0.0162108 -0.03765716
000030 74 04 4c ba 13 4c 77 3d 52 bf 82 3e ad 5d 07 3e
       -0.0007782646 0.060375284 0.2553659 0.13219328
000040 f8 88 c5 3d 44 7e 48 3e 65 4c 3c 3e 0f 07 43 3e
       0.09645265 0.19579417 0.18388517 0.19045661
000050 d2 56 8c bd d2 48 58 3e 94 a3 bb 3d 69 1c e4 3d
       -0.06852497 0.21121529 0.091620594 0.11138231
000060 3f 68 88 bc a2 b5 86 3c 73 fd 84 bd 21 15 fa 3d
       -0.01665127 0.016444031 -0.06493654 0.12211061
000070 ee 63 af 3d 01 91 01 bd d0 44 de 3d 8b f9 1e 3e
       0.08563982 -0.031632427 0.10852969 0.1552488
000080 d5 85 89 bc 96 1c 03 3e 67 d7 c0 3d 78 94 35 bd
       -0.016787449 0.12803873 0.09416085 -0.044331044
000090 d3 80 0a 3e 9d 55 12 be ad 1a 6c 3e ea 6a a8 be
       0.13525705 -0.14290471 0.23057051 -0.3289407
0000a0 86 d3 a7 3b c2 d3 45 3e 79 0d e2 bd 1b e5 ce bd
       0.005121651 0.1931906 -0.11037726 -0.10102292
0000b0 90 48 49 be d4 00 aa be d6 ac b3 3d 94 e9 7e be
       -0.19656587 -0.33203757 0.087732 -0.2489379
0000c0 49 57 a2 bd bc 14 7d be 8b 61 cb 3c a3 50 21 be
       -0.079268046 -0.24714941 0.024826786 -0.15753417
0000d0 d2 55 a0 be f9 b0 a5 be ed de 08 bd 3a e1 17 bd
       -0.31315476 -0.32361582 -0.033415724 -0.037080027
0000e0 38 fe 94 be 8a 25 ef bd e9 0e 0e 3e e9 a6 96 3d
       -0.29100204 -0.11677082 0.13872875 0.07356054
0000f0 15 d7 df bd 5c a0 32 3d cf 6b 84 be 1e 5d 42 be
       -0.109296955 0.043609962 -0.258635 -0.18980834
000100 75 f9 f9 bc 7b c5 20 bf 67 55 00 3e bb 91 01 be
       -0.030514458 -0.6280133 0.12532578 -0.12653248
000110 31 98 1c 3e c6 32 b0 be f9 f3 9f bd 30 21 46 3e
       0.15292431 -0.34413737 -0.07810206 0.19348598
000120 2c ef 40 3e 22 b0 a7 3d 2d 9d 95 bd 57 e0 6c 3d
       0.18841237 0.081878915 -0.073053695 0.057831135
000130 1b 34 dd 3c c9 c4 33 bd 00 ed 30 bc c6 ac 97 3b
       0.027002385 -0.04388884 -0.010798693 0.0046287505
000140 e7 76 ad bc ca be 0f bc 04 05 2c be cf 02 11 be
       -0.021174861 -0.008773515 -0.16798788 -0.14161228
000150 91 c3 16 be b4 fb a2 bd bb 78 a4 bc 88 70 05 3d
       -0.1472304 -0.07958165 -0.0200771 0.03257802
000160 e5 16 23 be 04 3f 7c bd 2e 4c c6 3d b1 5b 18 be
       -0.15926702 -0.061583534 0.09682499 -0.14878727
000170 6d a3 94 bd 68 32 e4 ba ea 7d 16 3e 3b da 1b be
       -0.072577335 -0.0017410042 0.1469647 -0.15219967
000180 d1 31 e0 3d 5f ae 43 be f1 b6 a3 3c 5b d0 72 3d
       0.10947002 -0.19109486 0.019984694 0.059280735
000190 ff f7 cf 3d 40 f6 90 3d 4e 6d 14 bd 11 12 e5 bd
       0.101547234 0.070782185 -0.036237054 -0.111850865
0001a0 48 9e 05 3e
       0.13048661

gru.weight_ih_l1 f4 [105, 35]
000000 aa 71 bb bd cb f2 85 be dd 00 5d bd c9 58 90 3d
       -0.09152539 -0.261618 -0.0539559 0.070481844
000010 95 72 45 bd ac 17 32 be 35 bf fe bd 59 4a d7 3c
       -0.048204977 -0.17391843 -0.124388136 0.026280569
000020 53 29 8f bc a6 8a ca 3d 35 1c 08 bd ef 97 25 3b
       -0.01747576 0.09889726 -0.033230025 0.0025267561
000030 30 dc 0b be cf f0 55 3e f6 07 b6 bd c1 18 22 bd
       -0.13658214 0.20892642 -0.08888237 -0.03957439
000040 1d a3 d4 3c 1c 07 39 3e 16 f4 27 3e a6 9e 38 3e
       0.025956685 0.18069118 0.16401705 0.1802927
000050 0c a6 dc bd 78 85 cf bd c9 14 bd bd 11 be 42 bc
       -0.107738584 -0.10132879 -0.0923248 -0.011886136
000060 0d f2 05 3e 25 c3 a4 3d 5d fd 40 3e 38 21 0c bd
       0.13080616 0.08045033 0.1884665 -0.034211367
000070 2a 45 60 3d a8 41 f4 3d 7d f8 fb 3d 03 a4 52 be
       0.05475346 0.119265854 0.12303255 -0.20570378
000080 64 50 36 bd 6b 8e be bd be 36 b3 3d 9d a6 29 be
       -0.04451026 -0.09304508 0.087506756 -0.16567464
000090 af f9 40 3e 94 51 94 3b da fd a2 bc d4 36 d0 3d
       0.18845247 0.0045263264 -0.019896436 0.10166708
0000a0 66 f6 6e 3e c3 a9 e7 bd 02 6c 97 3e 12 69 53 be
       0.23336181 -0.11311676 0.2957459 -0.2064555
0000b0 be f0 1b 3e 36 a0 08 be 50 02 01 3e 35 40 18 3d
       0.15228555 -0.13342366 0.12598538 0.037170608
0000c0 a8 ac 23 bd 40 9a b1 3b 45 f6 29 be 76 6d 01 be
       -0.03995958 0.0054199994 -0.1659785 -0.12639412
0000d0 5b a3 b0 3d 36 d2 25 3d bf 6c 2e be ab e8 59 3e
       0.086249076 0.040483676 -0.17033671 0.21280162
0000e0 0f 61 85 be e3 c3 0a bd 1c 66 10 3e c7 03 45 be
       -0.26050612 -0.03387822 0.14101452 -0.19239722
0000f0 99 96 c3 3c ee f6 02 bd 4a 07 74 bd 03 01 c8 bd
       0.023875521 -0.03197377 -0.059577264 -0.09765818
000100 bf cd bd 3c 63 97 b4 be 8e 15 1b 3e c2 75 dc 3c
       0.023169396 -0.3527175 0.15144941 0.02691162
000110 d3 4b 5b be 62 b9 74 bd 3b 61 f6 bd 7d ea 23 be
       -0.21415643 -0.059747107 -0.12030264 -0.16007419
000120 a4 26 ab bc 23 1c a0 3d 4a 4c 68 be 4d c3 21 3d
       -0.020892449 0.07817867 -0.22685352 0.039492894
000130 92 a2 56 be 60 77 21 3c dc 72 dc 3d eb 3a b4 3d
       -0.20960453 0.009855121 0.10764095 0.088003
000140 eb 08 82 be 26 e4 45 3e fb a9 43 bd 47 60 76 bd
       -0.2539743 0.19325313 -0.047769528 -0.06015041
000150 0c f0 0d be ad 8b 2a 3e cb ba 62 3c 7b ab 1d be
       -0.13861102 0.16654845 0.01383848 -0.15397446
000160 e1 88 64 bb 51 93 6f 3d 08 2d a0 3d 9c 4c b6 39
       -0.0034871625 0.0584901 0.07821089 0.00034770824
000170 c4 0b 89 3d 9a 12 73 3e 85 10 42 3e cb 88 44 bd
       0.06691697 0.23737565 0.18951614 -0.04798202
000180 e5 d4 af bd b9 ca 20 be da 38 7c 3d 0e b7 45 3d
       -0.08585528 -0.15702333 0.061577655 0.048270278
000190 f9 8d 96 3d 2a 56 3e 3e ad eb 88 3d be 3b 05 bc
       0.07351298 0.18587556 0.066855766 -0.008131919
0001a0 7e 58 7f bd 71 1e ec 3d 1b de a1 bd 7f d1 7f 3e
       -0.062340252 0.11529244 -0.079036914 0.2498226
0001b0 2b 9b c7 3a 4a 8c cf 3d 54 b7 2e 3e 63 3a a3 bd
       0.0015228739 0.1013418 0.17062122 -0.07970121
0001c0 12 fc 30 bd 30 9d 3c bd a5 78 67 3e cf 88 f1 bd
       -0.043209143 -0.046048343 0.22604616 -0.11793672
0001d0 f8 d5 4e bd bd cc ac 3d 1c ab 4a bd 21 da ad bd
       -0.050497025 0.08437488 -0.04947959 -0.084888704
0001e0 88 8c 8e 3d c2 0d 98 3d 19 47 be 3d 0b 4c 5d be
       0.06960398 0.07424499 0.092909046 -0.2161104
0001f0 de f3 cd bd 43 39 64 ba de 72 d4 bd 02 84 70 3d
       -0.100562796 -0.00087060424 -0.10373472 0.058719642
000200 9d a2 63 3d b0 2e 50 be 0b 21 00 be 51 de 85 bd
       0.055575002 -0.2033031 -0.12512605 -0.06536544
000210 a9 3c 78 ba b5 0e 0e 3e a7 c3 b2 bc b8 11 2c 3d
       -0.0009469488 0.13872798 -0.02182181 0.042009085
000220 3e fa 4c 3e 13 7c 96 3d 6c 1f 51 be 93 13 1b 3d
       0.20017335 0.07347884 -0.20422143 0.037860464
000230 41 3c 08 be 12 69 5f bc ff 06 59 ba 8e 49 5d 3e
       -0.13304235 -0.013635891 -0.00082789356 0.2161009
000240 6d 65 88 3d f9 bb 89 bb 71 0e a3 bb 64 96 8d 3c
       0.066599704 -0.0042033163 -0.004976087 0.017283626
000250 f3 c8 60 be 06 ae 5d 3d 8f 82 20 be 23 9a ca 3c
       -0.21951656 0.05412104 -0.15674804 0.024731701
000260 77 bd 57 be be 81 01 3d 45 66 e1 3a ac c5 45 bd
       -0.21068369 0.031617872 0.0017196616 -0.048284218
000270 8f b4 7f 3d 89 71 1e bd 18 7b 26 be fc d1 8f bd
       0.062428053 -0.038682494 -0.16257894 -0.07022473
000280 8a 64 17 bc 55 a5 6e be 58 31 a0 bd 24 cc 09 3e
       -0.009240279 -0.23305257 -0.078219116 0.1345678
000290 86 25 85 bd 8c d2 fb bd ee 8d 26 bd 86 2c a0 3d
       -0.06501298 -0.12296018 -0.0406627 0.07820992
0002a0 d1 a6 4a be 31 0a 1d 3d 10 84 10 3c 05 04 33 3e
       -0.19790198 0.038339797 0.008820549 0.17482002
0002b0 ab 53 85 3d 17 a6 39 be 32 18 23 3e 60 1c 0c be
       0.06510099 -0.18129764 0.15927199 -0.13682699
0002c0 75 ac 4c be e9 98 f1 3d 17 2a c8 3e b0 7b 1d be
       -0.19987662 0.117967434 0.39094612 -0.15379214
0002d0 b0 99 66 3d 85 ca 08 be 98 a9 4b bc ad 88 34 be
       0.05629891 -0.13358505 -0.012430571 -0.17630263
0002e0 5e bb 41 3e 83 d6 8d be 07 9d dd 3d 70 5f 21 be
       0.18919131 -0.27702722 0.10820966 -0.15759063
0002f0 9f 33 1a 3d 7c 55 02 3e 3f b6 25 3e eb 5f 1f bd
       0.037646886 0.12727922 0.16182803 -0.038909834
000300 40 08 0d bd f2 49 5d be 75 44 1a bd cd 33 25 be
       -0.034431696 -0.21610239 -0.037662942 -0.16133042
000310 00 23 1b be 72 44 19 be 00 86 3d 3e 81 4d d7 3d
       -0.1515007 -0.14967516 0.18508148 0.105128296
000320 b2 d4 27 3d 9c 1a 01 3e 7b 54 2d 3d 3e 6a bf bd
       0.040974326 0.12607807 0.042316895 -0.09346436
000330 ed 69 01 be ce df 90 bd ab cb bd bd 20 72 17 be
       -0.12638064 -0.07073937 -0.09267362 -0.14789629
000340 67 e5 e9 3d e8 b0 d7 3d a3 4f 9d 3c d2 34 2b 3c
       0.11420708 0.10531789 0.019203013 0.010449605
000350 2c 69 1c 3e e7 e1 0a 3e 9b 1e 38 3e 5a 6d 17 3e
       0.15274495 0.13562737 0.17980425 0.14787808
000360 37 59 27 bd 48 fb ce bd 2f a0 26 3e 8c 19 d6 bd
       -0.040856566 -0.10106522 0.16272043 -0.104540914
000370 45 80 0d be 4d 73 db 3d 77 70 31 3e f7 2e af bd
       -0.13818462 0.10715351 0.17328058 -0.0855388
000380 c8 81 ba bd 0e 07 30 be 14 84 3a 3e 5b e0 b1 bd
       -0.09106785 -0.17190191 0.18214446 -0.086853705
000390 6b ca 42 3d e8 b4 d6 3c b9 f3 32 3e 70 2e 50 3d
       0.047556322 0.02620931 0.17475785 0.050825536
0003a0 f7 17 f0 3c 75 48 60 bd d9 d5 03 be dd f8 20 bd
       0.029308302 -0.0547566 -0.12874545 -0.039299835
0003b0 4d b2 1e bd f2 5a 9a 3d 07 10 0e 3d 8f 9e d3 bd
       -0.03874426 0.07536878 0.034683254 -0.10332977
0003c0 4b f5 02 3e 17 21 3c be b2 44 f0 bd 55 e6 76 bb
       0.12788884 -0.18371998 -0.117318526 -0.003767391
0003d0 d4 1d 3b 3c 10 a1 2a be fd 76 cb bd 1c 23 04 3e
       0.011420686 -0.16663003 -0.099348046 0.12904018
0003e0 47 0e 2d be 24 ed 61 be ec c0 17 3e 96 22 0b 3e
       -0.16899978 -0.22063118 0.14819688 0.13587412
0003f0 82 cb bf bd 66 96 1e 3e 61 50 92 3d d2 46 3f be
       -0.09364988 0.1548706 0.07144237 -0.1867936

gru.weight_hh_l1 f4 [105, 35]
000000 c2 e0 3c 3c 18 d3 9f 3d a1 97 ff 3d bc ab 42 bd
       0.011528196 0.07803935 0.12480093 -0.04752706
000010 70 fb cf 39 31 c7 03 be 86 95 00 be c1 b0 bc 3b
       0.00039669452 -0.12868954 -0.12557039 0.0057583754
000020 82 be 9f bb 95 5e 9a 3d db f1 ed 3d de b9 ad bd
       -0.004875005 0.07537571 0.11618396 -0.08482717
000030 71 a0 f0 bd 10 35 56 be 1c 0e f9 bd 84 79 23 3e
       -0.11749352 -0.20918679 -0.12160894 0.15964323
000040 f8 0f 05 be b5 5b d5 bd 24 0a c1 bb 2e 07 97 3d
       -0.12994373 -0.10417882 -0.0058911014 0.07374416
000050 ca 61 08 3e d1 ed a0 3c 40 cc d8 3d 8b 5e e1 3d
       0.13318554 0.01964465 0.105858326 0.11004361
000060 3d 25 bb 3d 93 e8 42 be 28 bf 31 3d 54 e2 a2 3d
       0.09137962 -0.19034033 0.04339519 0.07953325
000070 d0 ac 7b 3c a2 ba 17 3e 79 43 b6 bc 1a 47 6e bd
       0.015361026 0.14817289 -0.02224897 -0.058173276
000080 b1 d2 f6 3d 16 3e 2b 3e 65 cd c0 bd 95 26 e4 bd
       0.12051905 0.16722903 -0.09414176 -0.111401714
000090 f4 8d fe 3d aa 8b d6 3d 2d 99 a5 bd ff 75 b5 bd
       0.12429419 0.104758576 -0.080858566 -0.088603966
0000a0 38 75 b3 3d d9 5f 34 3c b2 83 7f 3e 84 ed 3c be
       0.08762592 0.01100918 0.24952582 -0.1844998
0000b0 aa 02 0e be b2 46 22 3e bc 54 11 bd f6 02 00 be
       -0.13868204 0.1584728 -0.0354812 -0.1250113
0000c0 b6 3f b1 3d bb d7 7c 3d 90 5d 1a 3d e0 1c 0d 3d
       0.0865473 0.061729174 0.037686884 0.034451365
0000d0 98 0b e8 bd 9c c3 ac b9 49 27 05 be 9e a4 12 3e
       -0.11330336 -0.00032952137 -0.13003267 0.14320609
0000e0 23 5f 72 bc de bb 0e be 55 9c 49 3e 1a 9d 44 bc
       -0.01479319 -0.13938853 0.19688542 -0.012000347
0000f0 55 59 37 bd 0a d8 8a bd e7 aa 2c bd fd b2 0a 3c
       -0.044762928 -0.067794874 -0.042155173 0.008465526
000100 5a 0c e8 bd 1b be 00 be 60 01 2f bc 03 91 c8 bd
       -0.11330481 -0.1257252 -0.01068148 -0.09793284
000110 69 bc 19 be 92 d8 45 be c2 ff 61 3d 2e 36 23 3e
       -0.15013279 -0.19320896 0.05517555 0.15938637
000120 ec 28 89 bb 2f 49 1a be 09 d6 09 bd 16 21 e5 3d
       -0.0041857865 -0.1506698 -0.033651385 0.11187951
000130 6a 87 33 3e c1 d6 6a bd 37 62 27 be ac 21 11 3e
       0.17532125 -0.05733371 -0.1634606 0.14173001
000140 05 07 10 3d dd b3 df 3d 85 8e bd 3d 2e da 85 3c
       0.035162944 0.10922978 0.09255699 0.016339388
000150 1d f7 11 3e 1e 8b 50 3e b4 91 73 3d aa a9 3c be
       0.14254422 0.20365569 0.059465125 -0.18424097
000160 33 ac 41 be 21 fe 13 be 7f ad 35 3e b0 47 37 3e
       -0.18913345 -0.14452411 0.17741965 0.1789844
000170 64 4b ab 3d 41 a5 0d 3e c9 59 70 be 1b 36 fd bc
       0.08363989 0.1383257 -0.2347175 -0.030909589
000180 eb ed 3b 3e c6 a3 23 3e a7 7c ef bd bf 1e f2 3d
       0.18352477 0.15980443 -0.116936974 0.118222706
000190 9c 30 28 3e d1 ca 8e 3d 25 fd 28 bd 37 07 1c 3c
       0.16424793 0.06972278 -0.041257042 0.0095232045
0001a0 a9 27 26 be df 01 24 be a6 cc 0d 3c fa 54 f2 bd
       -0.16226067 -0.16016339 0.008654749 -0.11832614
0001b0 dd 19 d3 3d 73 0f 84 bd f7 e2 d8 3d 31 a8 94 3d
       0.103076674 -0.06448259 0.10590165 0.072586425
0001c0 d2 e2 1a bd 2f a5 b0 bd 54 b8 0d 3e 22 2d 88 bc
       -0.03781397 -0.08625256 0.13839847 -0.016623084
0001d0 0e 8f 0b 3e 31 f2 d4 bc 46 0b e7 bd d7 4e 37 3d
       0.1362879 -0.025994392 -0.11281447 0.044752922
0001e0 16 86 da bc 3a f8 c7 3d 91 09 6d bd 3e 5d ca bb
       -0.026675265 0.09764142 -0.05787045 -0.006175666
0001f0 db c2 2d 3e 1a 05 b4 bc 1f f4 94 3d 50 5b c4 3d
       0.16968863 -0.021975089 0.07273125 0.09587729
000200 5f 7c a7 3d 43 f2 ab 3c 47 94 a0 3d 1f 93 35 bd
       0.08178019 0.020989543 0.07840782 -0.04432976
000210 4b e9 27 3e 88 1a 39 3e d7 0f 1d bc 5d 7f b7 bd
       0.16397588 0.18076527 -0.009586296 -0.089598395
000220 fa db c5 bd 24 0b 0b 3e 65 5a 0f 3c 77 f9 0a 3e
       -0.09661098 0.13578469 0.008749579 0.13571726
000230 c6 a6 19 3e da 28 18 3d 85 b6 b0 bd 01 75 f6 bd
       0.15005025 0.037148334 -0.08628563 -0.120340355
000240 84 8a 00 be 1b 83 97 3d c7 7d 3c 3e 6a 0c f9 3d
       -0.1255284 0.07398053 0.18407355 0.12160571
000250 89 76 b1 3d bc 56 06 3e 04 a9 82 bd ac b3 ae bd
       0.08665187 0.13119024 -0.063798934 -0.085303634
000260 1c 6b 88 bd 1e 61 b3 bb 03 0e 2a bd 4f 77 c4 bc
       -0.066610545 -0.0054742238 -0.04151727 -0.023982672
000270 1f c4 40 bd 40 b3 05 be 83 bc 17 be 01 eb 99 3d
       -0.047062036 -0.1305666 -0.14818005 0.075155266
000280 8a 96 14 3d 38 2e 9d 3b 58 86 3b 3d d6 f1 10 3e
       0.036276378 0.0047967695 0.045782417 0.14154753
000290 31 be 80 bd 7f 3e 07 be 07 86 1f 3d fd 41 ff 3d
       -0.06286276 -0.13207434 0.038946178 0.12463758
0002a0 af d0 91 3c d5 93 d3 3d 0f 18 6c bd 6d cc b6 3d
       0.017799703 0.10330931 -0.05764013 0.0892571
0002b0 22 94 1c be 19 e4 36 3b 9c 0e 0b be 4c 0a e9 3d
       -0.15290883 0.0027906953 -0.13579792 0.11378917
0002c0 ae 13 c0 bd 26 a0 9a bd 66 58 7a bd 34 93 f9 bd
       -0.093787536 -0.07550077 -0.06111946 -0.1218628
0002d0 ca 32 9f bd e4 2f 02 3e 15 fc d9 bd 59 61 96 bd
       -0.07773359 0.12713581 -0.10643784 -0.07342786
0002e0 77 7d 70 bc b8 33 fa 3d 3e 70 9f bc af 4f 99 3d
       -0.014678351 0.12216896 -0.019462701 0.074859016
0002f0 65 fb 59 be 3c 5e a0 bd 45 7f 2f 3d 14 62 3f be
       -0.21287306 -0.07830474 0.042845983 -0.18689758
000300 d0 9b b7 3d 27 19 94 bb 17 d7 04 be 25 45 84 bd
       0.08965266 -0.0045196 -0.12972675 -0.06458501
000310 35 1e 01 3e b2 d3 23 be 57 84 07 bd 03 f5 11 be
       0.1260918 -0.15998724 -0.033085193 -0.14253621
000320 85 37 dc 3d 44 4d ca bd 7f d9 3a bd 83 d2 10 bd
       0.10752777 -0.098780185 -0.045617577 -0.03535701
000330 5f da 48 3e ce 71 41 3e b8 61 5a be 93 ab 4f 3e
       0.19614552 0.1889107 -0.21326339 0.20280294
000340 08 76 fe 3c dc 94 41 3d 71 44 8a 3d 2c f8 e5 bd
       0.031062141 0.047261104 0.067513354 -0.11228976
000350 46 c3 b6 3d 01 8d 44 3e 66 e0 7d bc 31 94 9b 3d
       0.08923964 0.19194414 -0.015495395 0.07596625
000360 66 4e 7e bc bd e6 fb bd b0 fa 16 be 9f 73 69 3d
       -0.015521621 -0.12299869 -0.14744067 0.05699503
000370 d1 b8 b5 3d 3f 87 8d 3d f6 e0 3b 3d 3e d1 6d 3d
       0.088731416 0.06910562 0.045868836 0.058060877
000380 4e 8d 96 bd 89 bf 8e bc 4f de bb bd 5c 1a ef bd
       -0.073511705 -0.017425315 -0.091732614 -0.116749495
000390 fc ff 3d be 09 d9 27 bc ab 12 e4 3c d3 43 73 be
       -0.18554682 -0.010244616 0.027840933 -0.23756342
0003a0 63 79 83 bd a9 9c 0f be 4f a3 92 3d 8d ac 09 3d
       -0.06419637 -0.14024605 0.07160055 0.033611823
0003b0 20 43 bb 3d 7f e2 cf bd c9 8f 90 3d bd 21 34 3e
       0.091436625 -0.101506226 0.07058675 0.17590995
0003c0 a0 21 91 bd 6e 5e cc 3c d3 99 83 3b 92 d1 04 be
       -0.070864916 0.024947371 0.00401614 -0.1297057
0003d0 af 68 c1 3d c9 3d 2a bd 05 92 34 be 75 8f 8d bd
       0.09443795 -0.04156283 -0.17633827 -0.06912128
0003e0 c4 64 f1 3c ef 64 f2 3c 9f 7d 43 bc fd 16 4d 3d
       0.029466994 0.029589145 -0.011931806 0.05007075
0003f0 bb d9 80 3d 10 85 11 be ca 33 24 3e c5 91 fb 3d
       0.06291529 -0.14210916 0.16035381 0.12283663

gru.bias_ih_l1 f4 [105]
000000 bb 00 83 3a 68 6c fd 3d 1b 34 81 3e e3 64 00 3e
       0.0009994725 0.123741925 0.25235066 0.12538485
000010 84 ec 21 3e b4 e1 6d 3e 51 34 c4 3d a7 af 8e 3d
       0.1581288 0.2323063 0.09580291 0.06967097
000020 0b 4f 52 3e 0b 39 2e 3e f1 b3 3f 3e bb a7 30 3e
       0.20537965 0.17013948 0.18720986 0.17251484
000030 d5 1d 5c 3e 85 0c 3a 3e f5 d6 80 3e b2 cd 20 3e
       0.21495755 0.18168838 0.25164 0.15703467
000040 f8 b5 0d bd bd f9 ff bd 3b 9e b5 3c 93 06 25 3e
       -0.034597367 -0.12498806 0.022170177 0.16115789
000050 79 14 0d 3e 68 9e 9d bd f9 00 87 3e 02 0f 07 3e
       0.13777341 -0.07696229 0.2636793 0.13189319
000060 14 8a fc 3d c9 ab 82 3c ce f3 20 3e 48 23 29 3e
       0.12331024 0.015951054 0.15718004 0.16517365
000070 4a 18 0c 3e b1 ff 4f 3e eb 82 1c 3e d9 7c a2 3d
       0.1368114 0.20312382 0.15284316 0.07933969
000080 cf 34 b1 3d 25 f7 39 3e 57 c5 72 bd 03 e5 bb bd
       0.086526506 0.18160684 -0.05927023 -0.0917454
000090 39 6f c4 be 30 1a 89 be 6a cb a9 bd 1d 12 48 be
       -0.38366106 -0.26777792 -0.08290751 -0.1953816
0000a0 cf 17 a8 be bb 1e 25 bc b2 4e a7 be 33 f0 87 be
       -0.32830665 -0.0100781275 -0.32677227 -0.26550445
0000b0 e1 4d b3 be 4d ef a1 be f5 79 3f be 19 e2 38 be
       -0.35020354 -0.31627885 -0.18698867 -0.18055
0000c0 ad 7c 41 be 36 61 e7 3c 9c 0f cd bd d9 96 76 bc
       -0.18895216 0.028244596 -0.10012743 -0.015050613
0000d0 a6 11 07 be db 7a 7c be 15 3a 88 be ce 23 ac be
       -0.13190326 -0.2465624 -0.26606813 -0.33621067
0000e0 28 ad 30 be b5 36 40 be 0b db cb bd 68 65 1a be
       -0.17253554 -0.18770869 -0.099538885 -0.15077746
0000f0 9d 54 92 be c9 ec 8a be 02 43 d0 b9 be c2 f0 be
       -0.2858018 -0.27133778 -0.00039722776 -0.47023576
000100 79 7b b2 bd b9 0c 90 be 41 44 8a be 40 1e 8d bd
       -0.08714957 -0.28134707 -0.270052 -0.06890535
000110 f7 20 6a be 20 c2 31 be 51 b2 84 3d 94 f1 d7 3d
       -0.22864138 -0.17359209 0.06479324 0.10544124
000120 df c2 da 3c 0d 49 82 b9 97 12 99 bd 41 c4 44 3d
       0.02670425 -0.0002484996 -0.07474249 0.048038725
000130 89 ab e2 3d 09 a0 2f bd f1 ca 85 3d 58 f4 9c bc
       0.11067874 -0.04287723 0.065328486 -0.01915948
000140 ab 30 c1 bc 44 ce 33 be 63 c0 56 3c 86 c6 c0 bc
       -0.023582777 -0.17559153 0.013107392 -0.023532163
000150 b6 0d 49 be 89 54 f8 3d 78 59 c2 bd fd 73 1a be
       -0.19634137 0.12125499 -0.09489721 -0.15083309
000160 35 4f 00 be ed a8 f8 bd ef 8f 2a 3e 07 2e 5b 3e
       -0.12530215 -0.12141595 0.16656469 0.21404277
000170 f7 11 2d be 92 cc 7b bd 45 1d 60 3d a6 5f b4 3d
       -0.16901384 -0.06147439 0.054715414 0.08807306
000180 87 16 21 be ef 4d 45 3c 27 8d 4b 3e 2e f0 ba 3d
       -0.1573125 0.012042507 0.19878064 0.09127842
000190 11 7e 2e 3d 5f e9 87 bd 21 c3 5c 3d 7e 02 fd 3c
       0.042600695 -0.06636309 0.053897027 0.030884977
0001a0 45 1d a2 3d
       0.07915739

gru.bias_hh_l1 f4 [105]
000000 51 49 4e bd fa 9a 06 bd 6b 29 71 3e 5c 45 48 3d
       -0.05036289 -0.03286264 0.23550956 0.04889427
000010 32 53 9c 3d 6c 2b 99 bc 7c 93 1b 3e 27 98 a7 bd
       0.07633056 -0.018697463 0.1519298 -0.08183318
000020 5a 2b dc 3c e2 9e 2d 3d 15 9f e6 bd 38 fc 04 3e
       0.02687614 0.04238785 -0.11260811 0.12986839
000030 62 6a aa bc 34 0e d0 3d 55 de 7b 3e dc 05 6a 3d
       -0.02080268 0.10158959 0.24596532 0.057134494
000040 28 71 36 3e ea d0 d2 3d 6f 13 05 3e 5d 2e e1 3d
       0.17816603 0.102937534 0.12995695 0.10995171
000050 b5 8a d8 bd 04 45 44 be 49 9f ad bc fb 49 dc 3c
       -0.10573331 -0.19166952 -0.021194117 0.026890745
000060 52 56 36 3e 67 51 71 3e e1 b8 77 3e 7c af 3c 3d
       0.17806366 0.23566209 0.2419162 0.046065792
000070 30 1c da 3d 41 8c 53 3e f5 55 5f 3e ca df c8 bd
       0.106499076 0.20658971 0.21810134 -0.098083094
000080 6a 5c 02 bd 13 d8 27 bd f2 4b 07 3d 0b 7e 88 3b
       -0.031826414 -0.04097755 0.03303141 0.004165416
000090 fe 73 65 be 91 8a dc bc 80 c1 a2 bd c0 f7 8e be
       -0.22407529 -0.026921542 -0.079470634 -0.27923393
0000a0 51 48 9b be 15 11 81 bd da 70 7e be ab 18 91 be
       -0.3032861 -0.06302086 -0.24847737 -0.28339133
0000b0 0f 1c a3 be 82 a8 4e be 5c 14 3c bd 49 c9 81 be
       -0.31857345 -0.20181468 -0.045917854 -0.2534888
0000c0 a7 8c ef bc bc 49 36 bb 7e 63 92 bd d8 9b c5 3a
       -0.029241873 -0.0027814945 -0.07147883 0.0015076352
0000d0 98 6d a5 be 74 c6 b9 be 0e b0 30 be b4 6a 80 be
       -0.32310176 -0.3628422 -0.1725466 -0.25081408
0000e0 7e 5c 90 be 3c c2 7d bd 43 1a 98 bd a2 cc d3 be
       -0.28195566 -0.061952814 -0.07426884 -0.4136706
0000f0 de 2b 01 be 63 c8 aa be c0 63 47 be 6f 68 0a bf
       -0.1261439 -0.33356008 -0.19471645 -0.54065603
000100 2a 2b 8a 3d b2 f9 d3 bd bd d2 1e be 43 7f be 3c
       0.06746514 -0.1035036 -0.15510078 0.023254042
000110 d8 1e c9 be f7 90 ed 3d 9a 4e ba bd 16 b1 37 3d
       -0.39281344 0.115999155 -0.09097023 0.044846617
000120 7d e2 4a 3e 1a e4 ee bd d4 57 c4 3c 09 79 09 be
       0.19812961 -0.11664601 0.023967661 -0.13425077
000130 ea 79 c8 3c 05 c4 aa 3d 8b dc 9c 3d 5f 45 a5 3a
       0.024472196 0.08338169 0.07659253 0.0012609175
000140 fb 8d d3 bd 53 cc 7a 3c 04 a5 44 3e 10 e5 23 be
       -0.10329815 0.015307504 0.19203573 -0.16005349
000150 32 a2 c0 bc ed f0 e2 3d 9a bd d7 3d 6c 1c 50 3e
       -0.02351484 0.11081109 0.105342105 0.20323342
000160 dd 59 2c 3e 6e 63 d5 bd 4e 8e e1 bb 81 89 8b 3c
       0.16831155 -0.10419355 -0.006883419 0.01703334
000170 27 55 c2 bd 83 07 55 be 9a af ae bd 5c 94 15 3d
       -0.09488898 -0.20803647 -0.08529587 0.03651844
000180 f3 10 00 3e 3b 51 12 be 96 f4 53 3d 94 1d 1f 3e
       0.12506466 -0.142888 0.051746927 0.15538627
000190 d0 75 71 3d 51 6a 19 be 5a 65 88 3c ef 97 06 3e
       0.058950245 -0.14981963 0.01664989 0.13143896
0001a0 e2 40 da 3c
       0.026642267

dense.weight f4 [1, 35]
000000 ae 80 61 3e 41 d2 9f 3e e2 a5 8a be ee 49 4e be
       0.22021744 0.31215099 -0.27079684 -0.2014539
000010 76 3e 65 3e 6d 32 68 3e cb 66 94 3e ea 60 14 3e
       0.22387108 0.22675486 0.28984675 0.14490095
000020 5d c6 97 be 24 8e 7a 3e 6a 75 2f 3e dc b1 a2 3e
       -0.29643527 0.24468285 0.17134634 0.3177632
000030 2a aa 6e be 17 01 80 3e c6 92 7d 3e 1c 80 8a 3d
       -0.233071 0.2500083 0.24763021 0.06762716
000040 f8 3f 2a 3e 76 c5 59 be 2d 92 75 be 21 25 30 be
       0.16625965 -0.21266732 -0.23981543 -0.17201664
000050 cc e5 60 3e 07 83 b2 3e 62 23 38 be f1 00 83 3e
       0.2196266 0.3486559 -0.17982247 0.25586656
000060 0a 1b 19 be 49 d7 a4 3e 08 ac 8b 3e 68 44 60 be
       -0.14951721 0.321955 0.27279687 -0.21901095
000070 4b d3 b7 bd 41 65 65 be 88 0a 4e 3e 3d 35 8f 3e
       -0.08975848 -0.22401907 0.20121205 0.27970305
000080 a3 8d 93 be 2d 1d 3a be 0a d4 5c be
       -0.28818998 -0.18175192 -0.21565261

exp_avg f4 [105, 6]
000000 a2 80 f3 3a e8 19 3b 38 18 ff 19 3b 97 88 69 3b
       0.0018577764 4.46084e-05 0.0023497995 0.0035634392
000010 5d f2 0e 3b 12 de 3b 3b f0 db 8f bd 74 a0 83 be
       0.002181194 0.00286663 -0.070243716 -0.25708354
000020 44 a5 01 3d b0 eb 1b 3d cd f9 dd 3c a9 9d 20 3d
       0.03165175 0.038066566 0.027096653 0.039212856
000030 f4 33 fe bb 07 b2 50 bc 92 c9 19 3c 10 5b 0c 3c
       -0.007757658 -0.0127377575 0.009386437 0.008566633
000040 12 9f 1d 3c 22 bd ff 3b 1c 92 b8 3c 50 2c 35 3c
       0.009620445 0.007804529 0.022530608 0.011057928
000050 38 98 38 3d 19 a0 73 3d 1e cb 2f 3d 30 5a 75 3d
       0.045067042 0.059478853 0.042918317 0.059900463
000060 34 7a 55 bc 60 83 94 bd 12 1a d2 3c 24 ef d1 3c
       -0.013029624 -0.0725162 0.025647197 0.025626726
000070 5e 42 bc 3c 1c 0a d1 3c 99 dc de ba 23 72 98 bc
       0.022980865 0.025517516 -0.0017002999 -0.018609112
000080 78 f1 3a 3c 74 d5 59 3c dc 51 2f 3c 30 c9 4e 3c
       0.01141011 0.01329552 0.010700669 0.012621209
000090 c0 1d e9 ba 12 21 bc bc c5 ac 66 3c 18 51 8b 3c
       -0.0017785355 -0.022964988 0.014079277 0.017006442
0000a0 5a d5 6d 3c 42 86 7d 3c e1 c6 82 bc 56 89 76 bd
       0.014516199 0.015473904 -0.015963973 -0.060189568
0000b0 28 bd ab 3c ac 96 cd 3c 9a 4d 9f 3c e2 02 cf 3c
       0.02096422 0.02509626 0.019446183 0.02526993
0000c0 1a 5b 1b bc 30 8e fa bc fc d2 04 3c 48 68 21 3c
       -0.0094821695 -0.030585378 0.008106943 0.009851523
0000d0 9a 8f f4 3b d3 b8 23 3c c3 6b c5 bc 8b cf 55 bd
       0.0074634077 0.009992796 -0.024099236 -0.05219988
0000e0 6c 4f c8 b9 24 e9 91 b9 80 2f 33 b8 c0 3d d7 b8
       -0.00038206147 -0.00027830258 -4.2721163e-05 -0.00010263501
0000f0 3d d6 e7 b9 0a 62 37 3b d6 f7 12 bb be eb 91 b9
       -0.00044219373 0.002798202 -0.0022425554 -0.00027832197
000100 fd 54 0d bb 54 cb 69 b9 34 2d fd 3b ec 2b 4d 3c
       -0.002156555 -0.00022296357 0.007726336 0.012522679
000110 4f e4 11 3b 26 61 64 3b b5 e7 d4 3a 98 a2 53 3b
       0.0022261327 0.0034847944 0.001624337 0.0032292958
000120 08 c8 af bb dc aa 6b 3c f1 31 82 bc 7a 7f a2 bc
       -0.0053644218 0.014383998 -0.015892955 -0.019836176
000130 36 d9 66 bc 48 f6 9e bc 86 2a 91 3a 86 2a 37 3c
       -0.014089873 -0.019404545 0.0011075295 0.011179572
000140 9a 15 1f bb 6e 6e 81 bb f2 94 26 ba 55 1b 97 bb
       -0.002427435 -0.003949932 -0.0006354592 -0.0046114125
000150 fe 1a 24 bc c4 83 6d bb 24 d8 e5 ba 5a ae 4c bb
       -0.010016201 -0.0036241869 -0.0017535728 -0.0031231851
000160 56 79 c9 b9 cc e0 b7 ba ac 46 8f 3b 43 b8 8d 3c
       -0.0003842811 -0.0014028787 0.0043724384 0.017299777
000170 f8 30 00 3b cc e2 91 3b c7 3d 18 3b d3 89 67 3b
       0.0019560438 0.004452085 0.0023230182 0.0035329952
000180 47 98 95 bb ce 03 b2 bc 46 48 05 3b 10 8b 8d 3b
       -0.004565272 -0.02173033 0.0020337268 0.004319556
000190 02 66 a4 3a d6 f6 9a 3b 60 04 22 3c 22 4d 92 3c
       0.0012542608 0.004729132 0.009888738 0.017859045
0001a0 ee a3 14 3c 7f ae 5c 3c be 79 05 3c 5c a5 5f 3c
       0.009072287 0.0134693375 0.008146701 0.013650265
0001b0 6e cb d6 3b f4 7b f2 3a 90 5a 57 3c ee 4d 97 3c
       0.0065550124 0.0018500076 0.01314415 0.018469777
0001c0 7c ed 51 3c 10 18 8e 3c b5 9a a6 bc 08 5c ec bc
       0.012812968 0.017345458 -0.020337442 -0.028852478
0001d0 b8 8b 43 b9 09 a2 07 bb 2c 34 be b9 e4 e2 0b bb
       -0.00018648698 -0.0020695946 -0.00036278495 -0.0021344954
0001e0 c5 d8 c4 bc 9c 10 c9 bd 9e d8 df 3c 2f d5 17 3d
       -0.024029145 -0.09817621 0.02732497 0.037068542
0001f0 d0 8d c8 3c 56 59 16 3d fc a7 b7 b9 36 13 00 bc
       0.024481684 0.03670629 -0.00035029638 -0.00781708
000200 3a b7 aa 3a 37 09 d2 3a c9 a6 72 3a 9d 7f 92 3a
       0.0013024576 0.0016024475 0.00092564203 0.0011176948
000210 96 a0 bb b9 63 b4 b5 3b a8 22 f4 b9 ec 9a 82 3a
       -0.00035787065 0.0055451854 -0.00046565128 0.0009964383
000220 31 2f 20 ba 72 86 a8 3a d8 53 d0 bb a2 af f4 bc
       -0.00061105477 0.0012857451 -0.006357651 -0.029868905
000230 8e ea 1b 3c 22 be 20 3c ce 5f 1d 3c 4a b7 19 3c
       0.009516371 0.009810956 0.009605361 0.009382078
000240 1c e2 e0 3c 8c 32 ed 3c cc 96 0d ba d2 17 91 3a
       0.027451567 0.028954767 -0.00054011936 0.0011069721
000250 f4 0c be ba 48 cc 80 b9 54 97 74 bc 0e f2 13 bd
       -0.001449971 -0.00024566264 -0.014928658 -0.036119513
000260 b4 ff 5d 3c 99 8c 7c 3c 2c da 42 3c b7 b9 72 3c
       0.013549734 0.0154143805 0.011892837 0.014814786
000270 60 9f 07 bc 72 33 53 bd 8e 6b 25 3c d6 b7 56 3c
       -0.008277744 -0.051562734 0.010096444 0.013105353
000280 46 35 0a 3c 79 e5 6b 3c 54 b4 b1 3b fc a8 17 3c
       0.008435553 0.014397972 0.005423108 0.009256598
000290 54 bf 85 3a 60 9b 91 b9 38 25 24 3b d8 3e 29 39
       0.0010204115 -0.0002777232 0.0025046598 0.00016140507
0002a0 d7 cf ef 3c 2a e8 8a 3d 3e b7 6c 3b 5a 8c 94 3b
       0.02927391 0.06782563 0.0036119963 0.004533333
0002b0 2a 74 8c 3b cb 27 61 3b 96 55 49 bd 86 4f ed bd
       0.004286309 0.0034355994 -0.049153887 -0.115874335
0002c0 28 44 79 3c 1e 29 9d 3c 34 4e 7a 3c ab cd bc 3c
       0.015214004 0.019184645 0.015277434 0.023047289
0002d0 e1 76 ad 3c aa 6e 44 3d 59 96 2f 3d 25 a4 61 3d
       0.02117485 0.0479571 0.042867992 0.05508818
0002e0 d1 74 0d 3d 8e 86 5c 3d fc 2f 41 bd 1c 75 0e be
       0.034535233 0.05383926 -0.047164902 -0.13911861
0002f0 db 71 ad 3c c8 4b b4 3c 86 5e a1 3c e4 6a b9 3c
       0.021172455 0.022008792 0.019698393 0.022633977
000300 6a 34 2b 3c b6 9f 24 3d de 64 29 bc 98 e4 04 bc
       0.010449508 0.040191375 -0.01033899 -0.008111142
000310 26 1f 2f bc d0 ff ef bb 7b 5b 1e bc 72 44 56 bc
       -0.010688579 -0.0073241964 -0.009665365 -0.013077842
000320 2b 0f 33 bb 3b d6 82 bb 10 4f 04 bb 22 49 94 bb
       -0.0027322273 -0.0039928234 -0.0020188726 -0.0045253197
000330 6a f7 0e bc e8 41 cf bc 1d 01 e6 ba 94 ff 26 bb
       -0.00872598 -0.025299981 -0.0017547939 -0.0025481926
000340 e5 e7 9f ba 36 a5 4f bb 70 6f 16 b9 86 cc 9b 3b
       -0.0012199847 -0.0031684167 -0.00014346628 0.0047546057
000350 88 1e 9f ba 7c 0c 89 ba 9f e3 94 ba 2f cd a8 ba
       -0.0012139836 -0.0010455991 -0.001135934 -0.0012878532
000360 6c 08 36 3c bc b0 b4 3e 2e d1 18 bd c4 a8 3f bd
       0.011110406 0.35291088 -0.037308864 -0.046791807
000370 52 3a e7 bc f7 38 2d bd d2 15 a6 39 fa f4 39 bb
       -0.028226051 -0.042290654 0.00031678245 -0.0028374777
000380 64 5b 6e 39 84 0d f6 b9 6e 65 f4 b9 7f ff 3d ba
       0.00022731494 -0.00046930846 -0.00046614878 -0.000724785
000390 e9 47 cc bc 2e 39 f9 3e 1f c8 e8 3c f7 0d 90 3c
       -0.024936633 0.48676437 0.028415738 0.017584784
0003a0 43 f3 f1 3c a2 1c 71 3c c0 cd be b9 ea 2c 79 bd
       0.029534942 0.014716299 -0.0003639292 -0.06083385
0003b0 80 04 a8 b6 1e cf d3 39 46 7b fa b9 9c 8a 69 39
       -5.007314e-06 0.0004039937 -0.00047775562 0.00022272248
0003c0 52 ab b8 39 79 f4 92 bc 48 58 44 ba 74 c8 c3 b9
       0.00035222858 -0.01793884 -0.00074899616 -0.00037342648
0003d0 37 b9 3b ba ec 1d 87 b8 b0 03 2c 3b fd 9f 26 be
       -0.0007161083 -6.442875e-05 0.0026247315 -0.16271968
0003e0 f0 b3 85 bb 94 c6 e2 bb 68 f0 e1 bb 1e d5 1f bc
       -0.004080288 -0.006920645 -0.0068951137 -0.009755401
0003f0 13 5b e2 39 6c b0 11 bc 61 d9 06 bb 61 ee 9e ba
       0.00043173935 -0.00889216 -0.0020576345 -0.0012125486
