checkpoints_gp2/generator_checkpoint120.pth.tar (torch_old, 214106 bytes, 54 tensors)

gru.weight_ih_l0 f4 [75, 10]
000000 2b 1c e7 bc 58 45 39 3e 89 0e 18 3e d4 03 65 3e
       -0.028211674 0.18092859 0.14849295 0.22364742
000010 ce ee da bd 6f 0d 21 3d a4 87 b9 3d 2e a2 28 3e
       -0.1069008 0.039319452 0.090590745 0.16468117
000020 52 b2 13 be 2f 28 2e be a9 5b f9 3d 8a 56 0a 3e
       -0.14423493 -0.17007516 0.12175686 0.13509575
000030 aa be d7 3e 44 fd e5 3e fb 28 48 be ab c3 0c 3c
       0.42137653 0.4491979 -0.19546883 0.008591573
000040 f4 54 fa bd b7 8c 05 3d d4 bd 33 3d af b6 23 bd
       -0.12223235 0.0326049 0.043882206 -0.039969143
000050 80 70 ff 3d 9d e5 2a 3e d0 28 21 3e 6e d9 a5 3d
       0.124726295 0.16689153 0.15738225 0.08098112
000060 92 3b 39 bd 7a 64 4b bd 91 8a 57 be 32 c2 16 bd
       -0.045222826 -0.04965637 -0.21048953 -0.036806293
000070 4d 68 83 bd 49 d6 4f be 95 40 8d 3e 2e da f0 3d
       -0.06416378 -0.20296587 0.27588335 0.117603645
000080 49 41 83 3e 9c ea a7 3e 92 d4 61 3d 9a 20 0d 3e
       0.25635746 0.3279618 0.055134363 0.13781968
000090 c6 23 c1 3d bc dc ff bd 9d 72 3c be 64 37 1b be
       0.09430651 -0.124932736 -0.18403096 -0.15157849
0000a0 f2 f5 4d 3e c4 13 c4 3e 40 f7 fc 3d 6f 56 a8 3e
       0.20113352 0.3829633 0.12351847 0.32878444
0000b0 b5 98 82 bc ce 9e 35 be 3e 46 b9 3d b8 c7 4d be
       -0.015941957 -0.1773636 0.09046601 -0.20095718
0000c0 b4 c6 19 3d 44 e1 fe 3d 76 1b 18 3e 7b d7 88 bd
       0.037543014 0.1244531 0.14854226 -0.06681725
0000d0 f9 22 05 3e 9b dc 20 3c d2 c0 44 be b1 96 a4 bc
       0.13001622 0.009818221 -0.1921418 -0.020091387
0000e0 00 42 da 3d 2e 21 3f be 7e f4 1e be 04 df 71 3e
       0.1065712 -0.18665001 -0.15522954 0.2362023
0000f0 bc 56 01 3e b5 90 7f bc 84 f3 85 bc 0d 55 69 bd
       0.12630743 -0.015598466 -0.016351469 -0.056965876
000100 64 14 65 3e 17 07 c8 3d 79 9a c1 bd 1d 70 a3 3e
       0.2237106 0.09766977 -0.094532914 0.31921473
000110 99 a6 0c 3e 07 9e 9d be 03 bd d8 3e 8d 0e 8b 3e
       0.13735427 -0.30784628 0.42331704 0.2715954
000120 5c 84 c8 3e 9d 3c 1f 3e dc a1 84 3d 52 56 29 bd
       0.39163482 0.15550466 0.06476185 -0.041342087
000130 f6 b3 a1 3d 61 9f b4 3d 5c 10 98 3d a6 3a 01 be
       0.07895653 0.088194616 0.07424995 -0.12620029
000140 ee 01 66 3e b4 bc d0 3e 40 0d 71 3e 5a 1e ae 3e
       0.22461674 0.4076897 0.2354021 0.3400753
000150 8f 96 5c be 60 41 eb bc a0 ea 3d 3d dd 98 1c be
       -0.21541809 -0.028717697 0.046366334 -0.15292688
000160 61 b0 3b 3e f1 6c 7a bc 91 84 a4 3d b8 46 a6 bd
       0.18329002 -0.015284763 0.080330975 -0.08118957
000170 10 ee 7a be e0 f5 1c 3e c2 9e c5 3e 86 2e f0 bc
       -0.24504876 0.15328169 0.38597685 -0.02931906
000180 21 07 4d be 3c 3c ae 3e d9 4e 89 3e eb f7 de bd
       -0.2002225 0.3403033 0.26817968 -0.1088713
000190 f1 83 c1 3d 6b 4d 89 3e 0d 88 c5 3e 08 09 97 3d
       0.09448994 0.26816878 0.3858036 0.073747694
0001a0 c2 b2 f5 bd 03 93 48 bd 79 c4 53 3e e4 e1 57 be
       -0.11996986 -0.048968326 0.20680417 -0.21082264
0001b0 6e 26 23 be 15 20 98 3e c6 b8 ed 3d 25 ac 11 3d
       -0.15932629 0.29711977 0.11607508 0.03556456
0001c0 c8 ba 85 3e 19 6e eb 3d bc 5d 67 be 50 13 31 be
       0.26119065 0.11495609 -0.2259435 -0.17292523
0001d0 91 3a 8a 3e f7 2c 06 be b9 92 75 be 56 13 1d 3e
       0.26997808 -0.1310309 -0.23981752 0.15339407
0001e0 1d 51 5f be 91 c8 6a be 97 9f 14 be 2e fc 8b 3d
       -0.21808286 -0.22928073 -0.14514004 0.06835209
0001f0 6d 84 c0 3e 3f 4a 22 bd b4 c6 c2 be 71 bb c4 3d
       0.37601033 -0.039621588 -0.38042223 0.09606064
000200 12 29 84 3e 24 c2 27 be ce 17 8e 3e 66 3f a8 3e
       0.25812584 -0.16382653 0.27752537 0.3286087
000210 db f8 50 3e 42 76 79 3d f9 a6 af bd 59 72 0b bd
       0.20407431 0.060903795 -0.085767694 -0.034044597
000220 47 09 0d 3e 84 26 8b bb 90 ef e7 bd ee e8 ee bd
       0.1377307 -0.004246535 -0.1132499 -0.116655216
000230 0d 38 c1 3e 59 ac b2 3e 9c b6 dc 3e e7 0c b6 3d
       0.37738076 0.34897116 0.4310807 0.0888918
000240 b9 96 8e bd 0b f2 82 bd c3 69 b0 3c 89 97 f1 bd
       -0.06962342 -0.06393822 0.021534806 -0.11796481
000250 6c 9b 40 be fb b9 58 3e c7 62 9a 3e 86 87 62 3d
       -0.18809289 0.21164696 0.30153486 0.055305026
000260 f0 51 59 3e 6c 4b 60 3e c9 32 8a be 4c 24 d9 3c
       0.21222663 0.21903771 -0.2699187 0.026506566
000270 bc 54 a3 3d 59 5d 3c be 59 18 80 be e3 e6 36 3e
       0.07975146 -0.18394984 -0.25018576 0.17861514
000280 c9 a0 94 bd a6 b5 17 3e 04 29 09 3e e8 37 6a 3e
       -0.0725723 0.14815387 0.13394552 0.22872889
000290 65 24 72 bc 91 6f c9 3d 2f d8 53 bd bf b1 97 3d
       -0.014779185 0.09835733 -0.05171984 0.07406949
0002a0 84 34 3b be b3 2b 2c be 17 7e da bd 7e 61 c8 3d
       -0.18281752 -0.16813545 -0.10668581 0.0978422
0002b0 cd d7 ce 3d 27 f6 c4 3d 5e 32 a7 3e 0c 49 82 bd
       0.100997545 0.09617262 0.32655615 -0.06361589
0002c0 cf f5 be bc ba ae 28 3d 23 b7 41 3d 25 dc 85 3c
       -0.02331057 0.041182257 0.047293793 0.016340325
0002d0 d4 94 a3 3b 97 f4 0d be b8 27 2a be 85 fc 86 bd
       0.004992107 -0.13862835 -0.16616714 -0.06591133
0002e0 9d fa 8e 3e 57 45 04 3d b8 64 59 be 1e df 46 3e
       0.27925578 0.03229269 -0.21229827 0.1942105
0002f0 67 eb 0b 3e 2f c3 84 be e9 99 b5 3e d4 a6 a8 3d
       0.13664018 -0.25930163 0.35468987 0.08234945
000300 0f 3f 45 3e cc 28 68 3e 6f 1c df bd dd 7d 50 bd
       0.19262336 0.22671813 -0.10894095 -0.050901283
000310 88 ce a2 3d a3 4d 88 3d f0 02 6b 3e 9b 3f 1c 3d
       0.07949549 0.06655433 0.2295034 0.038146596
000320 33 c3 9d bd cc 7b 28 bd 78 d2 dd 3d 86 18 e1 3d
       -0.07703247 -0.041133687 0.10831159 0.109910056
000330 ac c4 83 be 1a fa 2d 3e 2b 37 19 3e db 76 86 be
       -0.25735986 0.16989937 0.14962451 -0.26262555
000340 08 38 25 be 76 89 d1 3e 25 7f 24 3d 3e 12 12 be
       -0.16134655 0.40925187 0.040160317 -0.14264771
000350 88 d8 1b be 8e 7f 9d 3d 20 9f 81 be 84 af 07 3e
       -0.15219319 0.07690345 -0.25316715 0.13250548
000360 0e ab 57 3e 7f 8c 3a be 78 0a 98 bd a4 57 8b 3e
       0.21061346 -0.18217658 -0.07423872 0.27215302
000370 91 26 4e 3e dc 2f a6 3d 4d 12 29 3e 64 fd b0 3e
       0.201319 0.08114597 0.16510887 0.34568322
000380 e9 80 f6 bb 7f 47 c9 3c dd 86 ce 3d e1 a9 5d 3d
       -0.0075226915 0.024570225 0.10084317 0.054117087
000390 b3 b5 03 3d 70 4f d1 bc 4e b3 21 3e 57 43 b6 3e
       0.032155704 -0.025550574 0.15791056 0.3559825
0003a0 4d ac ee 3e d5 70 d1 3e 8d e8 ab bd 98 d9 26 3c
       0.4661583 0.40906397 -0.08393965 0.010183714
0003b0 08 ea e2 3d 33 55 c9 3d b7 83 e6 bc 34 82 bf 3c
       0.11079794 0.098307036 -0.028138978 0.023377515
0003c0 63 99 76 3e 8b 74 c0 bc 06 38 65 3c 02 05 8a bd
       0.2408195 -0.023493072 0.013990408 -0.067392364
0003d0 56 76 52 3d 55 85 b1 bc eb 38 b9 3d ac fe 1c bd
       0.051382385 -0.021670023 0.09044059 -0.03832881
0003e0 cf ca c3 bd 46 1b c7 bb 5d a9 61 bd 87 04 85 bd
       -0.09560167 -0.0060762493 -0.055093158 -0.06495004
0003f0 94 06 1f be c3 ce e6 bd 08 da f0 bd 94 95 72 be
       -0.15529853 -0.112699054 -0.11760336 -0.23689872

gru.weight_hh_l0 f4 [75, 25]
000000 d0 5e 2c be ca ab 2d 3d 74 db 67 3e ce 6c 15 3e
       -0.16833043 0.04240016 0.22642308 0.14592287
000010 9b 17 aa 3e cd e3 0f be 05 00 21 bc 86 a1 a3 be
       0.33221135 -0.14051743 -0.009826665 -0.3195917
000020 be 65 52 be 24 0d 0a 3d 9b 54 3b 3d a6 83 95 be
       -0.20546624 0.033703938 0.045734983 -0.29202002
000030 89 a7 b9 3d b7 54 bc be 04 50 68 be 34 c9 51 3e
       0.09065158 -0.36783382 -0.22686774 0.20486909
000040 9d 14 98 be 55 df e8 bd 9e ea 53 bd f2 88 52 3d
       -0.29703227 -0.11370722 -0.05173742 0.051400132
000050 d2 c0 2a be e2 b3 31 be 65 73 7b be a3 92 96 bd
       -0.16675118 -0.17353776 -0.24555738 -0.073521875
000060 8d 91 e8 3d cd 4f 1f be 8e 86 d9 bd 87 79 08 3e
       0.113558866 -0.15557785 -0.106213674 0.13327609
000070 2c 7e a1 3e 3a 4c c5 3d 65 67 c5 be a5 ac ca 3d
       0.31541574 0.0963368 -0.38555446 0.098962106
000080 03 5d e4 be b2 d2 95 be 9a e2 05 be 94 a3 4b 3d
       -0.44602212 -0.2926231 -0.13074723 0.049716547
000090 97 cc a5 bb 4e 31 93 3c 2a 4b c5 bd 0a 6e 38 be
       -0.0050597894 0.017967846 -0.09633477 -0.18010727
0000a0 c2 f1 4a 3d 20 f9 f6 bd d0 c4 8f be 22 47 4a bd
       0.049546964 -0.120592356 -0.28079844 -0.049384244
0000b0 f8 ac ca 3e 46 fc 9b bd 0d 05 ca be 6e 81 ca be
       0.3958509 -0.07616477 -0.39456978 -0.39551872
0000c0 67 44 9e be 20 10 28 3d cb 70 6e be 5d c6 00 3c
       -0.30911562 0.041031003 -0.23285215 0.0078597935
0000d0 5f b2 55 3e b1 71 a2 3d a2 2b 7c 3e 2d 43 6e be
       0.20868824 0.07931841 0.2462602 -0.23267813
0000e0 bb a7 49 3e 49 79 90 be 5d 1f ba bd da 40 f2 bc
       0.1969289 -0.28217533 -0.09088013 -0.02957194
0000f0 fe 23 8f 3d a3 03 a0 3a 0a 27 99 3c df a2 ba be
       0.06989287 0.0012208115 0.018695373 -0.36452386
000100 99 8a 6e be 55 05 87 3d fd 58 f4 bd f8 14 5c be
       -0.23295058 0.06592814 -0.11931036 -0.21492374
000110 30 fd 9a bd 40 60 b2 3e 8a dd 1f 3e 5b 62 b6 be
       -0.07567823 0.34839058 0.15611854 -0.35621914
000120 47 65 04 be f6 a5 04 be ef f6 ae 3e 62 d1 9b be
       -0.12929259 -0.12953934 0.3417277 -0.30433184
000130 84 ca 53 3d cf 61 a2 3d 67 19 60 3e b6 e8 c0 3d
       0.051706806 0.07928812 0.2188469 0.09419386
000140 f2 4e 87 bd 8b a5 36 3d ff 44 18 be ac a7 05 bd
       -0.066068545 0.044591468 -0.1487007 -0.032630607
000150 ba 70 df bc ee a0 86 be 48 18 13 be 4c 96 7e 3e
       -0.027275432 -0.26294655 -0.14364731 0.24862021
000160 b4 c0 b9 be a7 d3 85 be 1e 86 48 3e 47 62 f1 bc
       -0.36279833 -0.2613804 0.19582412 -0.029465808
000170 22 88 62 3d a4 93 9b be 0e db 9d bb cb 88 0c be
       0.055305608 -0.30386078 -0.004817373 -0.13724057
000180 58 a9 61 be 45 a6 06 bd b8 49 95 bc 24 07 3d 3e
       -0.22037256 -0.03287341 -0.018223628 0.18459755
000190 fc 11 ea bc 37 17 86 3e 6f 1f 23 3e f3 ec 42 bc
       -0.028573029 0.26189587 0.1592996 -0.011897313
0001a0 55 68 de 3d 24 e9 07 be e0 d8 ad bd 01 6e 7c be
       0.108597435 -0.1327253 -0.08488631 -0.24651338
0001b0 24 37 f7 bd e8 ec 4d bd f8 bc 0e bc 9d c8 88 3d
       -0.12071064 -0.05027476 -0.008712046 0.06678889
0001c0 0e d0 4c be 10 5c ea bb a7 30 25 be 7b ff 4d 3e
       -0.20001242 -0.007152088 -0.1613184 0.2011699
0001d0 f1 8f 88 be c0 0e 72 be 5a 42 84 3e 3a 16 59 3d
       -0.2667232 -0.23638439 0.25831872 0.052999713
0001e0 62 c6 77 be 29 c4 3a 3e cd 42 95 be 44 de ca bd
       -0.24196771 0.18238892 -0.29152527 -0.09905675
0001f0 28 96 86 3e 1a c1 1f bd 83 da 85 3d f8 81 ae 3d
       0.26286435 -0.039002515 0.065358184 0.08520883
000200 50 d9 c6 3d 79 e8 c3 3d b2 99 63 3c f3 50 49 be
       0.09709418 0.09565825 0.013891624 -0.19659786
000210 e1 ab 2c 3d 76 c3 12 3d 0f c4 36 bc 23 5d 13 be
       0.042156104 0.035830937 -0.011155142 -0.14390998
000220 16 42 cf bd b7 2e c9 bd 0c 55 6f bd 08 c8 08 3d
       -0.10120027 -0.09823363 -0.058430716 0.03339389
000230 50 85 bd 3c 09 10 4e be d6 0c 31 be 67 e6 c6 bd
       0.023134857 -0.20123304 -0.17290053 -0.097119145
000240 3f 78 68 3e c3 10 8d bd 35 1c 3a be b2 49 b2 3c
       0.2270212 -0.06887963 -0.18174823 0.021763656
000250 9d 1e 59 be 10 4d 84 bc b0 4b 6f be 7e 6b 45 3e
       -0.21203084 -0.016150028 -0.23368716 0.19279286
000260 2f 83 76 bd 99 c8 c5 3d 1a ba 07 3e ba 85 10 be
       -0.0601837 0.096574016 0.13254586 -0.14113513
000270 64 02 2b 3d a4 08 8d be 63 31 c3 bd a2 bb d2 3d
       0.041750327 -0.27545655 -0.09530904 0.10289694
000280 fb fc 20 3e 85 1a f9 be 5f 9e a0 be 63 66 b6 be
       0.15721504 -0.48653045 -0.31370828 -0.3562499
000290 26 9a 86 bd e5 bd c4 3e c8 16 3d bd f9 0d 76 be
       -0.0657237 0.38426128 -0.046164304 -0.24028768
0002a0 35 37 06 bd ed d9 33 bd 5b e0 97 be dc 48 3f be
       -0.032767493 -0.043909002 -0.29663357 -0.18680137
0002b0 60 40 82 3d a0 a8 e9 be f3 bb 3d 3e 77 33 e6 3c
       0.06359935 -0.45636463 0.18528728 0.028100712
0002c0 4a 66 9c 3e a7 4b 9a 3e 40 0a 7d 3e 42 cb 86 bd
       0.3054679 0.30135843 0.24710941 -0.06581737
0002d0 fd b4 3d bd cd 08 34 be 1c 1a ba bd fc a2 a8 be
       -0.046315182 -0.17581482 -0.09087011 -0.32936847
0002e0 63 79 a0 3d 33 c6 8a bd a3 cd 3e 3d b4 16 73 be
       0.07835653 -0.06776085 0.04658283 -0.2373913
0002f0 43 b4 c9 be 92 58 f2 bc 21 3a f5 3d 71 1f 52 be
       -0.3939534 -0.02958325 0.11973978 -0.20519806
000300 ea 1c 54 be 86 b1 5f 3d 5e 4a 8f 3e 6e 69 10 3e
       -0.20714155 0.05461266 0.27986425 0.14102718
000310 26 17 75 be 08 3f 9e be e5 0a cc bd 9e 4c 30 3e
       -0.23934612 -0.30907464 -0.099630155 0.17216727
000320 81 d0 55 be 17 1d 29 3e 78 0f 0e 3e cd ae 9e 3e
       -0.20880319 0.16515003 0.13873088 0.30992737
000330 7f e4 1d bd 44 22 d6 be 76 a3 52 3d 22 4f df be
       -0.03854799 -0.41823018 0.05142542 -0.4361506
000340 a4 26 63 be 2a 8c 07 3e 72 9d c2 be 4a b1 6f bd
       -0.22182709 0.13237062 -0.38010746 -0.058518685
000350 57 6e d2 bd 05 e2 b3 be 60 7f 6a be 77 86 3b 3d
       -0.10274952 -0.35133377 -0.22900152 0.045782533
000360 5b f8 69 be a1 b0 db bd 22 ee 84 3e 92 af 9e 3e
       -0.22848646 -0.10727049 0.2596293 0.30993325
000370 02 ca 22 bd ef c8 89 be 40 9e 8d be b9 01 ac be
       -0.03974343 -0.26911113 -0.27659798 -0.33595064
000380 ac 13 7e 3e 51 20 1f 3b 39 56 98 3e 5d d6 df bd
       0.24812192 0.0024280737 0.29753283 -0.109295584
000390 6f 35 de 3d 36 c9 cb 3d 60 97 8f be 44 77 9a 3d
       0.108500354 0.09950487 -0.28045177 0.07542279
0003a0 ef c3 df bd 2b f0 bc 3d 23 3e 80 3e c3 34 36 3e
       -0.10926043 0.09225496 0.25047407 0.17793564
0003b0 7a 0d e2 be 4a e8 65 bd 47 2e a3 be a3 9c 83 be
       -0.44150907 -0.05612973 -0.31871244 -0.25705442
0003c0 98 66 91 3d 2a 6b 95 3d f0 c6 07 be 1f 31 8d bc
       0.07099646 0.072958305 -0.13259482 -0.017235337
0003d0 37 ae ae 3d 96 3d b3 be 83 c8 d8 be c2 48 65 bb
       0.085293226 -0.35007924 -0.42340478 -0.0034985994
0003e0 d5 70 5e be 76 e1 43 bd b0 80 dc bd e5 5c ed 3e
       -0.2172273 -0.04782244 -0.10766733 0.46359935
0003f0 56 9f bf 3d 43 c3 93 3e 05 b4 c2 3e 62 4c b0 be
       0.09356563 0.2885991 0.3802797 -0.34433275

gru.bias_ih_l0 f4 [75]
000000 ef fc b9 3e f9 b5 ca 3e a0 d4 af 3c bd 5f 1b 3e
       0.36325786 0.3959196 0.021463692 0.1517324
000010 50 99 1d 3d 6a 07 96 3e 31 b1 d9 3e db 80 87 3e
       0.03847629 0.2930253 0.42518 0.26465496
000020 a4 d2 ab 3e c2 32 a0 3e d6 c5 cf 3d ce ac ab 3e
       0.33559144 0.31288725 0.10145156 0.33530277
000030 67 87 ed bc 92 bc 54 3e d7 c3 b5 3e 3e 6e a1 3d
       -0.028995229 0.20775059 0.35500976 0.07882355
000040 73 19 75 3e 47 4b 79 3e 30 92 50 3e 6b 01 85 3e
       0.2393549 0.24345122 0.20368266 0.25977644
000050 c3 af ef 3d c6 f2 00 3e b0 da 77 3d 7c 11 6e 3e
       0.11703446 0.1259261 0.06051129 0.23248857
000060 d0 ed dd 3d 3b bb ce bd 5a e4 8d be 9c 15 da b9
       0.10836375 -0.10094305 -0.2771328 -0.000415963
000070 30 85 11 3e af 34 8d be 21 3f c4 be 67 e2 a3 be
       0.14210963 -0.27579257 -0.38329414 -0.3200867
000080 7d 1d c8 be 27 61 56 be cc 1c 99 be ef 5a 72 be
       -0.39084998 -0.20935498 -0.29904783 -0.23667501
000090 42 0e b1 be b8 f2 a3 bd e3 59 1d be 05 e9 c0 be
       -0.3458119 -0.08005279 -0.1536632 -0.3767778
0000a0 57 09 53 bd 5d 3c 89 3c a3 e3 9c be 2d 70 05 be
       -0.05152258 0.016752416 -0.30642423 -0.13031073
0000b0 86 69 40 3d c3 cf fb bd 40 2f da bd 4b 74 aa bc
       0.046975635 -0.12295487 -0.106535435 -0.020807406
0000c0 c9 fe b2 be f3 6e ff bd ec 7e a3 be fa 5a 48 3e
       -0.3496001 -0.12472334 -0.3193277 0.19565955
0000d0 0c ff 95 3e 9d b1 0b 3d ac 94 18 3e 9c 04 dd be
       0.29296148 0.034104932 0.14900464 -0.4316758
0000e0 48 c2 b1 3c 74 7d 2b be b8 b5 94 be 0a 48 4a 3d
       0.021699086 -0.16747075 -0.2904489 0.049385108
0000f0 ec 73 2e be ac 7f 47 be 70 86 97 be de 5f b4 be
       -0.17036408 -0.19482297 -0.29594755 -0.3522939
000100 01 d6 28 be a6 0a 31 3e 39 c6 5a be 90 35 b5 be
       -0.16487886 0.17289218 -0.21364678 -0.35392427
000110 cd 17 8a 3d df 2f 40 3e 0c 3a e5 b9 a8 c9 7f be
       0.06742821 0.18768261 -0.00043721532 -0.2497927
000120 f5 54 89 be 5c f1 49 be 81 01 97 3e
       -0.2682263 -0.19720978 0.29493335

gru.bias_hh_l0 f4 [75]
000000 ef 1c 3b 3e 91 2e af 3e ff a4 86 3e 55 f7 af bc
       0.18272756 0.34215215 0.26297757 -0.021480242
000010 ff 7c fc 3d cb 45 82 3e ac 60 63 3d 72 5d 7f 3e
       0.123285286 0.25443873 0.055512115 0.2493799
000020 4d 9d d7 3d 7a 8b 2a 3e e5 8a b5 3e 90 1d 4f 3e
       0.105280496 0.16654769 0.3545753 0.20226121
000030 db f9 15 3c 9a df fc 3e ae 27 85 3e 12 6c 7e bc
       0.0091538085 0.49389344 0.26006836 -0.015528696
000040 3c 21 78 3e de 71 a0 b9 7a c1 6b 3e 4d 98 2f 3e
       0.24231428 -0.00030602416 0.23023024 0.17147942
000050 a6 10 9b bc fc e8 01 3b 63 b0 b9 3c 2b cc 56 3e
       -0.018928837 0.0019822707 0.022667116 0.20976321
000060 72 ef 99 3d 92 4c 17 be c4 62 9a be 03 92 86 be
       0.07516374 -0.14775303 -0.30153477 -0.26283273
000070 07 8e 21 be 13 03 b4 be 2e ea c8 be e5 ec 9b 3c
       -0.15776835 -0.35158595 -0.39241165 0.019033859
000080 cf a8 b7 be bb f8 87 be 88 7a 1a be 3f ab 06 bf
       -0.35870978 -0.26556954 -0.15085804 -0.5260505
000090 a2 04 25 bc 13 20 a1 be 9e 84 fe bd ac fa be be
       -0.010071905 -0.31469783 -0.124276385 -0.37300622
0000a0 bf 2d 83 be d1 be 8b be 0f c7 ee be 5e 28 88 be
       -0.2562084 -0.2729402 -0.46636245 -0.26593298
0000b0 fe 37 d6 bd a2 57 5f 3c 89 96 8e be 3e 74 95 3d
       -0.104598984 0.013631733 -0.27849224 0.07297562
0000c0 f3 ed e2 be e4 12 bb 3d 3e b6 00 be 17 ee 44 3e
       -0.44322166 0.091344625 -0.1256952 0.19231449
0000d0 51 6a 6c 3e 21 5c 98 3e c1 8c 43 3e 10 9e b2 be
       0.23087431 0.2975779 0.19096662 -0.34886217
0000e0 59 01 b2 bd 68 78 ad be be 48 82 be 8f be 2c be
       -0.08691663 -0.33880925 -0.25446123 -0.16869567
0000f0 61 ee 57 3e 38 01 65 be 48 c8 f9 3d 2f d7 96 be
       0.21087028 -0.22363746 0.12196404 -0.29461047
000100 96 60 62 be e7 37 28 3e 12 28 89 be d5 28 00 bd
       -0.22107157 0.16427575 -0.26788384 -0.03128894
000110 33 87 4b bd 9a ff 8d 3e 65 89 66 be c7 31 b1 be
       -0.049689483 0.2773407 -0.2251335 -0.3460829
000120 6a e2 88 be 68 ea 03 be 5f b5 1a 3e
       -0.2673524 -0.12882388 0.1510825

gru.weight_ih_l0_reverse f4 [75, 10]
000000 7b 87 51 3d 2a dd dd 3d 04 04 fa 3d 11 80 90 3d
       0.051154595 0.10833199 0.12207797 0.07055677
000010 33 79 1f bd 25 01 5f bd 99 16 09 3e 93 1c ec bd
       -0.038933944 -0.05444445 0.13387527 -0.115288876
000020 fe 0b 13 be 6a fc 6e bd ef 2d 87 bd 3d 53 f6 bc
       -0.14360043 -0.05834619 -0.06600558 -0.030068988
000030 1c b6 e2 3d d3 1a c0 bc 7f 1d 17 bd 49 10 8e bd
       0.11069891 -0.02345029 -0.036893364 -0.069367
000040 6b 9b 08 3e 79 a5 a5 3d 65 8e 39 be 02 3f 56 3e
       0.13340537 0.08088202 -0.18120725 0.20922473
000050 a2 f2 1b be a4 ee 12 be 11 c1 9e bc 43 19 a7 bc
       -0.15229276 -0.14348847 -0.01937917 -0.020397788
000060 75 c5 87 3e ba f3 63 bd 51 ee 1c be 40 e6 a9 3e
       0.26517835 -0.055652358 -0.15325285 0.3318348
000070 13 0b 72 3d b7 1b 97 3c 99 a3 45 3e 68 71 ff 3d
       0.059092592 0.018445833 0.19300689 0.124728024
000080 bb 94 4f 3e c9 24 b3 3d 2b 81 c8 bd 55 d7 9c bd
       0.2027158 0.087472506 -0.09790262 -0.07658259
000090 f3 39 b5 3d 02 f0 8d bc 21 46 83 bb 21 ee 6a bd
       0.088489436 -0.017326359 -0.0040061628 -0.057356004
0000a0 56 34 82 3e 90 97 d1 3c a6 fe 9f 3e 39 99 a3 3d
       0.25430554 0.025584966 0.3124897 0.07988209
0000b0 fa 42 1a be 2a ea c2 bd c9 d2 d7 bc b1 5b 4e be
       -0.15064612 -0.095173195 -0.026345627 -0.20152165
0000c0 9d 27 84 bd 3a 13 8d 3e 7f 4a 29 3e 4a 31 e1 bd
       -0.06452868 0.2755373 0.16532324 -0.10995729
0000d0 8c f1 ea 3c 5d d0 fb 3d 46 18 80 3d 2b b9 62 be
       0.028679632 0.122956015 0.0625463 -0.22140948
0000e0 65 14 2d bd 5d 3a a3 3c fb 3c 9a 3a 37 6c 5e 3e
       -0.042255778 0.01992529 0.0011767441 0.21720968
0000f0 5c 96 1c 3e b8 96 f4 bc ca 0f b3 3d 13 c8 bc bd
       0.15291733 -0.029857025 0.08743246 -0.09217849
000100 56 94 af bd d4 88 f9 3d b4 a7 68 3d a9 bf 9e bd
       -0.08573215 0.12184301 0.05680056 -0.077514
000110 f1 c1 2e be 3b 1e 03 3e 5a 9b 2e 3e 0b 11 5f bd
       -0.1706617 0.12804501 0.1705145 -0.054459613
000120 91 d8 a3 3e c8 98 8f bd 39 ca 0d be 04 62 29 be
       0.32001165 -0.070115626 -0.13846673 -0.16541296
000130 08 4e b2 bd ae 8d db 3d a8 b0 80 bd 36 89 18 3d
       -0.087062895 0.10720383 -0.062836945 0.03724023
000140 de e4 e9 3d ed 33 05 3e 24 af e6 bc cf 77 38 3e
       0.11420606 0.1300809 -0.028159685 0.18014453
000150 41 e1 33 3e 78 70 75 3c 96 e6 17 be fb cf 32 3d
       0.17566396 0.014980428 -0.14834055 0.043655377
000160 40 aa 3e 3d f5 02 da bd 54 e7 62 3d 2b 8d 2a 3d
       0.04654908 -0.10645095 0.055396393 0.041638535
000170 6c 7d b3 3e 40 61 63 3e c8 ae 67 bd 87 6c 99 bd
       0.35056627 0.22205067 -0.05656317 -0.07491403
000180 79 9b 5d 3d 48 7c 91 bd 8d b3 02 be c2 3b 46 3e
       0.05410335 -0.07103783 -0.12763806 0.19358733
000190 02 c2 ec 3d de ed c0 3d e5 98 8c bd 77 33 1d bc
       0.115604416 0.094203696 -0.068651 -0.00959479
0001a0 04 75 3c be 41 ad 32 3d 52 24 2f bd e3 df 9b bd
       -0.18404013 0.04362226 -0.042759247 -0.076110624
0001b0 08 66 73 be fd 2e 34 3d 03 e1 14 bc e9 3c 95 3e
       -0.2376939 0.043990124 -0.00908685 0.29148033
0001c0 ff 3a ef 3d ed a1 32 3d 52 aa bb bd 14 20 12 bd
       0.116811745 0.043611456 -0.091633454 -0.035675123
0001d0 97 c1 76 bc 67 31 36 3a c8 f3 5b 3d 6e 82 d4 3d
       -0.015060804 0.00069501105 0.053699285 0.1037644
0001e0 ef af cd 3d 85 6b e3 3d 2b c8 45 3d a5 ad 6b 3d
       0.10043322 0.11104492 0.0482866 0.057538647
0001f0 52 a1 31 3e 92 15 e8 bd b3 b8 de bd 69 27 c9 3d
       0.17346695 -0.11332239 -0.10875072 0.0982197
000200 d0 b9 b5 3c 49 15 03 be 2e 25 7d 3d 0d fd fc 3d
       0.022183329 -0.12801088 0.061803035 0.12352953
000210 22 9e 84 3e 02 1e 10 be 40 db 06 3e b9 3b ed bd
       0.25901896 -0.14073947 0.13169575 -0.11583657
000220 9f 65 cb 3d 4f 57 85 bc c4 46 2e be 29 31 ae 3d
       0.09931492 -0.016276984 -0.17019182 0.0850547
000230 c5 92 5c be ba a0 95 3d 83 98 8c be 40 d6 94 be
       -0.21540363 0.07306047 -0.27460107 -0.2906971
000240 59 9f 2b 3d 48 d4 31 bd 7e 2a 6f be b6 c6 8a 3e
       0.041900013 -0.043415338 -0.23356053 0.2710473
000250 be 84 25 3e 95 62 a5 3d 58 6c fe 3d e7 82 6d 3e
       0.16163918 0.08075444 0.12423009 0.23194467
000260 10 7f 8a 3e 2f 1c 07 3b 2a ab fe bd 87 37 78 bd
       0.27050066 0.0020616164 -0.12434991 -0.06059983
000270 5e 52 b6 bd 5d 83 c6 3d 41 51 b2 bc c0 82 a5 bd
       -0.08902429 0.09693024 -0.02176726 -0.08081579
000280 6c 7b 1c 3e d4 98 b6 3d 2c 9f 37 bd 10 06 8e 3c
       0.15281457 0.089158684 -0.044829533 0.017336875
000290 69 6f 9f 3e 8d 64 4c bd 00 34 55 3d b3 22 f3 bd
       0.31139687 -0.04990058 0.052051544 -0.11871853
0002a0 24 3c bd bd 87 da c9 3c d9 01 7b 3e 6d 0c fe bd
       -0.092399865 0.024640335 0.24512424 -0.12404714
0002b0 b2 7d 83 3e 67 88 2d bb 1e 29 93 bd 75 65 ff 3d
       0.25681835 -0.0026479007 -0.07185577 0.12470523
0002c0 c4 38 52 3e d0 25 a5 3d 76 72 04 3e 29 55 ef 3d
       0.20529467 0.08063853 0.12934288 0.11686165
0002d0 6e 49 f1 bd af 3c b1 3d d8 85 ea bd 68 4d 9d bd
       -0.11781584 0.086541526 -0.1145131 -0.0768078
0002e0 82 0d 63 be 4d f8 d3 3d 6a 18 80 3e 5e 4c e7 3c
       -0.22173122 0.10350094 0.25018626 0.028234657
0002f0 12 c6 0d be 61 f3 f4 3c 9d b9 17 3e 77 ec d5 3d
       -0.13845089 0.029901208 0.148169 0.10445493
000300 92 86 15 3e 17 a3 d7 bd 63 4e 28 3d cd 7f 5c 3d
       0.14602116 -0.10529154 0.04109038 0.053832818
000310 bb de a7 be 48 8e 69 3e a7 78 b8 3d 88 e3 96 be
       -0.32787117 0.22808182 0.090073876 -0.29470468
000320 5c 05 4b be 56 1b 35 3d f0 9d 34 bd e0 4f 12 be
       -0.19826263 0.044215523 -0.044095933 -0.14288282
000330 f9 bd 85 3d 3e 8d 2b 3e bf 37 81 3d ed b2 04 be
       0.06530375 0.16753098 0.06309461 -0.1295888
000340 db 66 83 3e db be 52 3e ad a1 02 3e 2f a6 a7 bd
       0.2566441 0.20580618 0.12756987 -0.08185994
000350 1b 18 0b bc 67 03 46 3e 5f e1 1d 3e 3a b1 16 be
       -0.008489634 0.19337235 0.15418003 -0.14716044
000360 77 cc a3 bd 28 c1 6f 3a 4c 21 6b bd cf ac 66 be
       -0.07997983 0.0009145909 -0.0574048 -0.22526859
000370 2e 39 20 be 33 05 8b 3d a3 2d 20 be 2a d7 5a bd
       -0.15646812 0.06788101 -0.15642409 -0.053427853
000380 68 6b 6b 3e ec ef f7 3d aa ac a1 be 7f a5 14 3e
       0.22990191 0.12106308 -0.31577045 0.14516257
000390 95 b3 0f 3e 5c 19 34 bd a9 af af 3e f6 19 e0 ba
       0.14033349 -0.043969497 0.34313706 -0.0017097581
0003a0 21 32 58 3e 77 be 88 3e 04 9f 1d 3d 9f af db 3d
       0.21112873 0.26707813 0.038481727 0.107268564
0003b0 76 34 99 bd 1d 32 28 3e 73 db 06 bd 8c 23 76 3d
       -0.07480709 0.16425367 -0.032924127 0.060092494
0003c0 81 5d 94 bd df d0 68 be cf d8 2d be 40 74 1c be
       -0.07244397 -0.22735928 -0.16977237 -0.15278721
0003d0 84 b2 41 3e b4 e7 cb bd 8e 94 b6 bd 33 fa a7 3e
       0.18915755 -0.09956303 -0.08915053 0.32808074
0003e0 f2 d3 01 3e 29 b5 5a 3d ba 4d 92 be ff dd 9b be
       0.12678507 0.053395424 -0.28574926 -0.30442807
0003f0 5f 8b 93 be a1 35 8c 3c fa c0 00 be 60 4f c3 3c
       -0.2881727 0.017115416 -0.12573615 0.02384156

gru.weight_hh_l0_reverse f4 [75, 25]
000000 7f ee 46 bc 9e fb 0c 3e 0a e6 22 be b3 6d 01 3c
       -0.012141823 0.1376786 -0.15908065 0.0078996895
000010 94 ac 8e ba 3f cb 07 3c c7 73 87 3b 72 f5 f7 bb
       -0.0010885173 0.008288204 0.004133675 -0.007567101
000020 4f b9 5e 3e 04 bf 44 3e 68 d7 93 3e 71 0d aa 3c
       0.21750377 0.19213492 0.2887528 0.020758362
000030 54 3d 5b 3d 3d 77 90 3d 03 7d 76 3e b5 df c3 3d
       0.053525284 0.07053993 0.24071126 0.09564153
000040 23 74 e1 bd 4b a8 82 be fa 19 ec 3c e4 09 c0 bd
       -0.110084794 -0.25519022 0.02882098 -0.093768865
000050 85 1e 8d be 46 9d 26 bc 35 a2 98 bd 84 e0 6d 3d
       -0.27562347 -0.010169333 -0.074528135 0.058075443
000060 41 75 6a be df ad 47 3c 70 9a 11 3e 18 19 77 be
       -0.22896291 0.01218745 0.1421907 -0.24130666
000070 2d c8 64 be 2d 4b 6f be 71 59 7f 3e d5 f1 f5 3c
       -0.22341986 -0.23368521 0.24936463 0.030022541
000080 3a 2f bb bd f4 78 0a bd 65 6d ac 3d cc 4d 93 3d
       -0.09139867 -0.033806756 0.08419303 0.07192573
000090 1b 5a dc 3d e8 35 cb bd 97 ff 44 3e be 63 0f 3d
       0.10759374 -0.09922391 0.19238125 0.03500723
0000a0 8b ff 4b 3d f3 ac 9e 3c a0 ad 0f be 6d f8 74 bd
       0.04980425 0.019369578 -0.14031076 -0.05980723
0000b0 dd 6a 94 be 1c b9 1a be 10 25 14 bc 94 d5 1f 3e
       -0.2898778 -0.15109676 -0.0090420395 0.15608817
0000c0 18 33 09 be 1e 99 7d be b4 33 84 bd c3 4e ce bc
       -0.13398397 -0.24765441 -0.06455174 -0.02518404
0000d0 83 76 09 be ca 03 51 bd 10 19 a0 be bb 2c 32 3e
       -0.13424115 -0.051029004 -0.3126912 0.17399876
0000e0 07 fa 02 3e bf 5f 27 be 76 da 65 3e 04 fc ad bb
       0.1279069 -0.16345118 0.22446617 -0.0053095836
0000f0 11 f7 58 3e 9e fe 40 3e 21 77 fb bd bc d1 5c 3d
       0.21187998 0.18847129 -0.122785814 0.053910956
000100 b1 0f 66 3e cd 56 8d 3e 20 b4 80 be 6c 75 bd 3d
       0.22466923 0.27605286 -0.25137424 0.09250912
000110 08 42 87 bd 42 bd 77 bd 45 41 fe bd 82 ac d6 3d
       -0.06604391 -0.060483225 -0.12414793 0.10482122
000120 3b 22 61 bd c1 60 a1 3e 8e 16 a3 3d 93 39 c7 3d
       -0.054964285 0.3151913 0.07963286 0.09727778
000130 b0 6d 8b 3e df 1e 50 bc f4 8c 3f be ad 48 91 3d
       0.27232122 -0.012702673 -0.18706113 0.0709394
000140 9a 7c 0d bd 16 42 2d 3e 02 27 91 be 05 64 1c 3d
       -0.034542657 0.16919741 -0.28350073 0.038181324
000150 9f 69 e1 3c cb f6 02 be 93 02 88 3e 08 f9 83 be
       0.027516184 -0.12789457 0.26564464 -0.25775933
000160 d6 0d 5e 3e 09 bf 51 bd 9f 83 25 3e 6d 74 1a bd
       0.21684965 -0.051207576 0.1616349 -0.03770869
000170 9d 2e 8e be 32 6d 60 be 95 41 12 bd 8e ea 28 be
       -0.27769938 -0.21916655 -0.035707075 -0.16495726
000180 58 d6 12 3e e5 fd 3c 3d f0 4e a5 3d a8 10 95 be
       0.14339578 0.04614057 0.08071697 -0.2911427
000190 07 86 9c 3e d4 00 de 3d 56 11 61 be 89 83 f8 3b
       0.30571005 0.10840002 -0.2197927 0.0075840396
0001a0 95 71 95 bc c3 8c 81 3e 47 10 45 3e a1 9c 9d bc
       -0.018242637 0.25302705 0.1924449 -0.019239726
0001b0 03 67 b6 3e 60 43 6e 3e 32 3b ab 3e f5 19 99 3e
       0.35625467 0.23267889 0.334436 0.29902616
0001c0 3f 77 8c 3b 6b 2c 8c 3e 26 45 12 3e 64 5c 32 3e
       0.004286676 0.27377638 0.1428419 0.17418057
0001d0 a9 6b 6a bd df d4 33 3d de 8e 75 be e1 24 ab be
       -0.05723158 0.04390418 -0.23980281 -0.33426574
0001e0 a6 68 20 bd 82 ed 55 3e 83 fd 5f 3e bd 81 8b 3e
       -0.0391623 0.20891383 0.21874051 0.2724742
0001f0 ef a7 bc 3b bf e6 21 3e 2b 3c 20 3e 98 f7 aa be
       0.005757324 0.15810679 0.15647952 -0.33392024
000200 b1 a5 b8 be 5a 46 9f be f1 73 f1 3d 02 40 81 3e
       -0.36063913 -0.3110836 0.11789692 0.25244147
000210 03 92 86 be 21 15 5f 3e 1c ae 8f bb 25 e3 8a 3d
       -0.26283273 0.21785404 -0.004384769 0.06781606
000220 db be a6 3e ee b8 9e bd 3c 56 58 3e 13 4d a7 3e
       0.32567486 -0.07750116 0.21126646 0.3267599
000230 21 ba 10 3e 61 17 f2 bd ec 41 8c bd a3 c8 1c be
       0.14133503 -0.118208654 -0.06848511 -0.15310912
000240 a4 86 72 be 9a a7 a4 be 64 2f c2 3d 10 c9 98 3e
       -0.23684174 -0.3215912 0.09481695 0.298409
000250 f7 3b 6f 3d 41 32 9b be 1f a0 5b 3c 8d f6 5d bd
       0.058406796 -0.30311778 0.013404875 -0.054190207
000260 9a b3 59 be a4 24 c2 3d da cc 8f 3d 47 d6 21 be
       -0.21259919 0.09479645 0.07021494 -0.15804397
000270 ce 1f 36 3e 82 99 5b be 77 c9 ae 3d 45 85 6f 3d
       0.1778557 -0.21445277 0.0853452 0.058476705
000280 f9 dd ee 3c 23 93 d8 bc 66 3a cf bd a6 74 dc 3d
       0.02915858 -0.026437348 -0.101185605 0.107644364
000290 89 58 45 3e b7 e7 f3 3d 8a 00 88 bc 79 ab 8a bc
       0.19272055 0.119094305 -0.01660182 -0.016927468
0002a0 cd 5f cb bd 16 18 20 3d e3 f3 a8 bd 6e fd 73 3d
       -0.09930382 0.03908547 -0.08249643 0.05956786
0002b0 9c 2f 57 3d e0 e9 1d 3e e7 74 ce bd 0d 8c 3a 3e
       0.05253564 0.15421247 -0.10080891 0.18217488
0002c0 fc 79 90 be bb c7 ba 3b 34 50 cc 3c 48 a3 ac 3c
       -0.28218067 0.0057000793 0.024940588 0.021073952
0002d0 ba bb 02 be 02 99 67 bd 6b dc ee 3c a3 6a 49 3e
       -0.12766925 -0.056542404 0.029157838 0.19669585
0002e0 06 53 cb bc 63 93 0b be 33 83 59 3e e1 db df 3d
       -0.024819862 -0.13630442 0.21241455 0.109306104
0002f0 ee b9 13 bc fc dd bc bc 1a d3 9a bd 96 a0 b7 3a
       -0.009016497 -0.02305507 -0.07559796 0.001400965
000300 ec 57 c3 bd 13 01 4f 3c 65 55 09 3e 20 da 86 bd
       -0.09538254 0.012634533 0.13411482 -0.06584573
000310 1d a3 8a 3d 96 d4 71 3e 37 c3 5b 3c 44 27 7f 3d
       0.06769393 0.23616251 0.013413242 0.062293306
000320 d4 c3 af 3d 6e 47 55 3d b7 4d 72 be be 2d b5 be
       0.08582273 0.052070074 -0.23662458 -0.3538646
000330 bd 3b c2 be 8f c6 91 3e 0c 79 a1 3e 78 ad 0f 3c
       -0.37936202 0.284718 0.31537664 0.0087693855
000340 92 19 3a 3d a6 8f 2e 3e 54 da ea 3d ae e2 d1 3d
       0.045434542 0.17046985 0.11467424 0.10248314
000350 83 b3 20 bd 73 b2 7d 3e a6 c3 a2 3d 64 f9 14 bd
       -0.039233696 0.24775104 0.07947473 -0.03637065
000360 52 18 99 be 8f a3 38 be 4a 9c b6 bd fd 47 59 bb
       -0.29901367 -0.18031143 -0.089165285 -0.003315448
000370 9e 5c e6 bd 1b 91 10 3e e3 df b0 3e fc 91 35 3e
       -0.11248134 0.14117853 0.34545812 0.1773147
000380 26 5e 74 be da 80 3a bd 5a 26 8f 3e 73 c0 70 be
       -0.2386404 -0.04553304 0.27958947 -0.23510914
000390 fc 5f 3e be 22 8b 0f be 08 a7 18 3e 57 f0 0a 3d
       -0.18591303 -0.14017919 0.14907467 0.033920612
0003a0 49 01 70 be 65 21 82 3e 8f 18 50 3e 1b 9e 88 3d
       -0.2343799 0.25416103 0.20321868 0.06670781
0003b0 ba 30 33 3d da a9 d9 bd 4f cf 5c 3e e2 8f 21 3d
       0.04374764 -0.106281 0.21563457 0.039443858
0003c0 dd 55 32 3d f0 d6 35 be 3f 76 4d 3d e4 e0 2f be
       0.043538917 -0.17757773 0.050161596 -0.17175633
0003d0 52 f3 5f be 84 5f 79 be 1c 9b 00 3e 5e bd 4e 3e
       -0.21870163 -0.24352843 0.1255917 0.20189425
0003e0 ad 85 d8 3d 91 e3 7d bd ea 21 09 3e c3 17 8b bd
       0.10572372 -0.061984602 0.13391843 -0.067916416
0003f0 01 48 8b be b6 6e e4 be c2 4e 01 bd f0 b4 cb 3e
       -0.27203372 -0.44615716 -0.03156925 0.39786482

gru.bias_ih_l0_reverse f4 [75]
000000 f2 3f 64 3e 57 e5 79 3d 9c 77 53 bd e5 76 91 bb
       0.22290018 0.06100973 -0.05162774 -0.004439222
000010 25 36 5d 3e 54 7b 56 3e 1d 93 18 3e 44 04 ba bd
       0.21602686 0.20945483 0.1489987 -0.09082845
000020 f2 57 64 3e 51 ff 00 3d 65 43 d3 bd fb fc 2d 3c
       0.22299173 0.03149349 -0.10315589 0.010619397
000030 b6 84 01 3e d7 9e d7 bd 69 3e bd 3c 8f 6c 87 3c
       0.12648281 -0.10528343 0.023101049 0.016531257
000040 c5 6b 35 bd 40 bf 6e bd c7 6e 15 bc ec 05 56 3e
       -0.04429223 -0.05828786 -0.00912065 0.20900697
000050 24 1f 59 be 08 95 03 3c eb 72 77 3e 1b 41 4d 3d
       -0.21203285 0.008031137 0.24164931 0.050110918
000060 03 63 71 3e a0 4e 3f bc 95 5e 6c be a6 e8 4d be
       0.23572926 -0.0116764605 -0.23082955 -0.2010828
000070 1c a5 8b be 2c 26 6b be 11 b3 03 3d 7d 18 2e be
       -0.27274406 -0.2296378 0.032153193 -0.17001529
000080 90 b8 18 bd a2 f5 6b be df 85 95 be 0a 80 16 3d
       -0.037285388 -0.2304292 -0.29203698 0.0367432
000090 ef d4 aa 3d 2b 81 35 3d 4a 23 6c 3d ba e5 9e bd
       0.08341395 0.044312637 0.05765084 -0.077586606
0000a0 34 9f 37 be c6 3c 4a be 25 fd a6 be 8a 47 4d 3d
       -0.17931825 -0.19749746 -0.3261501 0.050117053
0000b0 0a c7 41 be 91 5b 17 3d 46 94 69 bd ed 73 38 be
       -0.18923584 0.03695256 -0.05702617 -0.18012972
0000c0 2d 12 a2 bd 15 a4 16 be f6 25 43 3c 22 93 8e 3d
       -0.07913623 -0.1471103 0.011910906 0.06961657
0000d0 cd 6b d2 3d f1 96 0d be 73 e8 6e bd 6e 15 f5 3d
       0.102744676 -0.13827111 -0.05832715 0.11966978
0000e0 37 95 ea 3d 28 24 77 be e1 eb 1e 3e 6a 44 22 3e
       0.11454242 -0.24134886 0.15519668 0.1584641
0000f0 32 de f3 bc 57 cc 34 3e 29 fa d0 bd 8a 05 43 3e
       -0.029769037 0.17656074 -0.10203964 0.19045082
000100 77 9e ce 3d 9b 39 00 3e 27 d4 f9 3d 7c 47 db 3c
       0.100888185 0.12521975 0.12198668 0.026767485
000110 09 0e 8c bc 68 02 f1 3c 96 b0 0a be 33 fb 0c 3e
       -0.017096536 0.029420093 -0.13543925 0.137677
000120 51 80 a4 3d 80 69 1a 3e 23 08 43 bd
       0.08032287 0.15079308 -0.04761518

gru.bias_hh_l0_reverse f4 [75]
000000 5a 90 8f 3e cd a9 4c 3e 8e c5 62 3e ca ac 88 3e
       0.2803982 0.19986649 0.22145674 0.26694328
000010 96 ef 53 bd 02 1f f0 3d df 4c 0f 3e 55 4f 38 3e
       -0.05174216 0.11724664 0.13994168 0.17999013
000020 77 99 69 3d 7a ee cb 3d ea e2 31 3e 0c 48 6d 3c
       0.05703112 0.09957595 0.17371717 0.014482509
000030 92 21 5f 3e 38 71 24 bd dc 46 4f 3e 07 85 88 3d
       0.2179015 -0.040147036 0.20241874 0.06665998
000040 9c fd 6e 3e dd dc 12 3e ef c6 9e 3d 52 3f 31 3e
       0.23338932 0.14342065 0.07752787 0.17309311
000050 43 a1 14 3d 71 2a 73 3e 45 15 bf bd 6b 35 38 3e
       0.036286604 0.23746659 -0.09330229 0.17989127
000060 fd 0b 87 bc ca 7d a0 be bb b5 2f be e5 ac a6 be
       -0.016485209 -0.3134597 -0.17159168 -0.32553783
000070 1d 92 92 be e5 bf b9 3b 58 9a cd 3d 4c 5a fc bb
       -0.286271 0.0056686276 0.10039204 -0.007701194
000080 9e 12 c2 bd b7 29 81 bd 79 3d 60 be 1c 55 63 bc
       -0.09476207 -0.063067846 -0.2189845 -0.013875272
000090 51 89 28 bd 9b eb 90 be 49 1b 62 be de be d1 bd
       -0.04114658 -0.28304753 -0.22080721 -0.10241483
0000a0 ca be 9c be ef e7 a7 3d bf a8 87 3d 38 e4 1d be
       -0.3061431 0.08198535 0.06623983 -0.1541909
0000b0 83 16 55 be 32 ea ef bc 3e cb dd bd 1e e4 eb bd
       -0.20809369 -0.029286478 -0.10829781 -0.11518119
0000c0 26 60 36 be 45 0f ae 3d 5c d8 1c be aa 77 31 be
       -0.17810115 0.08499006 -0.1531691 -0.17330804
0000d0 74 17 17 be 75 4c d2 3c 64 7f fc bc 8a c7 3b 3e
       -0.1475504 0.025671223 -0.030822463 0.18337837
0000e0 f7 25 a1 bd b3 a1 e6 ba 4e 0d 9e 3d 1f ef 24 3e
       -0.07868569 -0.0017595798 0.077173814 0.16106842
0000f0 d9 d6 01 3e 2b ef 79 bd 55 0e 0c 3d de 6f 20 3e
       0.12679614 -0.061019104 0.034193356 0.15667674
000100 5b 66 28 3d 53 c7 6f 3e b8 f5 f5 bc 23 09 10 be
       0.04111324 0.2341588 -0.030024394 -0.14065985
000110 2b 87 a2 bd a0 30 23 be a2 4e 3c 3d cf 9e c0 3d
       -0.079359375 -0.15936518 0.045973428 0.0940529
000120 e6 ff 16 3e 89 a7 38 3e 5d 4f 22 be
       0.14746055 0.1803266 -0.15850587

gru.weight_ih_l1 f4 [75, 50]
000000 9a b4 97 bd ef 1b 5a be 0f 28 29 bd 6a f2 96 3d
       -0.07407494 -0.21299718 -0.04129797 0.073704556
000010 c3 ed 0f be 12 c5 14 bd 6e 1d db 3e 13 cb 99 bc
       -0.14055543 -0.036320753 0.4279589 -0.018773591
000020 7d 43 a8 be 33 0b 2b bf 7b 4c b2 3d 81 ed 38 3e
       -0.3286399 -0.66813964 0.08705994 0.1805935
000030 e1 c2 c0 3e c3 a5 14 bd 40 4b 52 3e d3 44 03 be
       0.3764868 -0.036290895 0.20536518 -0.12819223
000040 da ca 49 bc 2b f1 a1 3e bd 04 0f bf cb 18 9c 3e
       -0.01231643 0.3162931 -0.55866605 0.30487666
000050 45 21 b7 3e b9 a3 1f 3e d6 6c 0d bd e6 79 99 3e
       0.3576757 0.15589799 -0.034527622 0.29975814
000060 99 e4 9d 3d ea 7d 5c 3e dc 91 dd bc 6f f8 53 be
       0.07709617 0.21532407 -0.02704709 -0.20700239
000070 f6 14 3d 3d 6b f6 bf bd 10 c2 cd 3d 9e 55 b1 bd
       0.046162568 -0.093731724 0.1004678 -0.08658908
000080 d5 b5 f8 bd d8 b8 f6 3d 11 57 22 3e 94 3a 3c bc
       -0.12144057 0.12046975 0.15853526 -0.0114885755
000090 1f 9a e5 bb 07 cf ef bd 17 b4 f6 bb ec ff 8f 3e
       -0.007006898 -0.11709409 -0.0075287926 0.2812494
0000a0 02 0e 44 3c 28 1c 5c bc a8 3a 28 3c 50 64 9d be
       0.01196623 -0.013434447 0.010267891 -0.30740595
0000b0 d4 e2 94 be 39 e4 ff 3d 5b d7 e4 bd ab 9f 2d 3e
       -0.29079306 0.12494702 -0.11173888 0.1695544
0000c0 83 3c bd bc 53 b4 b3 be 2e 36 f5 3a 63 b2 0e 3e
       -0.023100143 -0.35098514 0.0018708163 0.13935237
0000d0 ac 59 10 be 56 dc 89 3d d6 a5 ca 3d 5f 6d 4f be
       -0.14096707 0.06731479 0.09894912 -0.20256566
0000e0 b9 b6 2f bd c0 38 1a 3a be a6 46 be 7e 95 be bd
       -0.042898867 0.000588309 -0.19399545 -0.09305857
0000f0 74 2d 5b be 64 63 bc bd 5a 22 15 bd 86 6f ad 3c
       -0.21404058 -0.09198645 -0.036409713 0.021171343
000100 0e d9 9d be 14 3e 5e bd b7 cb 5b 3c 31 b5 5a bc
       -0.30829662 -0.05425842 0.013415269 -0.013348863
000110 b4 71 48 3b 4e 6e 32 bc 4f 6c 08 3e 79 0e 86 3c
       0.003058535 -0.0108905565 0.13322566 0.016364323
000120 23 97 1f bd 49 33 89 be a6 9b 3b bb 2c 99 00 3e
       -0.038962495 -0.2679694 -0.002862671 0.1255843
000130 c2 5e 80 bd 38 c6 12 3d f4 d7 6a bd cb 3c d7 bc
       -0.062680736 0.035833567 -0.057334855 -0.026274106
000140 d4 7c bf bd 41 97 d7 bc 90 f2 99 3d 73 2d 18 3e
       -0.09349981 -0.02631724 0.07516968 0.14861088
000150 fb 42 2a 3e 12 01 94 3e 96 6f 0a bd 04 94 2b bc
       0.16627114 0.28907067 -0.033797823 -0.010472301
000160 cb 8b a0 3d 2d 20 e4 3c 32 c9 ec bc e1 ff 1f be
       0.078391634 0.027847374 -0.028904531 -0.15624954
000170 7b f9 6f 3d 08 e5 2e be ee 08 b9 bd e0 ec 0f be
       0.058587532 -0.17079556 -0.09034906 -0.14055204
000180 a1 3b 2b 3e 75 de e2 3d 08 cd 64 bc 6c 73 46 3c
       0.16721965 0.110775866 -0.013964899 0.01211248
000190 24 8a 10 bd b9 d9 96 be 8c 2c 38 bc 1c b0 26 3e
       -0.03528799 -0.29462984 -0.01124109 0.16278118
0001a0 52 d1 30 bd e9 32 a7 3d 1f 93 e7 3e 14 44 25 be
       -0.043168373 0.08164007 0.45229432 -0.16139251
0001b0 0d a3 c3 be cb c4 f6 be 32 c7 8f 3e 0e fe d7 3d
       -0.38210335 -0.48197016 0.2808166 0.10546504
0001c0 2d 9a a8 3e ad 30 97 bd b8 5d 7f 3d b5 35 a4 bd
       0.32930127 -0.07382331 0.062345237 -0.08018056
0001d0 0a 9d 11 be 8f 70 57 3d 0a 5f 46 be d1 a6 66 3e
       -0.14220062 0.05259758 -0.19372192 0.22524573
0001e0 65 a5 1a 3e 07 8a a8 3d 67 a4 25 3e c4 3f bc 3e
       0.15102156 0.082294516 0.16175996 0.367674
0001f0 71 98 e6 3d ba 7c 5d bd e0 8a 8d 3e d2 85 4f be
       0.11259545 -0.054074027 0.27645016 -0.20265892
000200 26 e6 a1 bd 5f 82 0b 3d 28 6e 50 bb d5 d2 1c 3e
       -0.079052255 0.03405988 -0.003180394 0.15314801
000210 77 af b1 3b 07 99 9b bd cf 47 b6 bd 1a 5d 76 3e
       0.0054225284 -0.07597547 -0.08900415 0.24058953
000220 fb 18 81 3d f5 aa d1 3d 68 9e f6 bc e6 98 30 3e
       0.06303593 0.102376856 -0.03010483 0.17245826
000230 af 9e 0e 3d 45 a6 fd 3c 29 b7 a4 3c bf 76 9f be
       0.0348193 0.030963073 0.020106869 -0.31145284
000240 e3 06 85 bd fb 09 ff 3c aa ff 2c be 5f 8b 44 3c
       -0.06495454 0.031132689 -0.16894403 0.011996119
000250 63 0b 57 bd e5 aa 28 be f9 18 9e be 2e 1a 6a 3d
       -0.052501094 -0.16471441 -0.30878428 0.057153873
000260 b3 8a a8 3d fb db 8e 3e 9e 9a 36 3e 5a ed 09 be
       0.0822958 0.27902207 0.1783242 -0.13469449
000270 58 0e 14 3d 17 67 32 be 85 e7 4a be 69 65 e7 bc
       0.03614649 -0.17422138 -0.1981488 -0.028246598
000280 c4 93 8a bd 3c 3f 10 3d d2 6c 80 bb 6c 63 b1 bd
       -0.06766465 0.035216555 -0.0039192224 -0.08661541
000290 1c 29 18 3e 95 a2 18 be 4f 51 31 3d da e4 08 3e
       0.14859432 -0.1490577 0.043290433 0.1336855
0002a0 6f 09 b5 be 2f d8 2c 3e 99 46 0d 3d c5 a4 4b be
       -0.3535876 0.16879342 0.034491155 -0.19887073
0002b0 94 25 3f bd c4 12 63 3e 43 d7 58 3e 7b 2f 39 3e
       -0.046666697 0.22175127 0.21175866 0.18084519
0002c0 14 70 f4 bd de ea 91 be 00 11 85 bc b0 0a 53 be
       -0.1193544 -0.28499502 -0.016243458 -0.20609546
0002d0 07 e4 4e 3e 91 da 12 3e 7e a4 31 be 0d e7 12 3e
       0.20204173 0.14341189 -0.17347905 0.14345951
0002e0 6f a0 1b 3e d7 c6 71 bc 15 3d 6d 3e d2 83 ac bc
       0.1519792 -0.01475688 0.23167832 -0.02105895
0002f0 6c f0 bb 3d c3 37 c5 3d 72 bc 85 3d b5 a0 26 3d
       0.09176716 0.09629776 0.06530084 0.040680606
000300 91 40 9e be e6 48 2d 3e a2 e1 9f bd 09 ab 94 bd
       -0.30908635 0.1692234 -0.07806708 -0.07259185
000310 ef e7 75 3e 06 d6 57 3e 0d ab cf 3e 7a e7 5a be
       0.24014257 0.21077737 0.4056019 -0.21377364
000320 be 96 1e be ad 49 2e 3e 47 fa 69 3c 93 69 2d 3e
       -0.15487191 0.17020293 0.014280862 0.16934805
000330 df a2 6d 3e 6c 1a e4 3d 1e 85 8e bd 95 65 b1 3d
       0.23206662 0.11137852 -0.06958984 0.08661953
000340 c4 95 0f 3c 06 5e 06 3e e5 5d 4c bd 76 40 8c 3d
       0.008763734 0.13121805 -0.049894232 0.068482324
000350 ee 2c 5d 3e fa 4a 1c be 60 da 0a be 38 90 24 3d
       0.2159917 -0.15262976 -0.13559866 0.0401766
000360 24 87 83 bd 50 cc 36 be f0 23 18 3c ea ee d6 bd
       -0.064222604 -0.17851377 0.009285912 -0.10494788
000370 f5 27 a0 bc 2b 31 4b be 0c 11 99 3d 0f 3f 1b 3e
       -0.019550303 -0.19842975 0.074739546 0.15160774
000380 2b d4 f5 3d 54 e6 8e 3e 53 27 c2 bb 86 30 75 bd
       0.120033585 0.279101 -0.005925098 -0.05986073
000390 a6 19 bd be fb 94 9e be b4 9c 9f 3e 51 6f 77 3d
       -0.3693363 -0.30973038 0.31174242 0.060408894
0003a0 b3 a3 0d be 5d b4 11 3e 14 07 1e 3c af 4a 5c 3e
       -0.13831978 0.1422896 0.009645242 0.21512865
0003b0 61 98 36 3e eb 9c 0e be 50 52 a9 3e 0a a3 0a 3e
       0.17831565 -0.13927047 0.33070612 0.13538757
0003c0 44 ef bd 3d e4 2f 7d bb 54 a6 ee bd e7 19 04 3d
       0.09274152 -0.0038633281 -0.11652818 0.032251265
0003d0 9a 12 b7 be e7 d3 6d bd db db 1d 3e a5 7d b3 3d
       -0.3575638 -0.058063414 0.154159 0.08764199
0003e0 f2 28 1a 3e 37 d8 99 be 1d e1 72 bd 35 de 84 bd
       0.15054682 -0.3004777 -0.059296716 -0.06487695
0003f0 ef 56 d8 3d 66 44 86 bd 2c c0 0d 3e 4e 40 7a be
       0.10563456 -0.06556015 0.13842839 -0.24438593

gru.weight_hh_l1 f4 [75, 25]
000000 5b 07 03 3e 48 71 33 be 9e 45 61 3d e2 38 08 3e
       0.12795775 -0.17523682 0.054998033 0.13302949
000010 67 c9 95 3c ed ba 63 be ee 21 1f 3d 8f 29 9d 3d
       0.018284513 -0.22239275 0.038850717 0.07673942
000020 72 0b 34 3d aa 80 93 3d 8c 77 3b 3e 56 c0 91 3e
       0.043956228 0.07202275 0.18307322 0.28467053
000030 36 96 a0 3d 3f 81 42 be a8 16 22 3e d6 72 64 3e
       0.078411505 -0.18994616 0.15828955 0.22309431
000040 3f 48 54 3c 6f 9b 92 3e 86 8a c1 3d 8a 9e 08 3e
       0.012956678 0.2863421 0.094502494 0.13341728
000050 91 f7 54 bc c0 76 1b 3e db 9a 88 bd 90 6a 4b bd
       -0.012998478 0.15182018 -0.06670161 -0.049662173
000060 71 a4 ad 3d cb 4a ba bd 7d b4 17 be f0 1b 51 be
       0.0847863 -0.09096297 -0.14814945 -0.20420814
000070 67 19 ef bc 2f af ad 3c 19 9c 1a be 2f 93 7c be
       -0.029186917 0.021201698 -0.15098609 -0.24665521
000080 78 33 5c bd 3c cc 8e 3d fd 11 d1 3d 9f 0e 92 bd
       -0.053760022 0.06972548 0.10208509 -0.07131695
000090 d0 d1 87 bc 84 92 8b 3c 6e a0 00 3e 2e 92 8a bd
       -0.016579539 0.017037638 0.12561199 -0.06766163
0000a0 e2 3e 6a be 13 57 32 3e 66 41 38 3e 1c d5 65 be
       -0.2287555 0.17416029 0.17993698 -0.22444576
0000b0 39 a3 ad bd bb 8a 3b be 36 6f 6b be a8 db 9a 3e
       -0.08478398 -0.1831464 -0.22991642 0.3024571
0000c0 42 fc 57 3d 2e 23 61 bd a1 89 c7 3d ed 85 e1 bc
       0.052730806 -0.05496519 0.097430475 -0.027529681
0000d0 da 69 a6 3e 81 39 39 3e 6f 00 a8 3d d3 46 a0 be
       0.32502633 0.18088342 0.08203208 -0.31304035
0000e0 27 45 53 3e d9 d2 5c 3e ab 51 53 3e 43 54 05 3e
       0.20631848 0.21564807 0.20636623 0.13020425
0000f0 02 f7 cf 3d 7c b0 d0 3d 30 bd a8 bd ee 8d 33 3d
       0.10154535 0.10189912 -0.0823921 0.043836527
000100 7f 24 5d bd 26 74 7d 3e 6a f5 27 bd b7 f7 22 3d
       -0.053989884 0.24751338 -0.04100553 0.03978702
000110 16 92 5f 3e bc 28 0e 3d f9 25 16 3e 5b 9e 29 3e
       0.21833071 0.034706816 0.14662923 0.16564314
000120 d6 13 94 be e7 3e aa bd 26 ac 79 be 1c b6 d8 3d
       -0.28921384 -0.08312779 -0.24382076 0.105816096
000130 ef 80 63 be ab 06 82 bd cd 93 75 3d 67 e7 de bd
       -0.22217153 -0.06348928 0.059955407 -0.1088398
000140 c3 68 06 3e 3b 26 7d bc b0 0e e4 3d d7 c7 16 3e
       0.13125901 -0.015451009 0.11135614 0.1472467
000150 da 38 5e be 0d 99 96 3d bd 37 82 3e fa 32 aa bd
       -0.21701375 0.07353411 0.2543315 -0.08310504
000160 b3 b9 b9 be ad 8c 6c 3e 30 1c 74 3b 7b 98 b1 3d
       -0.3627449 0.23100539 0.0037248246 0.086716615
000170 62 f4 18 bd 7e e0 82 bb 06 fb 9f be 25 f0 f1 3d
       -0.037342437 -0.0039940467 -0.31246203 0.11813382
000180 f4 6b 22 ba 20 81 af bd c2 88 c3 bd 4a 03 dd bd
       -0.0006195896 -0.085695505 -0.09547569 -0.10791643
000190 68 8d f3 3d 6b 9d 06 bc 16 41 a6 3c 20 06 1e be
       0.118922055 -0.008216242 0.020294707 -0.15432024
0001a0 51 83 2a be a0 05 4e be 66 9d 94 bc 12 8a 65 3e
       -0.16651656 -0.20119333 -0.01814146 0.22415951
0001b0 ec c4 9a bd 9f 00 02 3e 9c 2a 1c 3e ca d2 6e 3e
       -0.07557091 0.1269555 0.15250629 0.23322597
0001c0 24 8e 2f 3d 9c 7e df bc b4 b3 9b 3e 1c 41 34 bc
       0.042860165 -0.027282052 0.3041054 -0.011001851
0001d0 db da b4 bc 3d 5b e5 bc 29 fb 07 be aa f9 90 3d
       -0.022077015 -0.027997607 -0.13279404 0.0707887
0001e0 c6 5c f7 3d 5e 5b 66 be 1d bc 4e be 65 3f 82 bd
       0.12078242 -0.22495791 -0.20188947 -0.06359748
0001f0 1e e8 54 be 85 80 af 3d c9 5b b4 3c 74 48 24 be
       -0.2079167 0.08569435 0.022016423 -0.16043264
000200 aa 55 65 bc 1a d7 8d 3e 45 61 91 bd b6 af 55 bd
       -0.013997475 0.27703172 -0.07098631 -0.052169524
000210 12 e2 85 be 7e ac 20 3d 49 74 b8 bc 96 8c 3a be
       -0.2614904 0.039227 -0.022516387 -0.18217692
000220 a7 11 f6 3d 87 bd f3 3d 24 79 32 be 5f 48 50 be
       0.12015086 0.11901384 -0.17429024 -0.20340107
000230 66 6c eb 3d 55 a6 48 bd 46 01 81 be 72 f7 97 bd
       0.11495285 -0.04898675 -0.25196284 -0.07420243
000240 4b cc 61 be 2c 52 28 3e 99 18 35 3d af 30 a5 bd
       -0.22050588 0.16437596 0.04421291 -0.08065926
000250 74 a5 f1 bc d7 57 b6 bc c0 de ee 3e 28 42 33 3d
       -0.02949784 -0.022258682 0.4665432 0.043764263
000260 a0 4c cb 3e 33 95 8a 3d 2e c0 04 3e 8f 0e c0 bc
       0.39706898 0.06766739 0.12963936 -0.023444442
000270 b4 fc ce 3e 8b 70 01 3e 39 25 04 3e dc 9a c7 bc
       0.40427172 0.12640588 0.12904824 -0.024365835
000280 bb 72 72 3e df 92 31 3e 07 e9 94 bd c4 e5 8c 3d
       0.23676579 0.17341183 -0.07271009 0.06879762
000290 9e 8b 87 bd 86 6f 2b 3d 2a 05 33 be eb 7c 49 3c
       -0.06618427 0.041854404 -0.17482439 0.012297849
0002a0 74 42 1e 3e 5e c5 5a 3e e3 17 99 3e 28 17 9e 3e
       0.15455037 0.21364352 0.29901037 0.30877042
0002b0 be 00 b6 bc 4d b4 0d 3e d1 3e 82 be 67 80 fe 3d
       -0.02221715 0.1383831 -0.2543855 0.124268346
0002c0 2d 39 36 3e 10 fd b6 bd 90 62 ec 3d 6d b6 11 3d
       0.17795248 -0.089349866 0.11542237 0.035574365
0002d0 80 5c 24 be e6 f2 6b be 10 0a 52 3c 1f 6e 8d ba
       -0.16050911 -0.23041877 0.012819782 -0.0010790265
0002e0 b2 58 ba 3c b0 2b 2e be d7 19 20 3e a5 2b 68 3d
       0.022747371 -0.17008853 0.15634857 0.056682248
0002f0 f6 d3 88 be 6e 9a 2f be 3c 2c 95 3d ca 26 e5 3d
       -0.26724213 -0.17148754 0.07283828 0.11189039
000300 8c 49 0d 3e c7 59 5c be ea 99 1f be 5b 74 ea bb
       0.13797587 -0.21518622 -0.15586057 -0.007154984
000310 71 93 18 3e 51 d5 2e bc 5a b4 6d 3e cb f2 6b 3e
       0.14899994 -0.010670976 0.2321333 0.23041837
000320 00 3d 81 3d 70 c8 2f be 1f fd f9 bd 14 3f 87 bc
       0.06310463 -0.17166305 -0.12206482 -0.01650957
000330 bf 4e a5 3d d3 b0 76 3c 0c 97 23 bd f1 ea 01 bd
       0.0807166 0.015056807 -0.03993897 -0.0317182
000340 73 fe 1a 3e fa 0a a0 bd 01 40 00 3e c8 e1 87 3e
       0.15136127 -0.078145936 0.12524416 0.26539445
000350 21 57 0c be be 7a a8 3d 70 ae 72 3e 0f e5 95 3d
       -0.13705112 0.08226536 0.23699355 0.0731908
000360 24 53 02 3c 38 c8 0f 3e fc aa 5f be 5c f7 0a bd
       0.007954393 0.14041221 -0.21842569 -0.033927307
000370 ed b9 2f bd 0a 8d 36 bd 73 86 64 be 18 72 29 be
       -0.042901922 -0.0445681 -0.22316913 -0.1654743
000380 43 fa 15 3c f2 ba 39 be a1 93 0c 3e 78 90 79 3e
       0.009153905 -0.1813772 0.13728191 0.24371517
000390 0e a1 28 3d 07 75 74 3d 58 34 b9 3e ce 5f 39 3d
       0.04116922 0.05968192 0.36172748 0.045257382
0003a0 f1 24 54 be 1c 25 d4 bd 30 5b ec 3d 87 85 17 be
       -0.20717217 -0.103586406 0.1154083 -0.1479703
0003b0 0e 9d 9a bd 22 be 38 3d aa a1 18 be 20 d8 fb 3d
       -0.07549487 0.0451032 -0.1490542 0.12297082
0003c0 fb 74 43 3e 3b a5 20 bd b1 ed a2 3d 26 0c 25 3e
       0.19087593 -0.039220076 0.07955492 0.16117916
0003d0 a5 4c 95 bd cc 14 0d 3e f4 37 45 3e e2 61 20 3e
       -0.072900094 0.13777465 0.19259626 0.1566234
0003e0 6e 47 0d 3e 42 1b 4a bd 67 ce 9e 3d 34 5e b6 3b
       0.1379678 -0.0493424 0.07754212 0.005565429
0003f0 bc 4e 0e 3d 9d ec 84 be ee 59 5a be 6d f1 42 be
       0.034743056 -0.25961772 -0.21323368 -0.19037409
