checkpoints_gp2/generator_checkpoint100.pth.tar (torch_old, 214106 bytes, 54 tensors)

gru.weight_ih_l0 f4 [75, 10]
00000000: f501 3ebd fbe8 403e 1b12 073e 00d9 6a3e
00000010: 1655 dcbd d1a1 303d e414 c13d 1b08 283e
00000020: e7ad 12be 17d3 28be 04a3 e33d 7d80 0f3e
00000030: 9be7 d23e ecfc e73e be67 62be 61ca f43b
00000040: 7677 e7bd 56a8 873c 6af6 063d 2d5f 8ebc
00000050: aaf6 ea3d 05ba 303e d8c8 193e e509 af3d
00000060: 8622 47bd a28b 4fbd 500c 58be 279b 19bd
00000070: bb64 7ebd 9bff 47be 235d 8a3e ce77 023e
00000080: e8b4 823e cb09 ac3e c092 793d 895a 0f3e
00000090: 8434 b53d 5fe5 ecbd 9681 38be 0fe3 1abe
000000a0: 6f02 2e3e 7728 af3e 11ee b93d 3fe6 923e
000000b0: 692c edbc 238a 39be 6c1e e43d 38f5 66be
000000c0: f360 0e3d 0bb6 0d3e bb86 123e 7891 51bd
000000d0: fdbd 013e 9fab c63c 8dad 44be c4bc b7bc
000000e0: 942c d63d 88a0 37be 26b9 1bbe e789 713e
000000f0: b7d0 023e 7f96 3d3c f788 56bc 87f1 fcbc
00000100: 347f 473e 8a48 bb3d e52d a4bd 5ba4 9a3e
00000110: da92 043e 3a2d 92be f1e6 d53e d03b 7f3e
00000120: d210 c53e 1d1b 0a3e 07ce 793d 5d46 01bd
00000130: 586f a33d 9a88 983d 3f8e 8a3d e088 f3bd
00000140: cb2b 673e 9cda c53e 146b 713e cca1 a43e
00000150: 5a75 4abe e700 afbc 3bcc 173d 2670 1abe
00000160: f2f9 423e 4729 bbbc b32a ac3d db6a 58bd
00000170: 329e 75be 9084 393e 7f41 b83e 2289 c4bc
00000180: 3733 41be 1d7a a73e 4dfb 853e ab7d acbd
00000190: ce39 c13d b043 893e 0969 c53e 0799 a03d
000001a0: 24b8 c6bd e450 2fbd a7c5 3d3e 036d 46be
000001b0: 6e15 18be 293f 923e 0952 d03d bff7 4f39
000001c0: 2f28 7a3e b96b a53d 03bc 72be eb81 2dbe
000001d0: 60aa 8e3e 7807 19be 9c4d 7bbe 4b2a 263e
000001e0: a523 5ebe 0ea6 4fbe ddd2 11be 4ace bf3d
000001f0: f060 b63e 3a1e 1ebd 3435 bdbe 1cb1 a53d
00000200: 3795 803e f735 12be 3475 883e d1e1 ac3e
00000210: 1ee4 483e 9846 8b3d 32ba b3bd 963d 08bd
00000220: 40f9 063e a66a 09ba da41 dfbd 419d eabd
00000230: 15eb b13e fd39 ab3e 5936 ce3e 4816 973d
00000240: 4a21 bcbd 2865 6cbd 1b6d 163d 999b 0fbe
00000250: 5d96 4fbe 8771 703e 2155 943e 0b94 af3c
00000260: be9a 4a3e 62f4 3e3e d2e3 91be e253 093d
00000270: 8c73 b63d c498 50be 6bac 83be 73c2 433e
00000280: 70a3 a6bd 9886 213e 6081 023e 26cd 713e
00000290: f08e edbc c952 ce3d 46da 38bd 490c 8a3d
000002a0: 714b 3ebe 3f36 24be 90cb d1bd e1d7 fe3d
000002b0: 388a dc3d cc25 f73d 111c 9a3e 208b 76bd
000002c0: 123c 7cbc 8437 9c3c 4f3d 173d 2c3c 203d
000002d0: cf27 1b3c e459 dbbd ce0b 23be 882a 11bd
000002e0: 4054 823e 1b07 063d 5a4c 49be 628a 343e
000002f0: f3b6 f63d beca 75be c87d b33e bab5 7c3d
00000300: 15a4 3f3e b891 553e 7c3a b3bd de06 33bd
00000310: 259c 883d fb6b a23d 8d20 753e 6c4c ea3c
00000320: 9ebe bcbd 6789 f9bc f025 c23d 52c3 f43d
00000330: ca34 85be e0cc 2e3e 36fe 1e3e 393c 84be
00000340: 3919 26be 9ac5 d13e fe66 113d da09 f9bd
00000350: 2d25 1ebe 3728 c93d f5c5 78be 7ab7 033e
00000360: 6944 4a3e 387b 2fbe 87ed 8ebd 8e2a 893e
00000370: fe25 4a3e 59a9 c33d a5c1 283e 356a b73e
00000380: 7dc4 1a3c 6167 f63c 464b bb3d 5fbd 8b3d
00000390: 790f 383d 645d 06bd 8d8b 243e 4371 b43e
000003a0: 75be f13e 61df cf3e 9bec c2bd 4656 253c
000003b0: ce6c e33d ec5a b93d 4674 08bd 0ff7 1d3d
000003c0: dd25 703e 1941 63bc 130b 433c a645 72bd
000003d0: 8d8d 733d e083 9fbc efb7 af3d 995a 01bd
000003e0: 0f8d bcbd eca8 25bc 83c6 14bd c1ab f4bc
000003f0: f8f6 0abe 6ffb a4bd 0e6b f3bd 1ef5 79be
-0.046388585 0.18838875 0.131905 0.22934341 -0.10758416 0.04312307 0.09427813 0.16409342
-0.14324151 -0.16486774 0.11115077 0.14013858 0.41192326 0.45310152 -0.22109887 0.0074704145
-0.11302082 0.016559761 0.032949843 -0.017379368 0.11472829 0.17258461 0.15018022 0.08546809
-0.04861691 -0.050670274 -0.21098447 -0.03750148 -0.062107783 -0.195311 0.27024183 0.12741014
0.25528646 0.3360122 0.060930967 0.1399938 0.08847907 -0.115671866 -0.18018183 -0.15125678
0.16993116 0.3421056 0.09078611 0.2869129 -0.02895184 -0.18119101 0.11138615 -0.22554481
0.034760427 0.13838975 0.14309208 -0.05116412 0.12670131 0.024251757 -0.1920683 -0.022428878
0.10457721 -0.17932332 -0.15207347 0.23587762 0.12774931 0.011571526 -0.013094178 -0.030876888
0.19482118 0.09144695 -0.08016566 0.30203518 0.12946644 -0.2855013 0.41777757 0.2492516
0.38489395 0.13486905 0.0609875 -0.031561244 0.079802215 0.0744793 0.067654125 -0.11891341
0.225753 0.38643348 0.23576003 0.3215469 -0.19771329 -0.021362735 0.037060004 -0.15081844
0.19040659 -0.022846831 0.08406582 -0.05283628 -0.23986128 0.18116975 0.3598747 -0.023991171
-0.18867193 0.32710353 0.2616829 -0.08422407 0.094348535 0.26809454 0.38556698 0.07841688
-0.09703091 -0.042801753 0.1853243 -0.19377522 -0.14851925 0.28563812 0.10171897 0.00019833351
0.24429391 0.08077187 -0.23704533 -0.16944091 0.2786436 -0.14944255 -0.24541324 0.16227071
-0.21693285 -0.20278189 -0.14240594 0.093655184 0.35620832 -0.038603045 -0.36954653 0.080904216
0.25113842 -0.14278398 0.2665192 0.33766034 0.1961827 0.06800574 -0.08775748 -0.033261858
0.13181019 -0.0005242027 -0.10901232 -0.11455775 0.34749666 0.3344268 0.4027584 0.07377297
-0.09186037 -0.057713658 0.036725145 -0.140242 -0.20272203 0.23480807 0.28971198 0.021432897
0.19785592 0.18647912 -0.28494126 0.033527263 0.089087576 -0.20370775 -0.25717482 0.19117145
-0.08136642 0.15774 0.12744665 0.23613414 -0.028998822 0.10074384 -0.045130037 0.067406245
-0.18583466 -0.16036318 -0.102439046 0.124435194 0.10768551 0.12067756 0.30099538 -0.060191274
-0.015395181 0.01906944 0.036923703 0.039119884 0.00946994 -0.10710505 -0.15922472 -0.03544095
0.25454903 0.03272162 -0.19658032 0.17630914 0.120466135 -0.24003121 0.350569 0.061696745
0.18714936 0.20856369 -0.087513894 -0.04370772 0.06670407 0.07930752 0.23938198 0.028600894
-0.09216045 -0.030461026 0.09479892 0.11951317 -0.26016837 0.17070341 0.15526661 -0.25827196
-0.16220559 0.4097107 0.03549861 -0.12160082 -0.15443869 0.098221235 -0.24294265 0.1286296
0.19752659 -0.17136848 -0.069788985 0.2679028 0.19741055 0.09553785 0.1648012 0.35823217
0.0094462605 0.030078592 0.09145217 0.06823229 0.04493663 -0.032803908 0.1606886 0.35242662
0.4721562 0.40600112 -0.09517785 0.01009137 0.11104737 0.09050545 -0.033314012 0.03856569
0.23451944 -0.013870501 0.011904496 -0.059148453 0.059461165 -0.019472063 0.085800044 -0.03158054
-0.09206592 -0.010111075 -0.036322128 -0.029867055 -0.13570774 -0.0805577 -0.118856534 -0.24409911

gru.weight_hh_l0 f4 [75, 25]
00000000: adb5 23be b241 503d 4d97 5e3e 6054 0b3e
00000010: 5706 a13e 645a 06be ed6a 85bc ed3f a4be
00000020: dd70 50be 6421 2d3d 6266 6d3d f0f8 9abe
00000030: 06bd a63d 5785 b7be 522c 72be 5116 573e
00000040: c399 93be 16a7 fdbd 41de 2ebd 3ebb 733d
00000050: ac7a 12be 7229 2abe 980d 71be a6d5 a3bd
00000060: 55b7 d43d df8b 24be aa11 d7bd 822e 0d3e
00000070: 24a6 a33e bc22 c43d a44c c7be 3176 cb3d
00000080: 17e5 eabe 8d63 94be 7101 04be 2685 503d
00000090: f17a 63bc 1084 4e3c 800d cebd 86a6 35be
000000a0: 7d3f 623d 7da2 00be a1ab 8fbe 988b 40bd
000000b0: 1f72 cc3e 1c1a 9abd d1b8 cdbe 387d ccbe
000000c0: 07e0 9abe 3a03 383d 09e3 68be 795b 9a3c
000000d0: 2ad2 4f3e a573 943d d023 753e a724 68be
000000e0: 8961 423e b9eb 94be d9b4 babd 9cdd acbc
000000f0: b437 923d 735f e8bb 2650 123c 5240 b7be
00000100: a7d8 77be 2d3c 953d 94de e7bd 720e 66be
00000110: 186b 88bd 6740 b83e e9e6 2f3e 30f0 b0be
00000120: 8b61 fabd abf2 0cbe 2c79 ab3e cdfb 9abe
00000130: d15d 883d 8a1b 9c3d 6154 5a3e 9733 c33d
00000140: 8725 83bd fcf9 1e3d db3b 32be 0486 2bbd
00000150: 9b19 9fbc 6604 86be 0cd0 21be e24b 723e
00000160: 7496 b7be 9af8 8dbe d4c2 563e 062c d2bc
00000170: a4e7 233d 01b9 96be 2236 953c 1443 fbbd
00000180: 1db1 5fbe d347 ddbc dceb 00bd 9891 373e
00000190: 7e1a 93ba 73ba 853e 07bc 063e f4a9 1bbd
000001a0: f4b7 bb3d b5c2 d5bd a541 bebd 6efb 5fbe
000001b0: 9aa9 e6bd 602e 3dbd 7a36 8c3b b23a a13d
000001c0: 4959 47be 5566 a33c 75e2 1bbe 2255 3f3e
000001d0: 0535 75be 8044 6bbe 585a 853e 7646 2c3d
000001e0: 58d4 6abe c400 513e eeed 87be e93a bebd
000001f0: 3a21 723e 7736 26bd 8188 8a3d 0625 b03d
00000200: 04c6 c63d f8a5 ba3d de99 543c a0a8 49be
00000210: 48b9 063d 6d97 0c3d 52b2 10bc ae4b 0fbe
00000220: 01e5 eabd a138 d1bd 02fc 71bd 06da dd3c
00000230: 4cf9 fd3c 493e 4fbe 2868 37be 063a c1bd
00000240: e3bf 6f3e 7d76 72bd 0c59 3fbe 3ad8 b43c
00000250: bbd0 5bbe f07d 83bc 7ba6 79be e227 383e
00000260: b45e 51bd bb56 d83d e53f ce3d 7a50 19be
00000270: ea24 5e3d 8330 96be 595d dcbd 0a62 be3d
00000280: 9192 3e3e 1f1b f6be 50ed 9bbe 673b bbbe
00000290: db91 5ebd 8af8 c03e 8dad 66bd e6af 6cbe
000002a0: 912a 2ebd 0e6a c6bc 46f4 87be 8b6e 4fbe
000002b0: 833d 603d 1489 e1be 1a16 473e b6ea ec3c
000002c0: 7349 9d3e 4b40 9a3e 8ad3 7d3e 7513 51bd
000002d0: 47bc 3ebd f5b7 36be 8b95 adbd 1596 a5be
000002e0: bfd6 a33d 400d 88bd f947 373d fa13 74be
000002f0: 3dd6 c9be 8621 f8bc fa20 ff3d 5dd5 51be
00000300: afe3 53be edf6 643d af0f 8b3e b250 e23d
00000310: 802e 78be 90ae 9ebe adbd d2bd 30c7 303e
00000320: a6d6 56be cc20 253e c507 103e ea93 a03e
00000330: b7a5 01bd b1fa d6be 9930 573d d16b d9be
00000340: ddb8 5bbe 4020 053e d718 c0be b3bf 6bbd
00000350: 7627 cbbd d035 b5be 03fb 65be 63cf 3d3d
00000360: 516d 6cbe 366f d2bd 7d4e 833e 600f 993e
00000370: ec52 77bd c552 93be 92b3 8fbe 0606 abbe
00000380: 44be 803e 6343 13bc 9238 923e ecdf c9bd
00000390: 0919 f53d ff06 a43d 05dc 94be c2fb b23d
000003a0: 4b72 fcbd 14ea ae3d 3fe4 753e 40c0 453e
000003b0: a400 dfbe 0768 3fbd 9b43 a9be c4a8 7abe
000003c0: f3a0 843d ed23 793d 2c3d f8bd 76d5 e2bc
000003d0: d4ec c83d 3d11 a7be 1ca1 e1be 7ce6 6dbc
000003e0: c785 4dbe 6b96 15bd 86ff d8bd 418f ec3e
000003f0: 01a3 bd3d b843 943e 5ba2 c03e a044 afbe
-0.15987273 0.050843902 0.21737404 0.13606405 0.3145015 -0.13120419 -0.016286338 -0.32080022
-0.20355554 0.042268172 0.057958968 -0.3026805 0.08141522 -0.35843918 -0.2364972 0.21004607
-0.28828248 -0.12385385 -0.042692427 0.05950474 -0.14304608 -0.16617373 -0.23540342 -0.079997346
0.1038653 -0.16068982 -0.10501416 0.13787273 0.31962693 0.095769376 -0.3892566 0.099346526
-0.45877907 -0.289822 -0.12891175 0.05090823 -0.013884292 0.012604728 -0.10061169 -0.17739305
0.05523633 -0.12561984 -0.2806063 -0.047008127 0.39930817 -0.07524511 -0.40180066 -0.39939284
-0.30249044 0.044924952 -0.22742857 0.018842446 0.20295015 0.0724862 0.23939443 -0.22670232
0.18982519 -0.29086092 -0.09116525 -0.021101765 0.07139531 -0.0070914566 0.008930242 -0.3579126
-0.2420374 0.07286868 -0.1132175 -0.22466448 -0.066610515 0.35986635 0.17177929 -0.3455825
-0.12225636 -0.13764445 0.33490884 -0.30270234 0.06658519 0.0762244 0.2132125 0.09531324
-0.06403642 0.038812622 -0.17405646 -0.041875854 -0.01942139 -0.2617523 -0.1580202 0.2366176
-0.35856974 -0.2772873 0.20972759 -0.025655758 0.04001583 -0.29438022 0.01821429 -0.122686535
-0.21844907 -0.027011788 -0.031474933 0.17926633 -0.0011223105 0.26118812 0.13157664 -0.038003877
0.09165946 -0.10437528 -0.092898645 -0.21873257 -0.11262818 -0.046186805 0.004278955 0.07872523
-0.19467653 0.019946257 -0.15223105 0.1868482 -0.23946007 -0.2297535 0.2604549 0.042059384
-0.22932565 0.20410448 -0.26548713 -0.0928858 0.23645487 -0.040579285 0.06764317 0.08600812
0.09705737 0.09113687 0.012976138 -0.19693232 0.03289154 0.0343241 -0.008831577 -0.13993713
-0.1146946 -0.10215879 -0.059078224 0.0270815 0.031002663 -0.20238604 -0.17910826 -0.09434895
0.23413043 -0.05919503 -0.18686312 0.022075761 -0.21466343 -0.016051263 -0.24379914 0.17983964
-0.051115707 0.105634175 0.10070781 -0.14972106 0.054234423 -0.29333887 -0.10759992 0.09296043
0.18610598 -0.48067567 -0.30454493 -0.36568758 -0.054338317 0.3768962 -0.056317855 -0.23113975
-0.042521063 -0.024220493 -0.26553553 -0.20257013 0.054746162 -0.44049895 0.19442025 0.028920513
0.307201 0.30127177 0.24787727 -0.051043946 -0.046566274 -0.17843612 -0.08475789 -0.32341066
0.07999944 -0.06643152 0.044746373 -0.23835745 -0.39421263 -0.030289423 0.12457462 -0.20491548
-0.20692323 0.05589955 0.27160403 0.11050548 -0.24236488 -0.30992556 -0.10290084 0.17263484
-0.2098032 0.16125792 0.14065464 0.3136285 -0.03165218 -0.41988137 0.05253658 -0.4246507
-0.21457238 0.13000584 -0.3751895 -0.057555865 -0.09919636 -0.35392618 -0.22459035 0.046340358
-0.23088576 -0.10275118 0.2564582 0.29894543 -0.060381815 -0.28774086 -0.2806669 -0.33403033
0.2514516 -0.008988234 0.28558785 -0.09857163 0.11967666 0.08009147 -0.29074112 0.08739425
-0.12326487 0.085407406 0.2401285 0.19311619 -0.43555176 -0.046730068 -0.3305939 -0.24478441
0.06476011 0.060825277 -0.121210426 -0.027689677 0.098107964 -0.3263034 -0.4406823 -0.014520284
-0.20070563 -0.036520403 -0.10595612 0.46203044 0.09259606 0.28957915 0.37623867 -0.34232044

gru.bias_ih_l0 f4 [75]
00000000: 95b7 b43e 2351 c53e c89a 993c 0221 1e3e
00000010: 558b 2b3b db7d 953e d07b dc3e 12b8 833e
00000020: 924f ab3e 90e9 a33e b83b da3d 2a22 a33e
00000030: cce8 b5bc df62 523e 8057 ab3e 5506 823d
00000040: 0608 703e 6828 843e 9a62 593e 3c93 823e
00000050: 03d9 de3d 23a8 043e e00a 883d 6e2e 6a3e
00000060: e295 e03d cc8f b4bd 9908 7abe be7e 64bc
00000070: 979c f83d 01d9 7abe edc2 b8be 4d38 a7be
00000080: 3c7d c3be 9d88 50be 35a0 9cbe e6bd 57be
00000090: cbf8 a5be 804d 8dbd 5dbc 25be dc22 a8be
000000a0: 8ea6 f0bc 5c4a d739 c069 8abe a7b5 fbbd
000000b0: 44c6 3a3d 1a29 f3bd 9edf cfbd fbf0 6dbd
000000c0: 26f8 9ebe 8a4a 07be 7d88 a0be a643 323e
000000d0: 3d45 953e 05a0 113d 9977 153e 34ca d9be
000000e0: d505 ed3c e2b9 22be dad9 92be 126d 143d
000000f0: c7cc 2bbe 0d35 4cbe e289 90be 7c34 b3be
00000100: 8eb9 10be 20aa 2f3e 4095 59be 4377 a8be
00000110: 5c94 5e3d 56f2 313e 3590 4abb 64d2 7ebe
00000120: da16 8ebe 9fb1 13be d53e 9b3e
0.35296312 0.38538465 0.018750563 0.15442279 0.0026175578 0.29197583 0.4306321 0.25726372
0.33459145 0.32014132 0.10655922 0.31862003 -0.022205733 0.20545529 0.33465195 0.06348864
0.2344056 0.25812078 0.2122902 0.25502956 0.108812355 0.12954764 0.06642699 0.22869274
0.10966088 -0.088164896 -0.24417342 -0.013946233 0.12139242 -0.24496843 -0.36086217 -0.32660142
-0.38181484 -0.20364614 -0.30590978 -0.21068534 -0.32416376 -0.068995476 -0.16185136 -0.32839096
-0.029376294 0.00041063398 -0.27033806 -0.12290507 0.045599237 -0.11873074 -0.101500735 -0.058091145
-0.31048697 -0.13212028 -0.31354132 0.17408618 0.29154387 0.035552997 0.14596404 -0.4253708
0.028933445 -0.15891221 -0.28681833 0.03623683 -0.16777335 -0.19942112 -0.28230196 -0.3500098
-0.14133283 0.17154741 -0.2124834 -0.3290349 0.054340705 0.173776 -0.0030908708 -0.24884945
-0.2775181 -0.14423226 0.30321375

gru.bias_hh_l0 f4 [75]
00000000: 2792 303e bbc9 a93e 5941 853e c2ec 99bc
00000010: b60c b33d 38bc 813e 9bb5 793d 08cc 773e
00000020: c690 d53d 10f9 313e 5e28 b83e 3d08 3e3e
00000030: 8e9b 823c b9b2 fb3e b376 753e a2d5 fcbc
00000040: cf0f 733e 5e57 6b3c e491 743e 05bc 2a3e
00000050: 956b debc 0f9f b73b 6b26 ea3c 1de9 523e
00000060: 8497 9c3d fa36 0abe cc82 89be 697f 8dbe
00000070: eec4 36be dd3a a4be fa6d bdbe 7b1b 4d3c
00000080: 8e08 b3be 7b0c 85be 6681 21be f603 00bf
00000090: e2a8 3d3c c376 9bbe c1a4 07be 8334 a6be
000000a0: 07ae 6fbe b51c 94be 2c4d dcbe b15d 84be
000000b0: 9b09 d9bd 7346 923c 8b02 8cbe a431 123d
000000c0: 50e7 cebe c8ec ab3d 2ac7 f6bd 4eaa 303e
000000d0: 7f83 693e 2e2c 983e 55bd 433e 1ea8 afbe
000000e0: c94c a8bd 40b2 a9be 15d5 80be 9436 3abe
000000f0: 4c2e 593e c041 6bbe ef2c 0c3e 3280 95be
00000100: 3133 4dbe 0c7a 283e 7c64 88be 193c 35bc
00000110: 6b90 78bd 15d3 863e d16c 6ebe bd7e b1be
00000120: 6f2f 8cbe c9aa a5bd 2f26 213e
0.17243253 0.3316172 0.2602642 -0.018789653 0.08742659 0.25338912 0.060964208 0.24198925
0.10428004 0.17380166 0.35968298 0.1855783 0.015943315 0.49159792 0.23971061 -0.030863587
0.23736499 0.014364092 0.23883778 0.16673286 -0.027150908 0.005603678 0.028582772 0.20596738
0.07646087 -0.13497534 -0.26857603 -0.2763627 -0.1784856 -0.3207616 -0.36997968 0.012518759
-0.34967464 -0.25986084 -0.15772018 -0.50006044 0.011575909 -0.30364046 -0.13246442 -0.32461938
-0.2340623 -0.28928152 -0.43027627 -0.2585273 -0.10597535 0.017855858 -0.2734569 0.035691872
-0.40410852 0.08394772 -0.12049706 0.17252466 0.22804068 0.29721206 0.19115193 -0.3430795
-0.082177706 -0.33143806 -0.2516257 -0.18184882 0.21209067 -0.229743 0.13689016 -0.29199368
-0.20039059 0.16452807 -0.26639163 -0.011061692 -0.060684603 0.26332918 -0.23283698 -0.34667006
-0.2737994 -0.08089215 0.15737222

gru.weight_ih_l0_reverse f4 [75, 10]
00000000: acb3 3b3d b63d e73d 90c8 f03d cd15 993d
00000010: 495c 0dbd e75d 57bd 394a 083e 718a e7bd
00000020: 0a99 16be 204c 60bd d39f 82bd 4959 d3bc
00000030: cf56 ed3d b845 abbc 79b9 22bd dcfd 8dbd
00000040: fc04 0a3e b0b6 983d 52f1 36be eaa3 5b3e
00000050: 6116 12be 7c76 0dbe 26ae 27bc f87c 8cbc
00000060: ed7d 7f3e 2acc 70bd f9d3 1bbe bacd a63e
00000070: 84dc 6f3d f314 8e3c d292 3e3e 93be 043e
00000080: e1e9 4c3e f3ba bc3d 371d c9bd e3c6 97bd
00000090: 5a09 b93d c136 48bc 1927 2bbc 9b38 65bd
000000a0: f450 803e cca0 013d dd11 9f3e 5140 af3d
000000b0: 9e0c 19be 65bc bdbd 4574 d6bc 4303 4bbe
000000c0: 6930 95bd 3882 8d3e 52fb 323e e470 d2bd
000000d0: aa6c 203d ef17 043e 9043 6e3d d8e5 64be
000000e0: 3f3d 31bd 06dc b53c 6885 1fb9 6035 603e
000000f0: ea33 253e ffc9 20bd 0dd5 b93d 7fb7 ccbd
00000100: db6c b5bd 6e05 ea3d bfc2 623d ee05 96bd
00000110: 926f 2cbe 25f8 fa3d 91cc 373e b659 4ebd
00000120: d4ee a63e 66e4 86bd 71b8 0bbe d2d1 25be
00000130: 078f b2bd c854 d73d 6d11 86bd 8f94 183d
00000140: 2a38 fd3d 24cf 073e 103a 8cbc c5a7 393e
00000150: 89c5 283e f760 443c dc59 18be 37b8 293d
00000160: 28a3 3d3d 5f57 dbbd c1b9 4a3d a802 423d
00000170: 7542 b13e 40f1 683e 2a7f 6ebd 3b01 93bd
00000180: ca77 653d e707 8dbd 33ee 02be 4661 493e
00000190: 19e7 ec3d ac15 cf3d 3544 89bd 45fc 48bb
000001a0: eaa7 3ebe b19c 3c3d db4d 1ebd 7139 96bd
000001b0: 68c5 73be 6d60 343d 2bd1 1bbc 447e 983e
000001c0: fbe1 f13d 7bba 4a3d ea97 bcbd aee4 0fbd
000001d0: b2ae 5bbc 484c a53b 7d50 563d d1bb cc3d
000001e0: 8be1 c83d 23e7 ee3d 8a53 403d 634a 803d
000001f0: e600 353e d802 e5bd 37f2 dabd 8a74 d13d
00000200: 7c59 833c 8517 03be a1dc 893d f511 f93d
00000210: 9a0d 883e eac9 12be f733 fc3d 485d f3bd
00000220: 9d1b ca3d cee2 80bc 5bb0 2bbe 4698 aa3d
00000230: e75a 54be c698 b43d 7b17 87be f0c9 8dbe
00000240: e5e4 013d 5904 30bd a7aa 68be 0fd0 883e
00000250: 7e54 243e 0e98 b23d 4bef e93d ac39 713e
00000260: 3ffd 853e 6273 ce3b 520d 01be 1ca6 63bd
00000270: b52b b5bd 1d3f cc3d 9f04 a7bc 8eab a2bd
00000280: 6562 273e fc82 c53d a5ae 0cbd 8703 c63c
00000290: e125 a03e d275 50bd 0617 5e3d e7f0 e8bd
000002a0: 32dd c4bd 33fc ad3c 04d7 713e f74a f2bd
000002b0: 47b4 7f3e fd5b 273b a48d 9bbd 07c7 033e
000002c0: ab34 553e 0ae4 a33d aa1e 023e de8a ff3d
000002d0: 21c9 f2bd 0f47 a63d 4dcd e8bd 7036 a4bd
000002e0: 0af6 66be 12a7 da3d 1eee 803e ee64 9e3c
000002f0: 7965 18be 5be1 ff3c bc84 183e e70d de3d
00000300: 1001 163e 830c d0bd b686 0c3d f1f0 683d
00000310: 68fe a3be 4939 623e 863d ab3d 5233 90be
00000320: 52a0 46be e577 3c3d f7de 27bd 0ff7 0fbe
00000330: 583c 8f3d a5cc 2b3e 538a 843d 24d0 02be
00000340: e1c6 813e 4070 513e 1694 e93d 6577 a8bd
00000350: e09d 97bc 69e3 463e 01e0 1c3e cbf2 10be
00000360: 064a a5bd cc67 6c3b 539c 7fbd d8e8 65be
00000370: a12a 16be 5423 933d d076 14be 93b3 50bd
00000380: 8177 623e b65f f23d a52c a1be fd12 0f3e
00000390: 807e 103e e9d3 2bbd 969d a93e 303a 4d3b
000003a0: 02d5 4d3e 5937 8b3e 6a79 0c3d 495d e63d
000003b0: 23eb 9bbd b61a 2a3e 270f 1abd 7c01 8c3d
000003c0: 7668 74bd f794 5fbe 8f54 1fbe 93cf 15be
000003d0: 82fb 2a3e 90e6 d3bd 14f0 abbd fcc1 a43e
000003e0: 253a fd3d 6afb 803d 3fc9 8abe 9910 9bbe
000003f0: 22df 8dbe c80a 913c 3057 fcbd 9003 aa3c
0.045825645 0.11291067 0.11757004 0.07474861 -0.034511838 -0.052579787 0.13309564 -0.113057025
-0.14706817 -0.0547601 -0.0637814 -0.02579941 0.11588823 -0.020907268 -0.03972766 -0.069331855
0.13478464 0.0745672 -0.17865494 0.21449247 -0.1426635 -0.1381473 -0.010234391 -0.017149433
0.2495038 -0.058788456 -0.1521758 0.32578832 0.05855991 0.017343974 0.18610695 0.12963323
0.20011093 0.09215345 -0.098200254 -0.074109815 0.09034987 -0.012220086 -0.010446333 -0.055962186
0.25061762 0.03164749 0.31068316 0.08557189 -0.1494622 -0.09264449 -0.026178489 -0.19825463
-0.07284624 0.27638412 0.17478684 -0.102754384 0.03916613 0.12899755 0.0581699 -0.22353303
-0.0432713 0.022199642 -0.0001521312 0.21895361 0.16133085 -0.03925514 0.09073839 -0.099959366
-0.08858653 0.11426817 0.055361506 -0.0732535 -0.16839436 0.12254361 0.1794913 -0.050378524
0.32604086 -0.06586532 -0.13644578 -0.16193321 -0.087186866 0.105142176 -0.065462925 0.03725105
0.12364228 0.13262612 -0.01711753 0.18130405 0.16481604 0.011986009 -0.14878029 0.041435447
0.046298176 -0.10710024 0.049493555 0.047365814 0.34621015 0.2274828 -0.05822674 -0.07177969
0.056022443 -0.06886273 -0.12786178 0.19666013 0.11567516 0.101115555 -0.067024626 -0.0030667942
-0.18618742 0.04604787 -0.038648468 -0.07335175 -0.23805773 0.04403727 -0.009510319 0.29783833
0.118106805 0.049494248 -0.09208663 -0.035130195 -0.01340835 0.005044494 0.052322853 0.09996761
0.09808644 0.116651796 0.04695467 0.06264188 0.17676124 -0.11182183 -0.1069073 0.10227306
0.01603388 -0.1280194 0.06731535 0.12161628 0.26572877 -0.14334837 0.12314599 -0.11883026
0.09868548 -0.015733149 -0.16766493 0.08329825 -0.20737801 0.08818202 -0.26385102 -0.2769313
0.03171243 -0.042972896 -0.22721349 0.26721236 0.16047856 0.087204084 0.11422595 0.23557156
0.26169774 0.006300376 -0.12602738 -0.055578336 -0.08846227 0.099729754 -0.020387946 -0.07942878
0.16346128 0.09644124 -0.03434624 0.024171604 0.312789 -0.050893612 0.054221176 -0.113740735
-0.09612502 0.021238422 0.23617178 -0.11830705 0.24971114 0.0025537007 -0.07595375 0.12868892
0.20820872 0.080024794 0.1270701 0.12477659 -0.118547685 0.08119022 -0.11367283 -0.08018196
-0.22554794 0.106763974 0.2518167 0.019335236 -0.14882459 0.031235388 0.14894384 0.108424954
0.14648843 -0.101586364 0.034308158 0.056870405 -0.32030034 0.22092165 0.08361344 -0.28164154
-0.19397095 0.046012778 -0.04098412 -0.14059089 0.069939315 0.16777284 0.06471696 -0.12774712
0.25347045 0.20452976 0.11405198 -0.08225898 -0.018507898 0.19422688 0.15319826 -0.14155118
-0.080707595 0.003607261 -0.06240494 -0.22452104 -0.14664699 0.07184473 -0.14498448 -0.050952505
0.221159 0.11834662 -0.31479374 0.13972087 0.14110756 -0.04195014 0.3312804 0.00313152
0.20100787 0.27190664 0.034295477 0.112482615 -0.07613208 0.16611752 -0.037612107 0.068362206
-0.059669934 -0.2183417 -0.155596 -0.14629965 0.16697505 -0.10346711 -0.08395401 0.32179248
0.12364606 0.062979534 -0.27106664 -0.302861 -0.277093 0.017705336 -0.12321317 0.020753652

gru.weight_hh_l0_reverse f4 [75, 25]
00000000: 85de 89bc d6fe 0d3e 9e3d 1fbe d8f1 223c
00000010: 3c60 863b 295a 003c ef51 083c cbbd 39bc
00000020: 4454 573e 5e83 463e 79aa 903e 42b6 773c
00000030: 9b4e 6c3d f13c 993d 8060 733e 8a72 ca3d
00000040: c6da d7bd e75a 80be 25f7 ce3c 8835 b8bd
00000050: cac3 89be 293a 91bc 931a 9fbd 5080 723d
00000060: a9e3 66be b641 433c 4cbb 0c3e 791d 78be
00000070: f9ae 65be 9e4f 6fbe 29ec 803e 5878 153d
00000080: 148b bebd 2964 f2bc 5b67 ac3d 9c8d 973d
00000090: 82fe df3d 9fc1 c8bd c4a5 453e cf80 f13c
000000a0: ff79 4f3d ca1a 853c 2a9a 11be 8091 4cbd
000000b0: 5055 91be 20d1 22be 1b90 e2bb 18b1 1f3e
000000c0: 6d01 08be b372 7bbe 29c2 7cbd de1b 08bd
000000d0: 73d2 0dbe 8e0c 87bd 7814 a5be 25ba 3c3e
000000e0: fe56 103e c8bb 2bbe 8bd2 753e 7ede 78b9
000000f0: 7cc5 613e 4b26 4f3e 5481 00be dc53 7e3d
00000100: 9edf 653e 479f 903e 2631 85be 5ec8 983d
00000110: 53e4 54bd e6e6 74bd ec3d 11be 48c2 ef3d
00000120: afbb 4ebd 0fb1 a63e 9636 9e3d 82c1 b83d
00000130: 56a8 8a3e 4735 f0bb cb76 38be e9ab a33d
00000140: 8898 20bd aa1f 333e e630 93be 9454 e53c
00000150: 28a2 e73c c537 0cbe 5536 833e 0c77 80be
00000160: dcb0 5b3e ba44 66bd d796 283e 2f06 ffbc
00000170: e142 8bbe 1d95 5ebe 8353 f7bc debd 26be
00000180: b18a 093e 839e 293d eef4 a43d ba81 92be
00000190: 36db 983e 122e dc3d 2b43 5abe 88d2 663c
000001a0: b66e 14bc f5ea 7d3e 027d 4c3e 118b c4bc
000001b0: 07dc b13e 6ae2 6f3e 11f0 a63e f944 943e
000001c0: 507d 3d3c 76f3 8c3e d997 0b3e cfce 363e
000001d0: 969f 4ebd db41 4c3d 3f23 74be 8ca5 a7be
000001e0: 8c72 1bbd 006e 4d3e ec08 5a3e 5fd5 8b3e
000001f0: 4f3a 423c 6cd5 183e 4bdf 153e a992 a5be
00000200: 0b78 b9be e549 9abe 27f7 ea3d 2c5a 863e
00000210: a169 89be acd9 593e 0e4f f5b8 9b86 6d3d
00000220: d6e3 a03e 46dd 89bd 5c44 543e 3bf5 a03e
00000230: 2446 183e 5cab e4bd 68a8 82bd 5a49 0cbe
00000240: 39e2 66be e192 a9be fb6e b63d 7823 943e
00000250: c243 833d 6a8c 96be 94fb 9c3c 7fdb 79bd
00000260: ab93 61be b05a b63d 848c 823d 85c3 1ebe
00000270: d59b 353e aae9 58be e410 bc3d 6dff 683d
00000280: 95a1 103d abe0 93bc 6993 dabd 2108 dd3d
00000290: b7bd 4d3e 0dba f03d 7343 b7bc 0cee cebc
000002a0: ea05 b0bd 6b79 013d 96f7 c1bd badf 8d3d
000002b0: 8e20 7b3d c80a 213e aeff ddbd b079 363e
000002c0: 46a4 93be 4f9d ea3b 7d97 963c bc46 9b3c
000002d0: 10cf f9bd 4af9 43bd 9d20 b93c 3268 4e3e
000002e0: 148f a2bc 43d5 0dbe 15da 5b3e bcc5 e63d
000002f0: 1638 02bb 6cda d8bc b9c6 8dbd e520 213b
00000300: 12ec cabd 2b10 c23c 001f 0d3e 8d2a 92bd
00000310: aca3 8c3d 2460 703e 66fa a63c 00ed 843d
00000320: 9f38 aa3d 625e 393d e599 6dbe 00e2 b6be
00000330: 6c3f bebe 79e3 913e eaba a33e bf43 033c
00000340: d4f2 463d 5952 303e 90ad e53d b740 c63d
00000350: 592f 0cbd 5a4e 783e 2f54 943d c4bd 0bbd
00000360: e63e 98be ff9b 38be 7bf9 92bd f019 d23a
00000370: 32f7 00be 02f8 123e b4b1 ae3e 4e9b 373e
00000380: d11e 70be 9f56 57bd 9765 8e3e 04ab 6abe
00000390: 09fc 38be a3da 06be dc36 133e fa02 223d
000003a0: bbb1 74be 9de0 793e 2162 513e fe47 6c3d
000003b0: 2fdf 0e3d 8ce0 cbbd 0d01 5d3e efc5 0b3d
000003c0: 7858 423d b9f1 2ebe 07bf 633d 61f5 2ebe
000003d0: 71d8 59be 19c7 76be 9da2 ee3d 2a8c 493e
000003e0: 01bc d93d 01a7 67bd 099d 003e c5fb 8cbd
000003f0: 6d9c 87be 327f e3be fdbc babc cca3 c93e
-0.016829738 0.13866743 -0.15550849 0.009945355 0.0041008275 0.007833996 0.008320316 -0.011336754
0.21028239 0.1938605 0.2825506 0.015119137 0.05769215 0.07482327 0.2376728 0.09885128
-0.105397746 -0.25069353 0.025264332 -0.08994585 -0.26907188 -0.017727928 -0.077687405 0.0592044
-0.22547783 0.011917522 0.13743323 -0.24229993 -0.22430028 -0.23370215 0.25180176 0.036491722
-0.09303871 -0.029588776 0.08418151 0.07400057 0.109372154 -0.09802555 0.19301516 0.029480366
0.050653454 0.016248126 -0.14218965 -0.049943447 -0.283854 -0.15900087 -0.0069141514 0.155949
-0.13281794 -0.24555473 -0.061708603 -0.0332297 -0.13849811 -0.065941915 -0.3224218 0.18430384
0.14095685 -0.16770852 0.24006097 -0.00023734008 0.2204799 0.20229451 -0.12549335 0.062091693
0.22448584 0.2824652 -0.2601406 0.07460092 -0.05197556 -0.059790514 -0.14183778 0.11706978
-0.050471958 0.3255696 0.07725255 0.09021284 0.27081555 -0.00733057 -0.18014066 0.07991774
-0.039207965 0.17492548 -0.28748244 0.027994432 0.028275564 -0.1369315 0.2562739 -0.25090826
0.21454185 -0.056217887 0.16463791 -0.031130878 -0.27199462 -0.2173657 -0.030191189 -0.16283366
0.13431813 0.041410934 0.08054529 -0.286146 0.29854745 0.10750975 -0.21314685 0.0140882805
-0.009059599 0.2479666 0.19969562 -0.023992093 0.3473818 0.23426214 0.3260503 0.28958872
0.011565521 0.27529496 0.13632144 0.17852329 -0.05044516 0.049867492 -0.2384157 -0.3274349
-0.037951037 0.20061493 0.21292466 0.27311227 0.011854722 0.14925164 0.14635961 -0.32338455
-0.36224398 -0.30134502 0.11472922 0.2624067 -0.268384 0.21274441 -0.000116972355 0.057989698
0.31423825 -0.06731658 0.20729202 0.31437096 0.14870507 -0.11165497 -0.06379777 -0.13699856
-0.22547235 -0.33119872 0.089078866 0.2893331 0.06409408 -0.29404002 0.01916293 -0.061000343
-0.22028987 0.08904016 0.063744575 -0.15504272 0.17735226 -0.21182886 0.09182909 0.056884218
0.035310347 -0.018051466 -0.106726475 0.10792566 0.20091902 0.11754236 -0.02237103 -0.025259994
-0.08594878 0.031609934 -0.094710514 0.06927438 0.061310343 0.15726769 -0.10839783 0.17819858
-0.28836268 0.007159866 0.018382782 0.018954627 -0.12197697 -0.047845162 0.022598559 0.20156935
-0.019843616 -0.13850884 0.2146991 0.112681836 -0.0019869856 -0.02647134 -0.06922669 0.0024586257
-0.09908308 0.02368935 0.13781357 -0.07137022 0.068671554 0.23474175 0.020383071 0.06490517
0.08311581 0.045256026 -0.23203237 -0.357193 -0.37157762 0.2849386 0.31978542 0.008011757
0.048571423 0.17218913 0.11214745 0.09680312 -0.03422484 0.24248639 0.07242619 -0.03411652
-0.29735488 -0.18028258 -0.07176491 0.0016029458 -0.12594298 0.1435242 0.34119952 0.17930338
-0.23449256 -0.052572843 0.27811882 -0.229168 -0.18064894 -0.13169341 0.14376396 0.03955362
-0.23895924 0.2440209 0.2044759 0.057685845 0.034880813 -0.09954938 0.21582432 0.03412431
0.04744765 -0.17084397 0.0556021 -0.17085792 -0.21273972 -0.24099387 0.1165211 0.19682375
0.10631562 -0.05655575 0.12559904 -0.06883959 -0.2648653 -0.4443298 -0.022795195 0.3938278

gru.bias_ih_l0_reverse f4 [75]
00000000: 8e13 683e ec71 763d 6cae 4bbd 1ccc 1dba
00000010: 1130 623e f270 5b3e 9b98 143e bef0 aebd
00000020: 73e8 643e 23e3 133d 4ac8 c8bd 910b 793c
00000030: 1338 063e 9e06 ddbd f145 f43c 1a86 9a3c
00000040: 8f0c 1cbd 3694 5cbd 5008 c4bb 97e5 5b3e
00000050: eff3 54be 7979 013c 0b68 783e 121c 5d3d
00000060: 01a9 753e 59ba 2bbc a744 6ebe 1d2d 49be
00000070: 9499 8cbe 75cb 60be e4ef 0a3d 2a7a 2dbe
00000080: 4687 07bd 24ec 67be 1db6 93be 07c8 513d
00000090: f37b bc3d 8107 483d d1ca 823d 7d72 96bd
000000a0: 2114 32be 30b3 48be 818e a4be 7d9b d93c
000000b0: 18b7 3ebe af26 ee3c ca50 3fbd 3f27 2fbe
000000c0: ce18 9bbd 59bf 13be 38e2 073c 5137 973d
000000d0: 6fde d93d 0049 09be 2bda 5ebd b443 ec3d
000000e0: 9c61 e13d 9219 71be b607 1b3e fc7e 1d3e
000000f0: d90e 07bd 7d00 313e 8101 c8bd 094f 3e3e
00000100: 1d9c c53d 689c f63d a6d4 003e 9cb1 fa3c
00000110: 2a72 e1bc f2ce 0b3d 46db 05be 8c3a 083e
00000120: 7057 9b3d 6132 163e 1b61 33bd
0.2266371 0.060167238 -0.04972689 -0.00060194894 0.22088648 0.21429804 0.1451134 -0.08542012
0.22354297 0.036105286 -0.09803827 0.015200512 0.13107328 -0.10792278 0.029818507 0.018862773
-0.038097914 -0.053852282 -0.0059824362 0.214743 -0.20796178 0.0079024965 0.24258439 0.053981848
0.23990251 -0.01048144 -0.23268376 -0.19646116 -0.2746092 -0.21952613 0.033920184 -0.16941133
-0.03308799 -0.22648674 -0.2884988 0.05121615 0.09203329 0.04883528 0.063863404 -0.07346056
-0.17390491 -0.19599605 -0.32139972 0.0265634 -0.18624532 0.02907118 -0.046707906 -0.17104815
-0.075730905 -0.14428462 0.008293681 0.07383598 0.10638129 -0.13406754 -0.05440728 0.11536351
0.11004946 -0.2354491 0.1513966 0.15380472 -0.032973144 0.17285343 -0.09765912 0.18584837
0.09648917 0.12041551 0.12581119 0.030602269 -0.027520258 0.034132905 -0.13071927 0.13303584
0.07585037 0.14667656 -0.04379378

gru.bias_hh_l0_reverse f4 [75]
00000000: 2d7a 913e e8cc 4b3e d1b7 643e c0a3 8a3e
00000010: ee07 40bd 450a fa3d 5d52 0b3e 2ed9 3d3e
00000020: 30db 6b3d 5c60 d53d 6e20 373e 512b 9c3c
00000030: efd4 633e c240 2fbd d127 563e 754b 8d3d
00000040: 7055 753e a267 173e 4134 a53d fd1e 373e
00000050: 0b4e 253d b008 733e 112b bdbd 162c 3c3e
00000060: b4b8 49bc 30e1 9fbe cd9b 31be fe4e a4be
00000070: 9586 93be e345 813c d038 d13d 9a8f e8bb
00000080: ff79 b9bd 7b2d 72bd e69d 5cbe 23aa 1c3a
00000090: 153b 05bd d69a 8ebe b1be 5bbe a14b c9bd
000000a0: 4df9 99be 0efb aa3d 0563 913d ba02 36be
000000b0: 9106 52be 3b3d 18bd 68a9 c8bd 9a4a d9bd
000000c0: 84e3 32be dbd8 b33d c858 20be 9c67 2dbe
000000d0: 3782 13be 26ab f33c 702f e2bc 4f99 373e
000000e0: 1a50 a9bd 5ebd 783b 8b54 963d de5e 203e
000000f0: 1430 fe3d b705 84bd 9316 1e3d 78df 1b3e
00000100: a1a9 153d f1fc 6a3e ae1f d9bc b6bd 0cbe
00000110: 675f b8bd d424 1ebe dcf0 4f3d 8b4d b63d
00000120: c85b 123e 66bc 343e 9191 1ebe
0.28413525 0.19902384 0.22335745 0.27078056 -0.046882562 0.1220899 0.13605638 0.18539879
0.05758208 0.1041877 0.17883465 0.019063624 0.22249196 -0.042786367 0.20913626 0.06899158
0.23958373 0.14785627 0.08066607 0.17882915 0.04035763 0.23733783 -0.0923673 0.18376192
-0.012312103 -0.31226492 -0.1734459 -0.32091516 -0.28813615 0.015780395 0.10215914 -0.0070971968
-0.09056472 -0.059125405 -0.21544608 0.000597628 -0.03252705 -0.27852505 -0.21459462 -0.09828878
-0.30073014 0.08348666 0.070989646 -0.17774478 -0.20510317 -0.03716777 -0.09797937 -0.10609932
-0.17469603 0.08781596 -0.15658867 -0.16934055 -0.14405142 0.029744696 -0.02761051 0.17929576
-0.08267231 0.0037954669 0.07340344 0.15661189 0.12411514 -0.064464025 0.038595747 0.15221965
0.036538724 0.22948052 -0.026504364 -0.13744244 -0.090025716 -0.15443736 0.05076681 0.08901509
0.14292824 0.17649993 -0.15485217

gru.weight_ih_l1 f4 [75, 50]
00000000: 702b 81bd a05b 51be 2824 69bd 6a25 893d
00000010: 4e78 20be 6a5b dbbc 0fa1 d03e 0a33 4bbc
00000020: 04fd aabe 024b 21bf f6c7 be3d e631 3e3e
00000030: dac0 b33e acbb abbc bae8 523e a58c 0abe
00000040: 5ebc cc3a 8fe4 9f3e 3dd5 03bf 0529 a43e
00000050: e63d be3e 5baa 2e3e 9e2e 99bc cf10 973e
00000060: 78c5 803d 5538 543e 2188 70bc 8dd0 51be
00000070: c81b 7b3d 1bda adbd 5f65 b63d 6f80 c0bd
00000080: 96b7 dfbd ee66 e83d 51ce 123e cb6f a1bc
00000090: 62c9 91bc e5e6 ecbd 2380 8ebc a467 863e
000000a0: d0fd b7bb 0970 d3bb 953e 9e3c 9774 a4be
000000b0: fb55 8fbe 99c0 0c3e 799f f4bd 9ed9 263e
000000c0: 73b6 0ebd 1bf5 adbe 01e7 bdbc 3912 dc3d
000000d0: cce2 efbd f781 b83d d633 b93d 4564 67be
000000e0: 743a ddbb 6241 bbbc 68e0 6abe a0cf 04be
000000f0: f9c1 51be f7b9 94bd d26e 5139 258c 9cbb
00000100: 4cfa 8cbe 609f 98bd 20c7 f7bb fa0d 9f3c
00000110: c49d 1abd 4bbe b73c c363 133e 16f3 10bb
00000120: cacb 70bd 110a 73be 02cf a43c 85cd e63d
00000130: 93d2 87bd ae1f 0e3d f9d5 9cbd 1ad1 02bd
00000140: 74cf 9ebd 004e cfba 753c 483d 7ad2 213e
00000150: b9df 3e3e ece9 903e 1ba4 ccbc 95ea fc3a
00000160: cb97 d33d a212 e73c 2138 01bc b0ce 24be
00000170: c957 613d 4a45 2dbe 4118 acbd c584 21be
00000180: 3af0 273e f747 eb3d ffef 4eba a051 fb3b
00000190: a19e 21bd 8aff 96be 6deb 16bc 006b 293e
000001a0: 0e9a 25bd 2a01 a83d 7a8c eb3e 2f7b 24be
000001b0: 826f c0be f189 f4be c244 8b3e fefd eb3d
000001c0: 603f ab3e de1d 92bd b656 843d d7e2 a9bd
000001d0: 9e58 12be aa81 683d 51ec 3fbe 86c6 613e
000001e0: 1f41 1b3e 48cd b03d 25c7 243e af3d bc3e
000001f0: 2f89 e93d 4e0b 5dbd 44c8 8f3e 9b73 56be
00000200: cb66 a5bd 6b53 0b3d a9a1 94bb eb9d 1e3e
00000210: 9b24 913b 9bc2 99bd 8c32 b7bd 5fa0 7b3e
00000220: 788f 803d 8148 c73d eab2 edbc c93b 2c3e
00000230: 3856 183d fb13 da3c 9bb5 bb3c a2f7 9bbe
00000240: f74a 84bd 94f3 e93c 6846 2fbe b437 333c
00000250: c649 57bd 39f7 28be 6036 98be d819 8d3d
00000260: a2c9 903d 2173 893e de71 2e3e c814 f9bd
00000270: 5e52 993c 465c 2abe ec22 3bbe ba66 38bc
00000280: e75b 81bd b02f e93c 4c68 a7bc 545b 9cbd
00000290: d63f 0c3e 4093 13be aa56 613d 09a1 fb3d
000002a0: fc18 acbe 73d5 223e 49ad 0b3d f643 48be
000002b0: e3ac 1bbd c5b0 5d3e 03c5 4b3e 6a1a 473e
000002c0: b0c5 f4bd c160 97be b1e3 26bc fd02 56be
000002d0: 49c6 4a3e 7656 0d3e adcd 25be e9ea 0f3e
000002e0: 9c6b 0f3e 3454 1fbc ce10 713e 258a 1bbd
000002f0: e041 b93d c434 d03d aa75 693d 14ff 0b3d
00000300: 197e 9fbe fed8 213e 872f b1bd 720f 87bd
00000310: df9a 793e 3ae3 5e3e 016b cc3e e7d2 62be
00000320: 84be 1cbe ef91 303e 924e 5a3c 3c77 2c3e
00000330: 7a81 6e3e 871f df3d fdea 85bd 05ab 9f3d
00000340: 4833 52b8 b489 063e ea26 5fbd 1140 a73d
00000350: 101d 5e3e 3e32 19be c9bc 09be e380 123d
00000360: 3d32 89bd 4531 31be 06f5 563c f20d c3bd
00000370: 8c3e 44bc 4c59 48be d7c4 963d 5407 1b3e
00000380: 5cfb ed3d 8853 8a3e d40c 4c3c a28b 85bd
00000390: 2198 bbbe c095 9dbe 8f35 a43e bdef 8b3d
000003a0: 3829 10be 9fbe 153e 385e 203c 158c 5a3e
000003b0: ebe9 333e 1d33 0abe 6a62 a93e 5175 0f3e
000003c0: 125b c03d a34d 8bbc 0335 dabd 6b4d b53c
000003d0: 10d0 b0be 5981 58bd 60b7 0b3e 3c55 c13d
000003e0: 47b0 163e 33e2 9abe 7176 81bd bf99 97bd
000003f0: 3342 e33d ad6d 79bd 00a2 0c3e eec1 7dbe
-0.06307113 -0.20445108 -0.056919247 0.06696589 -0.15670893 -0.026776988 0.40747878 -0.012402305
-0.3339616 -0.6300508 0.09315483 0.18573722 0.35108072 -0.020963512 0.2059659 -0.13530214
0.0015620103 0.31229064 -0.5149725 0.32062545 0.371566 0.17057173 -0.018698987 0.2950501
0.06287664 0.20724614 -0.014680893 -0.20489712 0.06130579 -0.08488866 0.08906054 -0.09399497
-0.10923688 0.11347757 0.14336516 -0.019706627 -0.017796222 -0.11567477 -0.017395085 0.26250947
-0.0056149736 -0.0064525646 0.01931695 -0.321202 -0.27995285 0.13745345 -0.119444795 0.16293952
-0.034841966 -0.33976063 -0.02318144 0.10745663 -0.1171318 0.09009164 0.0904309 -0.22596844
-0.006751353 -0.022858325 -0.22937167 -0.12969828 -0.20484151 -0.072620325 0.00019973077 -0.0047774487
-0.2753471 -0.07452273 -0.0075615793 0.019415844 -0.037748113 0.022429606 0.14393525 -0.0022117547
-0.0587881 -0.23734309 0.02011824 0.112696685 -0.06631961 0.03469818 -0.076579995 -0.031937696
-0.07754412 -0.0015816092 0.04888578 0.15802947 0.18640031 0.28303468 -0.024980595 0.0019295985
0.103316866 0.028207127 -0.007886917 -0.1609447 0.05501536 -0.16920963 -0.084030636 -0.15773304
0.16400233 0.114883356 -0.00078940386 0.0076696426 -0.03945792 -0.29491836 -0.009211403 0.16544724
-0.04043012 0.08203347 0.46005613 -0.16062616 -0.37585074 -0.4776149 0.27200896 0.115230545
0.3344679 -0.07134603 0.06461851 -0.082952194 -0.14291617 0.056764282 -0.18742491 0.22048387
0.1516156 0.08632904 0.16091593 0.3676581 0.11403119 -0.05396586 0.28082478 -0.20942537
-0.08076247 0.0340151 -0.004535873 0.15489928 0.0044294125 -0.07507821 -0.08945188 0.24572895
0.062773645 0.09730626 -0.029015977 0.16819681 0.0371916 0.026620856 0.022913745 -0.30462366
-0.06459611 0.02855853 -0.17116702 0.010938574 -0.05256059 -0.16500558 -0.29728985 0.06889695
0.070697084 0.2684565 0.17035624 -0.12162167 0.018716034 -0.16636762 -0.1827504 -0.011254961
-0.06316357 0.028465122 -0.020435475 -0.07634607 0.13696226 -0.1441164 0.05501429 0.122865744
-0.33612812 0.15901737 0.034100804 -0.19557175 -0.038006674 0.21649463 0.19899373 0.1944367
-0.119517684 -0.29566005 -0.010186122 -0.20899577 0.19802202 0.13802513 -0.1619174 0.14054455
0.14005893 -0.009724665 0.23541567 -0.03797354 0.09045768 0.10166314 0.05699698 0.03417881
-0.31150892 0.15805432 -0.08651643 -0.06594743 0.24375485 0.21766368 0.39925388 -0.22150765
-0.15307051 0.17243169 0.013324397 0.1684236 0.23291579 0.10894685 -0.06538961 0.07796291
-5.011566e-05 0.13138467 -0.05448047 0.081665166 0.21690774 -0.14960572 -0.13450922 0.035767447
-0.06699035 -0.17303951 0.013119942 -0.09524144 -0.011977803 -0.19565314 0.07361763 0.15139514
0.116202086 0.27016854 0.01245423 -0.065207735 -0.36639503 -0.30778313 0.32072112 0.06832836
-0.14078224 0.14623497 0.0097880885 0.213425 0.17569701 -0.1349606 0.33082896 0.14009596
0.0939237 -0.017004794 -0.106546424 0.022131642 -0.3453374 -0.05285773 0.13644171 0.09440085
0.14715682 -0.302507 -0.06321419 -0.074023716 0.11096611 -0.06089561 0.13733673 -0.2478101

gru.weight_hh_l1 f4 [75, 25]
00000000: 7e26 083e 444e 27be 20ee 7f3d 941d 0c3e
00000010: dcda 033d bac9 58be a0da 303d 48e4 8f3d
00000020: 74f3 803d ee4a b63d 0bf1 483e f7c2 8b3e
00000030: d55a bd3d 91d3 31be 398a 173e ea61 6a3e
00000040: 7d75 94bc 04b2 8e3e ef2c d63d 07b9 243e
00000050: 2d4a b4bb 411c 213e 12f4 9abd 405b 10bd
00000060: f199 c73d efc2 87bd 4320 26be 84e4 43be
00000070: d840 123b dbda cc3c 369c 27be 73b3 6ebe
00000080: d6ba 38bd 273a 7e3d 9970 db3d 4311 7abd
00000090: 5ce6 89bb 24ae e53a c73c c13d 8c4c 6fbd
000000a0: e23d 55be 83a4 253e a343 333e b579 4ebe
000000b0: da82 c5bd d43f 2dbe 4de7 4ebe 82c8 933e
000000c0: 77fe 4e3d 6033 2ebd 3941 a83d 7478 f3bc
000000d0: 72de a03e cc69 283e b403 a43d b89b a1be
000000e0: 21c9 453e 861e 613e cf0a 4f3e 8eed 063e
000000f0: b60c c93d 77b6 d33d df39 abbd 8b82 383d
00000100: 70d9 52bd b1e6 6f3e c613 40bd 43e6 2b3d
00000110: 6fd0 583e ee28 083d 2db7 0b3e 1be3 1c3e
00000120: 7dff 8ebe c517 acbd 0d5f 7dbe ea0b e43d
00000130: 53dc 69be 9d41 73bd a9ac 603d 7b8b f4bd
00000140: 50f0 f43d 626c 79bc 83d4 043e 62ba 2b3e
00000150: e41a 50be ff16 9f3d cbd9 843e fc4d 94bd
00000160: fd58 b4be 27cc 7b3e 4214 203c 9f47 873d
00000170: ca74 bcbc b4cc c23a e359 96be 7b71 f63d
00000180: 783b dbbb 1af4 bebd 9adb cabd 40d8 f1bd
00000190: 0cb0 fc3d 12ce 73bc 17c6 b23c 2c4a 1ebe
000001a0: 24f8 29be 50ce 53be 8e5b 8cbc 4d4f 6e3e
000001b0: 0396 8abd 0cb5 023e 6ce6 1a3e b26f 6f3e
000001c0: 249e 2c3d 8e05 e3bc f87f 9f3e 7ba6 12bc
000001d0: f299 cdbc 21ab dfbc 44df 04be 2976 953d
000001e0: f76c fa3d a09a 63be 926d 50be 215c 87bd
000001f0: 5b46 53be 671e a53d 7b07 703c 682b 29be
00000200: a51a b0bc 60ea 863e 5b05 aabd c49d 67bd
00000210: 2e0d 7ebe 54c5 033d f3a0 d9bc 9d52 3fbe
00000220: 97e7 073e 19f0 eb3d 8d4f 38be 882f 3fbe
00000230: 4a9c e13d 9b98 16bd c378 6fbe 587b a4bd
00000240: 8686 66be 5b3a 223e bd4b 0d3d 2207 9ebd
00000250: bf61 18bd 195b 12bd 1abf e13e 74a2 0e3d
00000260: 5265 c13e cfb8 2c3d 5599 f33d 3d75 07bd
00000270: 37bf c43e 0077 0a3e 7c7e ea3d 568c 07bd
00000280: 1cb6 653e c9fb 393e bdea a7bd de06 7e3d
00000290: c286 6bbd 4d56 973c e256 21be 2701 b63c
000002a0: d7b8 0c3e 6917 483e 57f8 8e3e 15ce 923e
000002b0: 7e06 e6ba fe73 043e 0fb5 88be 0a99 ff3d
000002c0: 1b24 2b3e 76f8 b5bd b1b2 e43d e54d 6c3c
000002d0: 7e0f 39be e69c 6bbe 8c58 103d 31e3 87bb
000002e0: 2e20 ba3c bd1d 2fbe baf7 343e 2a6c 643d
000002f0: 2df6 8bbe a6e8 15be c810 953d f7bd ec3d
00000300: 001b 223e 84b8 5cbe d401 20be e771 18bc
00000310: a57a 113e 495c 43bc fce9 613e f5c3 573e
00000320: f61c 703d 40ca 33be 2f1d fcbd 1b53 a6bc
00000330: f6e8 933d 16c9 333c 1566 22bd aab7 ebbc
00000340: b06f fa3d 4cfe a8bd b0fb f93d e5e5 8a3e
00000350: 6138 0ebe 54b1 9c3d d04b 773e fa4a 8e3d
00000360: 9b65 083d 5b33 153e 9c23 64be a9c3 60bd
00000370: 12e0 3cbd 26bf 4abd c6e1 61be 0f5a 31be
00000380: 7cea 5039 5a2d 3dbe 4ebb 183e 267e 793e
00000390: d0ae 073d 5f8b 5c3d 9095 bd3e f074 3a3d
000003a0: 2702 5abe 7b84 e4bd 0445 003e 49db 0fbe
000003b0: 4ae7 a3bd 51d0 713d bdf9 09be 49d1 ef3d
000003c0: 1c06 423e 1244 e4bc 0261 ab3d a8fb 253e
000003d0: c555 96bd 6f3a 0b3e 3ae1 3c3e f52d 213e
000003e0: bf86 123e 6395 76bd fac1 aa3d 3c48 413c
000003f0: 3bda 223d 489f 82be 5b9b 56be 5a67 3dbe
0.13295934 -0.1633845 0.062482953 0.13683158 0.032191142 -0.21170703 0.043177247 0.07025963
0.06296435 0.089010105 0.196232 0.27297184 0.092458405 -0.17365862 0.14798822 0.22888914
-0.018122429 0.2787019 0.10457789 0.16086207 -0.0055020065 0.15733434 -0.07566084 -0.035243273
0.09746159 -0.066289775 -0.16223244 -0.1913014 0.0022316482 0.025006702 -0.16368183 -0.23310642
-0.045100056 0.062067177 0.10714836 -0.06105162 -0.004208369 0.0017523211 0.094354205 -0.05842261
-0.20824388 0.16176037 0.1750627 -0.20163615 -0.096440986 -0.1691888 -0.20205422 0.28863913
0.050535645 -0.042529464 0.08215565 -0.029720522 0.31419712 0.16446608 0.08008519 -0.31564116
0.19315006 0.219843 0.20218967 0.13176557 0.098168775 0.10337537 -0.083606474 0.04504637
-0.051476896 0.23427846 -0.046893857 0.04196764 0.21173261 0.03324216 0.13644095 0.15321009
-0.27929297 -0.08402971 -0.2474329 0.11135085 -0.22837953 -0.059388746 0.05485216 -0.11940666
0.119598985 -0.015223594 0.12971692 0.16770318 -0.20322758 0.07768058 0.25947413 -0.07241437
-0.35224143 0.24589597 0.009770455 0.066054575 -0.023004908 0.0014862032 -0.29365453 0.120333634
-0.006690439 -0.093239024 -0.09905167 -0.118088245 0.12338266 -0.014880674 0.021822972 -0.15457982
-0.16598564 -0.2068417 -0.0171335 0.23272438 -0.06766894 0.12764376 0.15126961 0.23382452
0.042143002 -0.02771261 0.3115232 -0.008950825 -0.02509782 -0.02730328 -0.12975794 0.07297928
0.12227815 -0.22226954 -0.20354298 -0.06609369 -0.20632307 0.080624394 0.014650221 -0.16520464
-0.02149708 0.2635069 -0.08301803 -0.05654694 -0.24809715 0.03217061 -0.026566004 -0.18683858
0.13271938 0.11520404 -0.17999096 -0.18670475 0.11016138 -0.03676663 -0.2338591 -0.080313385
-0.22512254 0.15842573 0.034496058 -0.07716204 -0.037202593 -0.03573141 0.4409111 0.034822896
0.37772614 0.042168435 0.1189448 -0.03307079 0.38427135 0.13521957 0.11449906 -0.03309282
0.2243275 0.18162455 -0.0819907 0.062018268 -0.057501562 0.018473769 -0.157558 0.022217346
0.13742386 0.1954018 0.27923843 0.28672853 -0.0017549542 0.12934873 -0.26700637 0.12480362
0.16712992 -0.08885281 0.11166895 0.014422868 -0.18072316 -0.23009071 0.035240695 -0.0041469564
0.022720423 -0.17101188 0.17672625 0.055767216 -0.27336255 -0.1463953 0.072785914 0.115596704
0.15830612 -0.21554762 -0.15625697 -0.0093045 0.14206941 -0.011923858 0.22061914 0.21070845
0.05862137 -0.17557621 -0.12310254 -0.0203033 0.07222168 0.010973236 -0.039648134 -0.028774101
0.12228334 -0.08251628 0.12206209 0.2712852 -0.13888694 0.0765101 0.24150014 0.069478944
0.033300024 0.14570372 -0.22279209 -0.054874096 -0.046112128 -0.0494987 -0.22058782 -0.17319511
0.00019923778 -0.18474331 0.14915201 0.24364528 0.0331257 0.053843852 0.3702817 0.045521677
-0.21289884 -0.11158081 0.12526327 -0.14048494 -0.08003099 0.059036557 -0.13474174 0.1170984
0.18947643 -0.02786449 0.08368112 0.1620928 -0.07340578 0.1359651 0.18445292 0.15740187
0.14309214 -0.06020106 0.08337779 0.011797007 0.039758902 -0.25512147 -0.20957701 -0.18496457

gru.bias_ih_l1 f4 [75]
00000000: d39c ba3d ebac 5b3e 4b2b 2b3e c257 a73e
00000010: 68ef 5ebd 5fea 363e da8b 06be 605c 903e
00000020: 01d4 05be 78b6 06bd 7977 9dbd 35df 333d
00000030: 9682 a2bd bd99 523e 6843 943b b5ee e23a
00000040: c031 6e3d 2077 623e 09c5 533e 71a2 c63b
00000050: 6cbf bc3d 6500 a83d e13c 493d 0ed2 da3d
00000060: 9b02 eebc fe5a b6bd d6b7 49be 4480 a6be
00000070: 63c1 f8bd a12f 88be f35a afbe 3a74 0dbd
00000080: 72b1 6dbd 4061 253d 2084 1ebe 614f 253e
00000090: ad8f 85be 2d50 7bbd b9c7 97be 6f9e 49be
000000a0: fc0d 85be b854 3e3e 1395 c23d d6f7 b5bd
000000b0: b441 e9bd 9c91 04be ba7c 9bbe 130a 35be
000000c0: 45ba b5be 52bb 7ebe 99e4 c93d db00 4c3d
000000d0: ee3f 29bd cfc5 3cbd 07c6 e73d 6043 67be
000000e0: 7b85 6f3e c48a bebd 52de d43d 2772 40be
000000f0: 48c5 3a3e 74d0 b83c 7971 43be 255d 95be
00000100: 9f78 1d3c e358 1d3c 57b7 15bd c250 fb3d
00000110: 60f3 d8bd 8809 be3d 5f87 27be 93a8 c73d
00000120: 1349 93bd e311 e6bc d857 0e3e
0.09111943 0.21452682 0.16715734 0.3268414 -0.054427534 0.17862843 -0.13139287 0.28195477
-0.13069154 -0.03288886 -0.07688803 0.04391404 -0.079350635 0.20566459 0.004524637 0.0017313572
0.058152914 0.22115755 0.20680632 0.006061845 0.09216198 0.082032 0.049130324 0.10684596
-0.029053977 -0.08904074 -0.19699034 -0.32519734 -0.121462606 -0.26598838 -0.34249076 -0.03453467
-0.058030553 0.040375948 -0.15480089 0.16143562 -0.26086178 -0.06135576 -0.29644564 -0.19689344
-0.25987232 0.18587005 0.0950109 -0.088851616 -0.11389485 -0.1294617 -0.30368596 -0.17679624
-0.35493675 -0.24876145 0.09858055 0.049805503 -0.041320734 -0.046087082 0.113170676 -0.22584295
0.23390763 -0.09303811 0.10393967 -0.18793546 0.1823932 0.022560336 -0.19086255 -0.29172626
0.009611278 0.009603712 -0.0365518 0.12271263 -0.10593295 0.09279162 -0.16360234 0.0974895
-0.07191672 -0.0280847 0.13900697

gru.bias_hh_l1 f4 [75]
00000000: 1de5 d3bc 9af8 0cbd 9390 8abc b3fd 013c
00000010: 2bc7 e5bd 5f9a 613e 990a 1cbe 1b8d 543e
00000020: a124 043e 5308 febd 8f32 583e e7c0 38bd
00000030: 7538 0abe 7a79 3c3d 668f 073e 91b9 e83c
00000040: f4ea 033e 02e6 4d3e 14a6 82bd 82d6 943e
00000050: 36e9 3e3d bc51 3f3e 2df3 37bd d703 eb3d
00000060: bcbc 0a3e a52a a4be 976a 7dbe 5164 1a3d
00000070: e8bd 8abe b640 83be e933 3abe 3ffa 6fbe
00000080: 93b5 b2bd 498d c6bd d00d 533d 05f9 12be
00000090: ec52 39b9 ee29 8cbe 2b82 92bd 2f47 bfbe
000000a0: 310c 66be 6040 253e 333d b73d c7d6 483d
000000b0: 0e41 73be abe7 523d d2b8 68bd 44ce 86bc
000000c0: 92e4 78bc 3798 a8bd 2524 143d 4033 393d
000000d0: 6a5d a5bd e2d0 603e a07e d1bd 2412 243e
000000e0: 2249 a33d 01b0 ba3d 304b 6eb8 219d af3d
000000f0: 9eed 163c e671 283d 8e5a d5bb 86f4 b7bd
00000100: eac7 813d a77c ff3d 3e5b 413e 679e a93d
00000110: fb40 79be 7c44 e1bd a500 2d3e 88e9 a73d
00000120: bbd5 3d3e f1f7 713a ecd8 81bd
-0.025866086 -0.034416772 -0.016914641 0.007934022 -0.11219629 0.22031544 -0.15238418 0.20756952
0.12904598 -0.124039315 0.21113037 -0.04510584 -0.13498099 0.046014287 0.13238296 0.028408797
0.12882596 0.20107272 -0.06379333 0.29069906 0.046609126 0.18683523 -0.044909645 0.11475342
0.13548559 -0.32063785 -0.24747692 0.037693325 -0.27098012 -0.25635308 -0.18183865 -0.23435305
-0.08726039 -0.09694917 0.051526845 -0.14352806 -0.00017673866 -0.2737574 -0.07153734 -0.37358996
-0.22465588 0.16137838 0.0894722 0.049032953 -0.23755285 0.051490467 -0.056816883 -0.016455777
-0.015191214 -0.08232158 0.036167283 0.04521489 -0.08074458 0.21954682 -0.1022923 0.16022545
0.07972933 0.09115601 -5.6813646e-05 0.08574892 0.009211926 0.041124247 -0.006511039 -0.08982186
0.06336959 0.124749474 0.18882462 0.08282166 -0.24341194 -0.109993905 0.16894777 0.081988394
0.18538563 0.00092303666 -0.06340203
