checkpoints_gp2/generator_checkpoint20.pth.tar (torch_old, 214106 bytes, 54 tensors)

gru.weight_ih_l0 f4 [75, 10]
-0.10254466 0.07026614 0.09163551 0.10727091 -0.11422332 0.072802424 0.19172744 0.049477387
-0.119827814 -0.083483815 -0.17590721 -0.15322329 0.12874524 0.15761562 -0.2170266 0.03106341
-0.20877562 0.014517893 0.06368417 -0.0040452685 0.07667393 0.05332284 0.12422303 -0.037518457
-0.16094525 -0.041547183 -0.16368477 -0.15462804 -0.09531422 -0.09028771 0.20359921 0.021283537
0.2025162 0.22526722 0.012729224 0.15319103 0.024535852 -0.071833394 -0.121778935 -0.17753713
0.034080483 0.20171021 -0.046168458 0.1436584 0.16164452 -0.17909738 -0.06634111 -0.063323885
0.18531173 -0.046054587 0.16037525 -0.1123369 0.15732768 -0.03368374 -0.039709356 -0.09247226
-0.010031383 -0.01018393 -0.019937217 0.058958128 0.16570342 -0.0074561397 0.03869793 -0.049790077
-0.09259154 0.12910567 0.10790935 0.12305477 0.0056434735 -0.11962658 0.21533169 0.06638496
0.18334518 -0.04605207 0.08860881 -0.07257179 0.062308155 -0.01673938 -0.028236927 -0.11007906
0.008514595 0.19858436 0.023108266 0.13290983 -0.20103353 0.035998385 -0.011917773 -0.123850465
0.17477939 -0.044498213 0.1322391 -0.04939498 -0.18395177 0.18890089 0.12690195 0.11571517
-0.010066984 0.15528738 0.12364082 0.071686395 -0.12423552 0.035507347 0.16568285 -0.15535162
0.17521062 -0.048676882 0.03265031 -0.03862476 -0.008411026 0.1315939 -0.072936945 -0.16197203
0.067321286 -0.08595328 -0.064281605 -0.15488072 0.14915219 -0.0035703883 -0.109092794 0.018103516
-0.14364602 -0.19797218 -0.054787006 0.10989131 0.13681592 -0.06301003 -0.1034901 -0.1540215
0.09256821 0.09551519 0.12115361 0.09982245 0.0725193 -0.17206286 -0.11275205 -0.08073714
0.05498666 0.0867689 7.787393e-05 -0.20137773 0.18058658 0.16972932 0.23523013 -0.09493253
0.053849697 -0.08465655 -0.10210907 -0.04134754 -0.122153774 0.15641609 0.08180177 -0.14609951
-0.014232851 0.015586796 -0.11066414 -0.002843185 -0.073346995 -0.040727098 -0.1556336 0.035136778
-0.10981509 0.04848912 0.10774624 0.12043153 -0.06909693 0.11974995 -0.06150962 0.0064397804
-0.17124347 -0.12504803 -0.14280212 0.09596526 0.07856 0.094574906 0.04224164 -0.16483824
0.20069481 -0.1312136 -0.044933163 0.18773259 0.0414452 -0.15374157 -0.119823456 -0.07567854
0.04912371 -0.010556824 -0.0037097808 -0.085735515 -0.14547352 -0.07883436 0.15458961 -0.10616223
-0.0034410264 0.0421658 -0.13608287 0.027512753 0.08163693 0.06447232 0.188517 0.047123164
-0.077862605 -0.038376622 0.123318404 0.11150863 0.008525931 0.19055015 -0.10296926 -0.0007881707
0.0781861 0.1864639 0.023281477 -0.118600905 -0.15540239 0.10856379 -0.08148091 0.14092876
0.05104222 -0.033334885 0.080396004 0.11322834 0.1284175 -0.04506546 0.10913872 0.21260083
0.0036493796 0.17039931 0.16034304 -0.034234487 0.024903962 0.00084361853 -0.12075466 0.06811505
0.19378647 0.120069124 -0.052202653 -0.0009544369 0.11867474 0.20157483 0.010815955 0.0058566337
0.15494286 -0.1335222 -0.054906026 -0.1826747 -0.012364463 -0.07682851 0.18543248 -0.07501749
-0.14070478 -0.10212363 0.07071128 0.1640609 -0.031917647 0.10933968 -0.00025657789 -0.18897
00000000: ef02 d2bd b2e7 8f3d 66ab bb3d dab0 db3d
00000010: eaed e9bd 7019 953d 3354 443e cda8 4a3d
00000020: 4968 f5bd 90f9 aabd 0521 34be 91e6 1cbe
00000030: cbd5 033e fd65 213e 393c 5ebe b178 fe3c
00000040: 47c9 55be 75dc 6d3c d96c 823d 2c8e 84bb
00000050: 3907 9d3d 0d69 5a3d a568 fe3d f4ac 19bd
00000060: d5ce 24be 612d 2abd fb9c 27be d056 1ebe
00000070: 1a34 c3bd c3e8 b8bd 507c 503e d05a ae3c
00000080: 6860 4f3e 73ac 663e 3c8e 503c 1cde 1c3e
00000090: 69ff c83c 631d 93bd 3c67 f9bd 4bcc 35be
000000a0: fa97 0b3d 1f8d 4e3e 231b 3dbd 301b 133e
000000b0: 2486 253e 4e65 37be d9dd 87bd f4af 81bd
000000c0: 5cc2 3d3e bca3 3cbd 6939 243e e310 e6bd
000000d0: 821a 213e f6f7 09bd 47a6 22bd 1962 bdbd
000000e0: ab5a 24bc 80da 26bc 6053 a3bc 147e 713d
000000f0: 28ae 293e a252 f4bb b881 1e3d aef0 4bbd
00000100: a2a0 bdbd 4734 043e 94ff dc3d 2404 fc3d
00000110: e3ec b83b c8fe f4bd e97f 5c3e d7f4 873d
00000120: d7be 3b3e 18a1 3cbd 8978 b53d 85a0 94bd
00000130: d636 7f3d 0621 89bc 2151 e7bc 2171 e1bd
00000140: cd80 0b3c b359 4b3e 8c4d bd3c 8419 083e
00000150: bcdb 4dbe 0b73 133d c342 43bc 50a5 fdbd
00000160: 5ef9 323e c243 36bd b069 073e 6452 4abd
00000170: da5d 3cbe 3c6f 413e 96f2 013e 13fc ec3d
00000180: feef 24bc a803 1f3e 6637 fd3d 51d0 923d
00000190: 316f febd 2770 113d c4a8 293e 7f14 1fbe
000001a0: 6a6a 333e 6961 47bd 55bc 053d ff34 1ebd
000001b0: 66ce 09bc 8dc0 063e f75f 95bd ffdb 25be
000001c0: bedf 893d 4608 b0bd 13a6 83bd 0d99 1ebe
000001d0: 5abb 183e 2dfd 69bb 0b6c dfbd d34d 943c
000001e0: f117 13be 38b9 4abe 5768 60bd b20e e13d
000001f0: 7919 0c3e 670b 81bd 9ef2 d3bd d0b7 1dbe
00000200: 6794 bd3d 789d c33d 621f f83d b66f cc3d
00000210: 0085 943d 3f31 30be 8cea e6bd 8359 a5bd
00000220: b139 613d e5b3 b13d 3f50 a338 f735 4ebe
00000230: b0eb 383e 86cd 2d3e 2be0 703e fc6b c2bd
00000240: 8091 5c3d 6a60 adbd 8f1e d1bd 0a5c 29bd
00000250: c22b fabd 8a2b 203e b087 a73d 1c9b 15be
00000260: e730 69bc c35f 7f3c e1a3 e2bd bb54 3abb
00000270: f336 96bd 75d1 26bd 6a5e 1fbe 95eb 0f3d
00000280: bce6 e0bd 879c 463d 10aa dc3d cea4 f63d
00000290: b182 8dbd 763f f53d 83f1 7bbd cb04 d33b
000002a0: 735a 2fbe 970c 00be b83a 12be 6f89 c43d
000002b0: 11e4 a03d 7db0 c13d 9205 2d3d 5bcb 28be
000002c0: f182 4d3e dc5c 06be d60b 38bd f93c 403e
000002d0: 71c2 293d 6e6e 1dbe 0066 f5bd 5afd 9abd
000002e0: f135 493d 87f6 2cbc cb1f 73bb 1a96 afbd
000002f0: 03f7 14be e973 a1bd bd4c 1e3e 956b d9bd
00000300: d882 61bb 0cb6 2c3d 4f59 0bbe 6d62 e13c
00000310: 4331 a73d 100a 843d 9a0a 413e 3804 413d
00000320: 6e76 9fbd ce30 1dbd 5c8e fc3d a35e e43d
00000330: 59b0 0b3c 941f 433e 8ce1 d2bd 3e9d 4eba
00000340: 0920 a03d 65f0 3e3e ccb8 be3c 08e5 f2bd
00000350: ce21 1fbe b156 de3d 77df a6bd a14f 103e
00000360: a611 513d 298a 08bd a9a6 a43d 43e4 e73d
00000370: e17f 033e 8f96 38bd 1f84 df3d 08b4 593e
00000380: 6e2a 6f3b 287d 2e3e f730 243e 7639 0cbd
00000390: 6503 cc3c 4826 5d3a 384e f7bd e77f 8b3d
000003a0: f66f 463e cde6 f53d 73d2 55bd 2d33 7aba
000003b0: be0b f33d a269 4e3e 6735 313c 01e9 bf3b
000003c0: 57a9 1e3e 0bba 08be 24e5 60bd 140f 3bbe
000003d0: 5194 4abc 4458 9dbd 03e2 3d3e c5a2 99bd
000003e0: ea14 10be 3226 d1bd 13d1 903d 95ff 273e
000003f0: 14bc 02bd 7bed df3d 4d85 86b9 5a81 41be

gru.weight_hh_l0 f4 [75, 25]
-0.028687581 -0.19544652 0.06895626 0.023820454 0.10702314 0.091852576 -0.04560452 -0.16205648
-0.12036561 0.036843874 0.18834823 -0.030172661 0.14960526 -0.1201518 -0.018045157 -0.037818044
-0.13465054 0.09513792 -0.074109696 -0.03427919 -0.018920388 0.065365866 -0.10249434 0.13956799
-0.022364447 0.056484357 -0.14862658 -0.06568986 0.15222883 -0.020074405 -0.17479804 -0.10317248
-0.24039699 -0.12927236 -0.00907801 0.15067 0.15768173 -0.09466988 0.1462308 -0.029779464
-0.0816048 0.074338265 -0.19411805 0.031551763 0.16698676 0.0012747182 -0.1497265 -0.19404082
-0.2114892 -0.14315774 -0.099315785 -0.040288024 0.08806439 -0.014378386 0.16732125 -0.097367615
0.072340466 -0.17377669 0.0059606186 0.07957288 0.13283412 0.03007935 -0.08614466 -0.20048079
-0.15111506 -0.016777825 0.0016371439 -0.13326433 0.042111848 0.2248321 0.13109948 -0.14895235
-0.008556817 -0.09849523 0.23302275 -0.19197844 0.026129417 -0.03510253 0.12757467 0.022874366
0.074545875 -0.050779086 -0.06991668 0.01791147 0.063958265 -0.19401525 -0.09235263 0.1309768
-0.17220147 -0.20076247 0.13259597 0.08907137 0.09478145 -0.14388278 -0.060292292 -0.12531082
-0.077842414 0.07244302 -0.0010747656 0.088288866 0.045954473 0.15543056 0.08773513 -0.06825696
0.041967716 -0.06333751 -0.027679384 -0.18633525 -0.17149727 -0.16995493 0.07458323 0.12669227
-0.062154472 0.10022882 -0.07911288 0.10798606 -0.20067328 -0.14558217 0.09800497 0.09004386
-0.13544714 0.23677903 -0.2322422 0.05440971 0.21356915 0.010842702 0.028562142 0.042224906
0.078193314 0.08227448 0.05733949 -0.22986488 0.07057047 0.0571 0.024657283 -0.18095608
-0.06590648 -0.12880988 0.0154552385 0.054487478 -0.038929198 -0.15710321 -0.12396288 -0.047387414
0.17432067 -0.03924365 -0.11725105 0.064141564 -0.171719 -0.046177275 -0.15343761 -0.039653182
-0.14066818 0.040525794 -0.08264323 0.012329631 0.06440564 -0.1785859 -0.06688431 0.029195447
0.16007715 -0.13734172 -0.14832479 -0.20177394 0.19850339 0.11781176 0.048494365 0.03426812
-0.16263218 -0.091930434 -0.060345523 0.062906995 0.14329986 -0.21443366 0.109737076 0.13502286
0.18368624 0.20295082 0.1921747 -0.09394547 0.06331953 -0.21063904 0.029285252 -0.23857167
0.05553641 -0.004437981 0.16819409 -0.13620745 -0.2600964 0.050967347 0.06479331 -0.11679943
-0.09166971 -0.110482305 0.1428891 0.16338909 -0.111790106 -0.2174667 0.024355326 0.0992649
-0.0047995113 -0.0069093504 -0.07111346 0.1285231 -0.19714491 -0.13899519 0.01566862 -0.17755303
-0.10350991 0.07758715 -0.19782925 0.14053658 0.056093942 -0.054515507 -0.021227058 -0.11623482
-0.016385356 0.0746438 0.11731523 0.17852266 0.005887815 -0.040289413 -0.070003085 -0.16661043
0.05522763 0.09135013 0.10609663 -0.18928376 0.048932377 -0.09153732 -0.104375705 0.12779018
0.011127127 0.12281772 0.14274919 0.17153259 -0.14539513 0.09584557 -0.13505735 -0.0027591477
-0.16002768 0.17395067 0.13460256 -0.15955545 0.02968892 -0.13691045 -0.123769194 0.08132158
-0.014189807 -0.13120528 0.09081811 0.18142048 -0.12795874 0.095496915 0.120575346 -0.066929296
00000000: 3802 ebbc 2223 48be f138 8d3d 1d23 c33c
00000010: f32e db3d 341d bc3d cecb 3abd 22f2 25be
00000020: 3f82 f6bd 9ae9 163d 5cde 403e a82c f7bc
00000030: 1f32 193e 2612 f6bd 70d3 93bc 18e7 1abd
00000040: d5e1 09be abd7 c23d d3c6 97bd 5668 0cbd
00000050: eefe 9abc 8ade 853d 8de8 d1bd e9ea 0e3e
00000060: a535 b7bc 245c 673d 9131 18be 6888 86bd
00000070: e0e1 1b3e 1473 a4bc 42fe 32be 184c d3bd
00000080: a12a 76be f95f 04be efbb 14bc 3d49 1a3e
00000090: 5277 213e 48e2 c1bd 87bd 153e 10f4 f3bc
000000a0: 6b20 a7bd a93e 983d e2c6 46be 6c3c 013d
000000b0: 94fe 2a3e 7214 a73a e751 19be a3b2 46be
000000c0: a090 58be f197 12be 1366 cbbd 0e05 25bd
000000d0: 1a5b b43d 5293 6bbc 4356 2b3e ac68 c7bd
000000e0: 3d27 943d 84f2 31be 4b51 c33b 1bf7 a23d
000000f0: ab05 083e f868 f63c 9d6c b0bd d64a 4dbe
00000100: e8bd 1abe a671 89bc 6f95 d63a 7276 08be
00000110: 797d 2c3d 633a 663e f13e 063e f786 18be
00000120: e431 0cbc deb7 c9bd 849d 6e3e ff95 44be
00000130: 5c0d d63c acc7 0fbd efa2 023e 0663 bb3c
00000140: 82ab 983d bbfd 4fbd 7a30 8fbd 13bb 923c
00000150: 8dfc 823d efab 46be 6023 bdbd c81e 063e
00000160: 9555 30be ad94 4dbe 3dc7 073e 0d6b b63d
00000170: c71c c23d 0256 13be 0df5 76bd 7b51 00be
00000180: d86b 9fbd 025d 943d 26df 8cba cbd0 b43d
00000190: c23a 3c3d 3029 1f3e 7aae b33d 4eca 8bbd
000001a0: 57e6 2b3d 19b7 81bd e0bf e2bc abce 3ebe
000001b0: fb9c 2fbe aa08 2ebe 18bf 983d 9ebb 013e
000001c0: b095 7ebd c544 cd3d ef05 a2bd cc27 dd3d
000001d0: 4c7d 4dbe 7e13 15be d4b6 c83d ea68 b83d
000001e0: a8b2 0abe 3476 723e e6d0 6dbe b7dc 5e3d
000001f0: dfb1 5a3e 97a5 313c 27fb e93c 06f4 2c3d
00000200: d123 a03d 867f a83d d0dc 6a3d b361 6bbe
00000210: 4087 903d b1e1 693d 12fe c93c 8d4c 39be
00000220: faf9 86bd bde6 03be f837 7d3c 432e 5f3d
00000230: 3974 1fbd aadf 20be 40e0 fdbd 4e19 42bd
00000240: 1e81 323e f3bd 20bd 5221 f0bd a75c 833d
00000250: 1bd7 2fbe 6224 3dbd c01e 1dbe 606b 22bd
00000260: 520b 10be 60fe 253d db40 a9bd 3802 4a3c
00000270: 1be7 833d 39df 36be a4fa 88bd 4a2b ef3c
00000280: 44eb 233e 4fa3 0cbe 74e2 17be d49d 4ebe
00000290: 7944 4b3e 4b47 f13d 07a2 463d ba5c 0c3d
000002a0: 0d89 26be 0646 bcbd de2c 77bd 62d5 803d
000002b0: 33bd 123e 7f94 5bbe d5bd e03d 6f43 0a3e
000002c0: 3f18 3c3e 57d2 4f3e 72c9 443e 7c66 c0bd
000002d0: abad 813d c3b1 57be a0e7 ef3c 224c 74be
000002e0: 267a 633d 7c6c 91bb 123b 2c3e f779 0bbe
000002f0: 5b2b 85be 23c3 503d 5bb2 843d 8a34 efbd
00000300: 54bd bbbd 8c44 e2bd 8551 123e 784f 273e
00000310: 36f2 e4bd 97af 5ebe d284 c73c 654b cb3d
00000320: 3845 9dbb d567 e2bb efa3 91bd 8f9b 033e
00000330: 5be0 49be c154 0ebe 7a5b 803c 76d0 35be
00000340: 01fd d3bd 03e6 9e3d c093 4abe d2e8 0f3e
00000350: c3c2 653d a74b 5fbd 5ee4 adbc 850c eebd
00000360: 953a 86bc d9de 983d f842 f03d a5ce 363e
00000370: 92ee c03b 8306 25bd c75d 8fbd ed9b 2abe
00000380: 5e36 623d c715 bb3d 3149 d93d 9ad3 41be
00000390: 516d 483d eb77 bbbd eec2 d5bd 6edb 023e
000003a0: 8e4e 363c db87 fb3d d82c 123e 3da6 2f3e
000003b0: 76e2 14be af4a c43d 794c 0abe d1d2 34bb
000003c0: 4cde 23be 2020 323e 41d5 093e 8162 23be
000003d0: 2e36 f33c 4132 0cbe b47a fdbd ee8b a63d
000003e0: 5d7c 68bc ad5a 06be d8fe b93d 4ac6 393e
000003f0: 9e07 03be e393 c33d 35f0 f63d 3a12 89bd

gru.bias_ih_l0 f4 [75]
0.14179745 0.07305081 -0.10781835 0.029772617 -0.09377773 0.16604152 0.22529173 0.051731005
0.10079882 0.17313187 -0.08060206 0.21566616 -0.16645098 -0.09228419 0.18816674 -0.06582643
0.15367462 0.124689244 -0.0077516017 -0.040023703 0.048031487 -0.01623362 -0.102285355 -0.090442
-0.05503113 0.102992825 0.09823024 0.10558183 0.17286226 -0.011924891 0.04761162 -0.13103153
0.0011656698 -0.073506065 -0.15573865 0.14982648 -0.18484564 0.21806055 0.094745494 -0.019313287
0.17866927 0.16855921 0.018313743 0.13244611 0.19509958 -0.02884339 0.17895304 -0.07853911
0.037264373 -0.099788696 -0.13237484 0.07458824 0.1941561 -0.1220686 0.08337818 -0.19730225
0.012929009 -0.010798564 -0.18001376 -0.03976349 -0.21768363 -0.027030597 -0.17172424 -0.119446225
0.015266081 0.0334294 -0.13217895 -0.13910145 -0.02409767 0.08974836 0.11245738 0.007904826
-0.13287179 -0.014555333 0.1647961
00000000: 5a33 113e aa9b 953d decf dcbd b4e5 f33c
00000010: 8a0e c0bd ca06 2a3e e0b2 663e e4e3 533d
00000020: 9d6f ce3d 7b49 313e b112 a5bd 97d7 5c3e
00000030: 2072 2abe 7eff bcbd c8ae 403e 02d0 86bd
00000040: e15c 1d3e 135d ff3d 2601 febb e5ef 23bd
00000050: aabc 443d 5efc 84bc fc7a d1bd a839 b9bd
00000060: 5268 61bd e7ed d23d f02c c93d 493b d83d
00000070: ce02 313e 9e60 43bc 6704 433d 212d 06be
00000080: 63c9 983a 598a 96bd f479 1fbe 1d6c 193e
00000090: 2d48 3dbe 444b 5f3e ed09 c23d e636 9ebc
000000a0: 14f5 363e c99a 2c3e b406 963c f49f 073e
000000b0: 2fc8 473e f948 ecbc 773f 373e 1dd9 a0bd
000000c0: 87a2 183d 045e ccbd 458d 07be b8c1 983d
000000d0: dbd0 463e 1aff f9bd 2ec2 aa3d 9a09 4abe
000000e0: 32d4 533c 76ec 30bc 8755 38be 0bdf 22bd
000000f0: 75e8 5ebe 456f ddbc 7bd8 2fbe 39a0 f4bd
00000100: 961e 7a3c 44ed 083d eb59 07be 9c70 0ebe
00000110: 7a68 c5bc fdcd b73d 0e50 e63d 3e83 013c
00000120: 8b0f 08be 7e79 6ebc 4fc0 283e

gru.bias_hh_l0 f4 [75]
-0.038732212 0.01928393 0.13369416 -0.14343968 -0.008968674 0.12745477 -0.14437614 0.036456447
-0.12951244 0.026791608 0.17252204 0.08262511 -0.12830168 0.19385825 0.09322423 -0.16017842
0.156634 -0.119067065 0.01879575 -0.12832053 -0.08793188 -0.14017718 -0.1401298 -0.113167286
-0.08823118 0.056182615 0.073828034 -0.15683408 -0.12701587 -0.08771849 0.038493995 0.20809038
0.033305947 -0.1297215 -0.0075483555 -0.1395487 0.15089434 -0.016584069 0.12413207 -0.015541673
-0.026016822 -0.121133685 -0.14162415 -0.0031760037 0.043525044 0.10774355 0.0069969175 0.015243744
-0.05635826 0.116279244 0.06900048 0.10253148 0.11738422 0.1347643 0.1542154 -0.116269514
-0.14857997 -0.18681355 -0.1370165 -0.17767484 0.12078225 -0.040963907 0.14891413 -0.049345434
-0.059326924 0.028099002 -0.18087754 0.1564057 -0.0393289 0.1538265 -0.12897475 -0.08179245
-0.11693187 -0.0072490843 -0.0058163204
00000000: aba5 1ebd 55f9 9d3c 1fe7 083e dae1 12be
00000010: 58f1 12bc 8183 023e 57d7 13be 5b53 153d
00000020: e99e 04be 137a db3c 9ea9 303e 5b37 a93d
00000030: 8461 03be c782 463e 58ec be3d d005 24be
00000040: aa64 203e 6fd9 f3bd 8bf9 993c 7566 03be
00000050: a115 b4bd 9b8a 0fbe 307e 0fbe 40c4 e7bd
00000060: 8db2 b4bd be1f 663d 2733 973d 1d99 20be
00000070: 7310 02be c0a5 b3bd e1ab 1d3d a515 553e
00000080: d16b 083d b7d5 04be 3258 f7bb dbe5 0ebe
00000090: 0c84 1a3e 50db 87bc f438 fe3d 80a2 7ebc
000000a0: 3b21 d5bc f014 f8bd ec05 11be 8024 50bb
000000b0: 5147 323d a6a8 dc3d 6646 e53b e5c0 793c
000000c0: ebd7 66bd d023 ee3d 2050 8d3d 06fc d13d
000000d0: 2367 f03d a7ff 093e a4ea 1d3e b61e eebd
000000e0: 5925 18be 0d4c 3fbe 0e4e 0cbe 65f0 35be
000000f0: af5c f73d c5c9 27bd f27c 183e 701e 4abd
00000100: ca00 73bd e12f e63c f637 39be d128 203e
00000110: 5717 21bd b284 1d3e f511 04be cd82 a7bd
00000120: fa79 efbd ba89 edbb d596 bebb

gru.weight_ih_l0_reverse f4 [75, 10]
0.007630208 0.034388237 0.08088773 -0.003861537 0.037408154 -0.07684451 0.091249846 -0.093863524
-0.15321603 -0.1315121 -0.12513585 -0.04783406 0.05056491 -0.042293888 0.042105973 -0.07690236
0.07795771 0.12793617 -0.06343439 0.17932859 -0.09255532 -0.08582204 0.04624624 0.03975556
0.15476935 -0.019698739 -0.016938834 0.19406372 -0.029635852 0.15879095 0.08860575 0.072002605
0.096120425 0.03629757 -0.05469459 -0.07897388 0.07208472 0.00084081764 0.014287608 -0.08181272
0.18527809 0.023570755 0.242153 0.08328408 -0.06966048 -0.08658767 -0.12784745 -0.115548305
0.017831547 0.18787675 0.114990234 -0.11756217 -0.018784188 0.12017861 0.0947535 -0.22474377
-0.11864712 -0.005755656 0.07453873 0.15853557 0.12121513 -0.03475482 0.043533485 -0.09663479
-0.08883748 0.070021376 0.0484296 -0.09835725 -0.18476927 0.1741625 0.025197938 -0.14017904
0.1653574 -0.15456805 -0.1508314 -0.15068313 -0.0750689 0.1323848 -0.07813652 0.017946022
0.10516423 0.13528898 -0.030280862 0.18685547 0.09109877 0.07768492 -0.092334494 -0.017063476
0.090002805 -0.09793789 -0.041478135 -0.0019705698 0.25205472 0.1819882 -0.023058586 -0.05929941
0.040492285 -0.040020324 -0.100239895 0.13723893 0.06290797 0.115396746 -0.12009321 0.017014334
-0.16274235 0.08729527 -0.12796906 -0.13593099 -0.22313772 0.065956526 -0.06386458 0.26785108
0.07013003 0.022091677 -0.076625824 -0.10277968 0.012857639 -0.083226904 -0.022280023 0.11857447
0.027823942 0.054381885 -0.028656632 0.0046637435 0.07149935 -0.11663007 -0.04297968 0.0715193
-0.065301776 -0.06354602 0.027412273 0.12850198 0.22050536 -0.13615876 -0.022069288 -0.065644
0.1914135 -0.15511203 -0.22478251 0.18915987 -0.056673262 0.21198314 -0.10992243 -0.1493381
-0.1476054 0.014539436 -0.063142344 0.11770311 0.10952916 0.20322491 -0.015401626 0.14179002
0.12660791 -0.086187094 -0.14943974 -0.06720025 -0.10421762 0.10234614 0.014620108 -0.10230323
0.11646345 0.10475735 -0.080560826 0.038212888 0.20645492 -0.027469639 0.118128635 -0.18205139
-0.100590155 0.066254206 0.15001713 -0.16353375 0.16420531 -0.039266236 -0.053154156 0.117853895
0.21340814 0.13362858 0.13706258 0.1057165 -0.19333707 0.030270578 -0.18651414 -0.13032286
-0.08471444 0.066914946 0.20756027 0.08607931 -0.021255743 -0.09963001 0.20957097 0.17157592
0.19497442 -0.03853014 -0.114844136 0.09769266 -0.14551371 0.08317964 -0.003946519 -0.16695738
-0.05757073 0.15764347 0.088012554 -0.032855622 0.016539555 0.15310922 0.114242814 -0.13927352
0.17816027 0.18057789 -0.004564136 -0.12648393 -0.14716499 0.1504235 0.07930315 -0.13092719
-0.05864561 -0.03804406 -0.10760076 -0.18847507 -0.107236385 0.14785613 -0.10271331 0.02653242
-0.013125327 0.08916165 -0.13750158 0.021581663 0.0693896 0.099007174 0.22097833 -0.06775901
0.08530131 0.20133385 -0.06731835 0.096483536 -0.023496667 0.07400637 -0.12247399 0.102224685
0.059311222 -0.12564729 -0.032353807 -0.053116642 -0.0055882535 -0.09205576 0.01522942 0.16698052
0.04261658 0.17193127 -0.14530091 -0.16632879 -0.1475986 0.15096304 -0.18366243 0.0044390177
00000000: d306 fa3b aeda 0c3d 77a8 a53d d711 7dbb
00000010: 4b39 193d a860 9dbd 33e1 ba3d 853b c0bd
00000020: aae4 1cbe 1cab 06be 9d23 00be a6ed 43bd
00000030: 271d 4f3d 5b3c 2dbd 5077 2c3d fc7e 9dbd
00000040: 4ba8 9f3d b301 033e e4e9 81bd eaa1 373e
00000050: a58d bdbd 77c3 afbd b36c 3d3d bad6 223d
00000060: db7b 1e3e 405f a1bc 4fc3 8abc a4b8 463e
00000070: e3c6 f2bc 189a 223e ee76 b53d 1a76 933d
00000080: c9da c43d c3ac 143d 6f07 60bd 0fbd a1bd
00000090: 27a1 933d 516a 5c3a 9216 6a3c 6d8d a7bd
000000a0: 8ab9 3d3e 7517 c13c f5f6 773e d890 aa3d
000000b0: 27aa 8ebd e054 b1bd 71ea 02be 97a4 ecbd
000000c0: 7713 923c c362 403e 0080 eb3d 6fc4 f0bd
000000d0: 4ce1 99bc 3420 f63d 1f0e c23d 3b23 66be
000000e0: 43fd f2bd f199 bcbb c3a7 983d 2657 223e
000000f0: a33f f83d 125b 0ebd 2b50 323d 76e8 c5bd
00000100: 6df0 b5bd 5e67 8f3d 1e5e 463d 876f c9bd
00000110: 2834 3dbe a857 323e e86b ce3c 188b 0fbe
00000120: 7353 293e 1647 1ebe 8c73 1abe ae4c 1abe
00000130: b9bd 99bd e28f 073e 0a06 a0bd 8903 933c
00000140: 5860 d73d 3289 0a3e 920f f8bc 0a57 3f3e
00000150: fe91 ba3d 4519 9f3d de19 bdbd b4c8 8bbc
00000160: 6453 b83d a993 c8bd fae4 29bd ad24 01bb
00000170: 510d 813e 1d5b 3a3e 5ce5 bcbc f0e3 72bd
00000180: 3ddb 253d 5aec 23bd 934a cdbd 5d88 0c3e
00000190: e5d5 803d 2155 ec3d 6ef3 f5bd a561 8b3c
000001a0: eea5 26be ddc7 b23d 520a 03be 7e31 0bbe
000001b0: 377e 64be 3714 873d 6fcb 82bd c723 893e
000001c0: 55a0 8f3d 9bf9 b43c 00ee 9cbd 277e d2bd
000001d0: d9a8 523c de72 aabd 9884 b6bc 2cd7 f23d
000001e0: 09ef e33c 8abf 5e3d 50c1 eabc 51d2 983b
000001f0: 406e 923d bfdb eebd 760b 30bd b678 923d
00000200: f0bc 85bd 6a24 82bd b48f e03c 0696 033e
00000210: 28cc 613e 346d 0bbe a7ca b4bc 5d70 86bd
00000220: e701 443e b0d5 1ebe 632d 66be 20b3 413e
00000230: 3922 68bd 1c12 593e 031f e1bd 16ec 18be
00000240: df25 17be d136 6e3c c650 81bd 540e f13d
00000250: d350 e03d 311a 503e 1a57 7cbc 6731 113e
00000260: 81a5 013e dc82 b0bd bb06 19be 49a0 89bd
00000270: 0c70 d5bd da9a d13d 2d89 6f3c 5b84 d1bd
00000280: 6484 ee3d 068b d63d 13fd a4bd 1e85 1c3d
00000290: eb68 533e 0208 e1bc 6ded f13d ae6b 3abe
000002a0: 3602 cebd 49b0 873d 179e 193e 6475 27be
000002b0: 7025 283e a2d5 20bd 2cb8 59bd 625d f13d
000002c0: aa87 5a3e eed5 083e 225a 0c3e e481 d83d
000002d0: 27fa 45be 01fa f73c 90fd 3ebe 5b73 05be
000002e0: c47e adbd b40a 893d ae8a 543e 594a b03d
000002f0: 8620 aebc d20a ccbd c699 563e 99b1 2f3e
00000300: 60a7 473e c8d1 1dbd 6733 ebbd 1713 c83d
00000310: 8c01 15be 165a aa3d cd51 81bb e0f6 2abe
00000320: 49cf 6bbd 4a6d 213e ed3f b43d 9e93 06bd
00000330: f67d 873c aac8 1c3e 23f8 e93d b89d 0ebe
00000340: a56f 363e 69e9 383e bf8e 95bb 0185 01be
00000350: 6bb2 16be 9e08 1a3e b169 a23d c711 06be
00000360: 6136 70bd 17d4 1bbd ca5d dcbd 9cff 40be
00000370: c09e dbbd 9967 173e 5b5b d2bd 855a d93c
00000380: 9d0b 57bc 629a b63d 37cd 0cbe 07cc b03c
00000390: 221c 8e3d 46c4 ca3d 2548 623e 3cc5 8abd
000003a0: 74b2 ae3d 762a 4e3e 34de 89bd 2999 c53d
000003b0: 157c c0bc a790 973d a5d3 fabd 2d5b d13d
000003c0: 53f0 723d afa9 00be 6d85 04bd d690 59bd
000003d0: ab1d b7bb bb87 bcbd d184 793c f1fc 2a3e
000003e0: b98e 2e3d c00e 303e c3c9 14be 1852 2abe
000003f0: 1624 17be 0e96 1a3e 0112 3cbe 2e75 913b

gru.weight_hh_l0_reverse f4 [75, 25]
-0.036881804 0.15486917 -0.15004149 0.095252424 0.066539116 -0.08830426 -0.066004135 0.06801876
0.13210031 0.10143606 0.21845748 -0.05992991 0.09095529 -0.0027868298 0.22830063 0.0014358703
-0.034704443 -0.1953689 -0.0688174 -0.1105971 -0.21441677 -0.06545215 -0.08296584 -0.027469955
-0.22111394 -0.0051483177 0.055957746 -0.2000073 -0.19616899 -0.20302796 0.22087996 0.009712387
-0.069724284 -0.06613478 0.04165168 0.04695479 0.07740904 -0.078707196 0.14858 0.0053727413
0.02635817 0.042069092 -0.1294986 0.09678104 -0.1845699 -0.14670832 -0.029169267 0.11841982
-0.15649764 -0.20157115 -0.06697017 0.08121967 -0.16196962 -0.010647572 -0.2670071 0.10430285
0.12548238 -0.13972136 0.17213517 -0.058395967 0.1535433 0.16811255 -0.081629656 0.020523839
0.23762248 0.24319984 -0.18345678 0.09701775 -0.076435015 -0.15202723 -0.11573914 0.09697426
-0.040294386 0.26207563 0.055012822 0.07104886 0.23493907 0.03751036 -0.13131452 0.11043537
-0.09435926 0.11425211 -0.23188499 -0.020803005 -0.03621041 -0.17116077 0.21144877 -0.23142903
0.14616749 -0.087308705 0.11641139 -0.008451219 -0.24772915 -0.14369869 0.031259865 -0.11452009
0.10573143 -0.003820185 0.02479112 -0.24702355 0.239373 0.08395393 -0.14106867 0.10970929
0.055429243 0.13465625 0.11775726 0.053334862 0.25617728 0.14918427 0.2529418 0.21338364
0.064105086 0.17756325 0.09374386 0.112835474 0.023365952 0.08582682 -0.20066516 -0.25804138
0.040970184 0.14592277 0.15135077 0.18680048 0.071078286 0.062124874 0.21578942 -0.2664617
-0.2430678 -0.2123723 0.004878351 0.16831669 -0.16884696 0.120529056 -0.096102394 -0.052197233
0.18149035 0.03283222 0.09811276 0.27437118 0.05365789 -0.013170937 0.015340661 -0.220296
-0.2529127 -0.25769225 -0.01857946 0.21658951 -0.06267666 -0.2520919 0.009755876 -0.03238561
-0.20300943 0.11200048 0.09908492 -0.17839015 0.16871807 -0.20608662 0.066981986 0.04916562
0.012696614 -0.045195337 -0.089882314 0.09350981 0.19836357 0.113306336 0.004958756 0.0030865278
-0.042067796 0.044288903 -0.07814156 0.037057538 0.044001244 0.1273005 -0.09680089 0.11859283
-0.2146991 0.08268454 0.09065587 0.07746674 -0.19644526 -0.14662655 0.103272185 0.1259653
-0.0823686 -0.20620078 0.13956094 0.16659193 -0.09691351 -0.08690007 -0.14180136 0.054229997
-0.025229236 0.00080581167 0.21499905 0.03194498 -0.009814008 0.15826817 -0.06189548 0.13040602
0.025387524 0.15422718 -0.20505767 -0.28217393 -0.27646303 0.19670872 0.265857 0.071641274
-0.035316676 0.100686096 0.009832887 -0.0063381023 0.051323593 0.16535126 0.040154744 -0.09642571
-0.19555973 -0.12283129 -0.12659895 -0.05458648 -0.078767456 0.073919766 0.29057753 0.09329586
-0.20506482 0.015981602 0.17008997 -0.26700166 -0.17661636 -0.14805137 0.12413338 0.0007513525
-0.20436664 0.22788663 0.15958638 0.084435135 0.043690328 -0.14846449 0.17647493 0.05408979
0.023357833 -0.19151017 0.018970555 -0.06436366 -0.2026862 -0.21411549 0.1684634 0.19770451
0.10652412 -0.057377346 0.01066287 0.004804449 -0.15667671 -0.29652566 0.07727262 0.24731712
00000000: 6011 17bd 0696 1e3e 7aa4 19be b413 c33d
00000010: a945 883d ddd8 b4bd 2d2d 87bd 6b4d 8b3d
00000020: 4e45 073e b6bd cf3d 51b3 5f3e 1179 75bd
00000030: c446 ba3d 3fa3 36bb a4c7 693e d033 bc3a
00000040: 3f26 0ebd c90e 48be 23f0 8cbd bb80 e2bd
00000050: 1290 5bbe c70b 86bd ffe9 a9bd ac08 e1bc
00000060: b16b 62be 38b3 a8bb f333 653d b7ce 4cbe
00000070: 86e0 48be 90e6 4fbe 5b2e 623e b420 1f3c
00000080: 9bcb 8ebd ac71 87bd f49a 2a3d aa53 403d
00000090: a188 9e3d 3d31 a1bd 5b25 183e d20d b03b
000000a0: 17ed d73c a450 2c3d 489b 04be 2335 c63d
000000b0: e4ff 3cbe b53a 16be 63f4 eebc 1786 f23d
000000c0: eb40 20be ab68 4ebe a827 89bd 8056 a63d
000000d0: 5ddb 25be 2773 2ebc 28b5 88be bc9c d53d
000000e0: 747e 003e 1e13 0fbe 3444 303e 9c30 6fbd
000000f0: 743a 1d3e b225 2c3e 732d a7bd 9c21 a83c
00000100: 4f53 733e 6109 793e 18dc 3bbe 3eb1 c63d
00000110: f689 9cbd 07ad 1bbe a408 edbd 719a c63d
00000120: ba0b 25bd c72e 863e 2055 613d 1182 913d
00000130: de93 703e 77a4 193d 5077 06be f02b e23d
00000140: 6d3f c1bd 03fd e93d 4273 6dbe 106b aabc
00000150: 5e51 14bd c544 2fbe 0786 583e bbfb 6cbe
00000160: eeac 153e e8ce b2bd 1869 ee3d fb76 0abc
00000170: b6ac 7dbe c025 13be 580a 003d 8289 eabd
00000180: b889 d83d 125c 7abb bf16 cb3c bef3 7cbe
00000190: 321e 753e 0af0 ab3d 4e74 10be 44af e03d
000001a0: c609 633d 54e3 093e b82a f13d a875 5a3d
000001b0: ab29 833e c3c3 183e 9681 813e 3e81 5a3e
000001c0: 8749 833d 24d3 353e c8fc bf3d 4916 e73d
000001d0: f469 bf3c f9c5 af3d 2b7b 4dbe 001e 84be
000001e0: 5ad0 273d c76c 153e b2fb 1a3e a048 3f3e
000001f0: 7e91 913d a776 7e3d e7f7 5c3e ab6d 88be
00000200: c4e6 78be 2078 59be 93da 9f3b 365b 2c3e
00000210: 38e6 2cbe f0d7 f63d 55d1 c4bd c4cc 55bd
00000220: 9bd8 393e 147b 063d 58ef c83d 617a 8c3e
00000230: 60c8 5b3d eaca 57bc 6557 7b3c 4695 61be
00000240: c67d 81be 3df0 83be f433 98bc a4c9 5d3e
00000250: 9f5c 80bd 3112 81be 1cd7 1f3c c6a6 04bd
00000260: b4e1 4fbe 8260 e53d 09ed ca3d e8ab 36be
00000270: 6ec4 2c3e 5f08 53be da2d 893d e461 493d
00000280: 7505 503c bf1e 39bd 3814 b8bd 1282 bf3d
00000290: d21f 4b3e 270d e83d 0f7d a23b 5847 4a3b
000002a0: 484f 2cbd 4868 353d af08 a0bd a5c9 173d
000002b0: a63a 343d 105b 023e 8c3f c6bd cce0 f23d
000002c0: 15da 5bbe 8356 a93d c9a9 b93d e2a6 9e3d
000002d0: f228 49be 4525 16be 5e80 d33d 0cfd 003e
000002e0: deb0 a8bd 4c26 53be 10e9 0e3e 1397 2a3e
000002f0: 977a c6bd aaf8 b1bd 6034 11be 4620 5e3d
00000300: 8bad cebc 1b3d 533a b628 5c3e bdd8 023d
00000310: efca 20bc 0d11 223e 1d86 7dbd 2889 053e
00000320: 7ff9 cf3c bbed 1d3e a3fa 51be 1a79 90be
00000330: 908c 8dbe 036e 493e 691e 883e a9b8 923d
00000340: 38a8 10bd 8334 ce3d 1e1a 213c dbaf cfbb
00000350: b038 523d d751 293e 4d79 243d d87a c5bd
00000360: cf40 48be f98e fbbd 28a3 01be 1396 5fbd
00000370: d550 a1bd 3f63 973d 94c6 943e e611 bf3d
00000380: 83fc 51be d9eb 823c 112c 2e3e 71b4 88be
00000390: ebda 34be c79a 17be a439 fe3d 6af6 443a
000003a0: 7d45 51be 1d5b 693e 9d6a 233e 54ec ac3d
000003b0: a1f4 323d 1307 18be d8b5 343e 418d 5d3d
000003c0: ed58 bf3c 3e1b 44be 2368 9b3c 18d1 83bd
000003d0: f98c 4fbe 1741 5bbe ab81 2c3e 0d73 4a3e
000003e0: 5129 da3d 8204 6bbd 51b3 2e3c a46e 9d3b
000003f0: dc6f 20be 36d2 97be 1b41 9e3d b340 7d3e

gru.bias_ih_l0_reverse f4 [75]
0.09407539 0.022228187 -0.11579223 -0.043991465 0.16443853 0.15344134 0.14207456 -0.120826766
0.15566531 -0.04508932 -0.13498373 -0.074583046 0.032307766 -0.15448669 0.018800238 -0.047189783
-0.07879549 -0.14702529 -0.030539628 0.22375453 -0.1443245 -0.03821829 0.21378663 -0.017413454
0.22629824 0.12493397 -0.014986917 0.032466196 -0.12072043 -0.16115811 0.0745627 -0.15703914
-0.021653568 -0.18003458 -0.17747477 0.10011773 0.14907107 0.15648457 0.13640212 0.094859846
-0.037232257 -0.11864944 -0.18531866 0.18760252 -0.08644305 0.0762653 0.09022434 -0.017377486
0.020927997 -0.018667601 0.05348682 0.11799064 0.051257495 -0.0775683 -0.09072901 0.130109
0.08513054 -0.21525137 0.16374838 0.11062449 0.027035287 0.17266409 -0.166592 0.1865406
0.16898744 0.057855163 0.05955055 0.03738832 -0.04392574 -0.006567133 -0.12739283 0.12382416
0.14375581 0.083860196 -0.114964835
00000000: 99aa c03d e317 b63c 7a24 edbd 6530 34bd
00000010: 9362 283e ba1f 1d3e fe7b 113e 0674 f7bd
00000020: ba66 1f3e 94af 38bd 2d39 0abe ffbe 98bd
00000030: 2655 043d c231 1ebe f502 9a3c 134a 41bd
00000040: 885f a1bd cc8d 16be 3e2e fabc e81f 653e
00000050: cdc9 13be c88a 1cbd e2ea 5a3e a9a6 8ebc
00000060: baba 673e 62dd ff3d b08b 75bc 46fb 043d
00000070: 463c f7bd a206 25be 54b4 983d dece 20be
00000080: d362 b1bc fc5a 38be f2bb 35be 860a cd3d
00000090: 16a6 183e 7e3d 203e ffac 0b3e e145 c23d
000000a0: da80 18bd 7afe f2bd 2dc4 3dbe e01a 403e
000000b0: 0e09 b1bd fb30 9c3d 8ac7 b83d 3b5b 8ebc
000000c0: 3171 ab3c ccec 98bc ff14 5b3d 14a5 f13d
000000d0: 61f3 513d 21dc 9ebd 22d0 b9bd 4b3b 053e
000000e0: ec58 ae3d db6a 5cbe a8ad 273e 188f e23d
000000f0: 1b79 dd3c dbce 303e 1897 2abe 8004 3f3e
00000100: 0b0b 2d3e 89f9 6c3d 47eb 733d 7f24 193d
00000110: 7aeb 33bd 1b31 d7bb 4473 02be 8597 fd3d
00000120: b934 133e e5be ab3d af72 ebbd

gru.bias_hh_l0_reverse f4 [75]
0.15157282 0.16108505 0.15729168 0.22739083 -0.103330724 0.061232723 0.13301767 0.14999227
-0.010295536 0.022993088 0.14188898 -0.07071999 0.123726234 -0.08935038 0.19811814 0.0029391665
0.19888604 0.05468251 0.056108862 0.18784067 0.10399507 0.1912175 -0.12116528 0.112366624
-0.025915898 -0.17685035 0.04425037 -0.09198778 -0.13424733 0.0741488 0.1428015 0.0052750967
-0.07913019 -0.012672939 -0.10442285 0.049499348 0.02451097 -0.17087616 -0.14205547 0.07003158
-0.16405782 0.1608334 0.20707084 -0.016705839 -0.10530059 0.010026026 0.038953092 0.047570836
-0.07803733 0.21343316 -0.12533543 -0.11308483 -0.15425539 0.08905837 -0.042301077 0.1754749
-0.10237073 0.0321759 0.06741032 0.099591464 0.15906227 -0.07884036 -0.0016341206 0.14213158
0.079775736 0.16985266 -0.0683437 -0.10650332 -0.0904405 -0.17835718 0.06691895 0.07763666
0.17630365 0.11606521 -0.19004168
00000000: e835 1b3e 7bf3 243e 1211 213e 24d9 683e
00000010: 0f9f d3bd 2acf 7a3d c935 083e 9397 193e
00000020: 9cae 28bc 005c bc3c 584b 113e a4d5 90bd
00000030: 2e64 fd3d 55fd b6bd 7bdf 4a3e 089f 403b
00000040: c8a8 4b3e c5fa 5f3d 68d2 653d 4e59 403e
00000050: 5efb d43d 85ce 433e 8125 f8bd 7920 e63d
00000060: 944d d4bc 4218 35be e03f 353d 1764 bcbd
00000070: 2278 09be 53db 973d 8e3a 123e b8da ac3b
00000080: 020f a2bd 29a2 4fbc a6db d5bd d4bf 4a3d
00000090: 3bcb c83c 29fa 2ebe fd76 11be b86c 8f3d
000000a0: c6fe 27be 83b1 243e 610a 543e afda 88bc
000000b0: d6a7 d7bd 3344 243c 478d 1f3d a3d9 423d
000000c0: 09d2 9fbd 398e 5a3e ee57 00be 0599 e7bd
000000d0: 20f5 1dbe 3c64 b63d e543 2dbd b1af 333e
000000e0: bfa7 d1bd e0ca 033d 6c0e 8a3d 9cf6 cb3d
000000f0: 38e1 223e 0e77 a1bd fd2f d6ba f18a 113e
00000100: 7661 a33d dbed 2d3e c8f7 8bbd 6a1e dabd
00000110: de38 b9bd 44a3 36be cd0c 893d f8ff 9e3d
00000120: f288 343e 99b3 ed3d 499a 42be

gru.weight_ih_l1 f4 [75, 50]
-0.09568519 0.1323559 0.054927606 0.23290992 0.028849555 -0.18805373 -0.018182991 -0.04273116
0.09087111 -0.1661595 -0.1020242 -0.031047566 -0.10628469 -0.08616245 0.0032381308 0.14071073
-0.057402078 0.066456035 -0.055394392 -0.04805776 0.1607046 0.12502126 0.0065732603 -0.02251855
0.10675607 0.13441263 -0.107776314 -0.1067468 0.11419156 -0.06017731 0.048377868 -0.09653097
-0.058525145 0.06629974 0.06332831 -0.054889124 -0.023979804 0.046046153 -0.14087631 0.035567727
-0.026132226 0.053179085 0.034293335 -0.1795474 -0.07987856 0.12396049 -0.13196571 0.07775632
-0.077076375 -0.15283415 -0.036030505 0.08731958 -0.09903252 0.115090415 0.08043308 -0.24301583
0.005572085 -0.050441913 -0.2540962 -0.13081378 -0.18866648 -0.052184712 0.017743029 -0.030125625
-0.24772614 -0.10680794 -0.025563624 0.04911325 -0.07720517 0.03162623 0.12551847 0.00074035575
-0.075048946 -0.22248289 0.04333094 0.07882906 -0.04972657 0.06348318 -0.056375936 -0.0075165094
-0.09779001 0.027321644 0.032796312 0.13437468 0.18376185 0.23919453 -0.03703726 0.03973912
0.10443756 -0.006045182 -0.0005955503 -0.13185139 0.07560546 -0.19703569 -0.06363224 -0.1484859
0.12606184 0.08756217 -0.0019818926 0.03195817 -0.12921213 -0.032699782 0.041120276 0.21352826
0.197731 0.1133102 0.12820008 -0.087513745 -0.06727508 -0.15903413 0.07423959 -0.14196938
-0.01825411 -0.13880923 -0.11974884 0.12580922 -0.13701302 -0.17806615 0.18087293 -0.11866595
-0.14240263 -0.07738427 0.08221079 0.10663932 0.08055274 -0.07352392 0.1866947 -0.1440838
-0.054331183 0.108120374 -0.03711206 0.1618094 -0.111784525 -0.108717464 -0.0621975 0.20182745
0.071007885 0.11373167 -0.03419989 0.0765071 0.105309665 0.11084428 0.10541924 -0.21347031
0.037767645 0.035892595 -0.15310538 -0.0895438 -0.026516357 -0.107745886 -0.19063792 0.0849445
-0.06968455 0.18315622 0.15736721 0.0067211324 -0.1846655 -0.02361083 -0.015654476 0.17667711
-0.028121589 -0.050318528 -0.15557496 0.08221162 0.14568797 -0.1404381 0.17345509 0.14443406
-0.1549172 -0.025738811 -0.13284901 -0.0709534 0.10583058 0.15584806 0.105517134 0.037729308
0.012120692 -0.14319144 0.19012678 -0.040580958 0.039026793 -0.02588927 0.022630302 -0.008337661
-0.029493352 -0.1829043 0.019668771 0.107794 -0.0927267 -0.021872481 -0.13126683 0.19703431
-0.15138786 0.009459933 0.038191043 0.04503906 0.10113398 0.07567833 0.20508455 -0.10337522
-0.16090474 0.1580947 -0.024686554 0.16718754 0.17038772 0.18846355 -0.11568584 0.1481436
0.04898033 0.17984593 -0.11628945 0.1631752 0.21226685 -0.117991276 -0.06393609 -0.006847671
0.008246867 -0.13178888 0.06339366 -0.12093765 0.05461969 -0.12554497 0.12017401 0.17666546
0.06475675 0.084925786 0.17535743 0.12584034 -0.18667145 -0.15415944 0.17990237 -0.06924283
-0.012523604 -0.01496088 -0.12173462 0.043320384 -0.01033698 0.023882551 0.17637558 0.008399831
-0.035955876 0.15427825 0.047965582 -0.05319049 -0.19478275 0.07161557 -0.029518858 -0.07211165
-0.040120423 -0.15065607 0.01641737 -0.058760107 0.053445153 -0.112626806 0.121759 -0.2023628
00000000: 99f6 c3bd 4e88 073e c5fb 603d f07f 6e3e
00000010: e755 ec3c 2891 40be 7ff4 94bc de06 2fbd
00000020: a21a ba3d b725 2abe 10f2 d0bd 7757 febc
00000030: caab d9bd f075 b0bd d236 543b 7916 103e
00000040: 711e 6bbd 1a1a 883d 3be5 62bd 37d8 44bd
00000050: bf8f 243e 9305 003e 8164 d73b d278 b8bc
00000060: eda2 da3d 77a3 093e d4b9 dcbd 119e dabd
00000070: 44dd e93d 7c7c 76bd df27 463d 07b2 c5bd
00000080: 10b8 6fbd 28c8 873d 46b2 813d 6bd3 60bd
00000090: 4b71 c4bc e49a 3c3d e141 10be 77af 113d
000000a0: 4013 d6bc 50d2 593d 2b77 0c3d 46db 37be
000000b0: 5f97 a3bd ffde fd3d 0522 07be b53e 9f3d
000000c0: 38da 9dbd 8e80 1cbe b994 13bd 9cd4 b23d
000000d0: 90d1 cabd 86b4 eb3d 19ba a43d 24d9 78be
000000e0: 0996 b63b 2e9c 4ebd e618 82be 0cf4 05be
000000f0: c931 41be a3bf 55bd d459 913c 04ca f6bc
00000100: ecab 7dbe 1fbe dabd ce6a d1bc fa2a 493d
00000110: bf1d 9ebd 818a 013d ea87 003e 6f14 423a
00000120: 43b3 99bd 8ed2 63be c97b 313d 2171 a13d
00000130: 16ae 4bbd 7803 823d 74ea 66bd 0d4d f6bb
00000140: 2146 c8bd a4d1 df3c 6d55 063d 8499 093e
00000150: 112c 3c3e 69ef 743e 62b4 17bd 7dc5 223d
00000160: 5ce3 d53d a916 c6bb b41e 1cba 0d04 07be
00000170: 09d7 9a3d b9c3 49be 9f51 82bd b00c 18be
00000180: 5b16 013e cc53 b33d a4e2 01bb 92e6 023d
00000190: 2f50 04be 35f0 05bd bc6d 283d 27a7 5a3e
000001a0: ff79 4a3e 2e0f e83d e246 033e 683a b3bd
000001b0: 84c7 89bd d8d9 22be ed0a 983d 6c60 11be
000001c0: a589 95bc 0224 0ebe e13e f5bd 22d4 003e
000001d0: 244d 0cbe f956 36be c136 393e 2207 f3bd
000001e0: ffd1 11be a57b 9ebd 215e a83d b765 da3d
000001f0: d6f8 a43d b593 96bd e52c 3f3e b48a 13be
00000200: 608a 5ebd 376e dd3d d102 18bd 5db1 253e
00000210: 49ef e4bd 43a7 debd cec2 7ebd dbab 4e3e
00000220: 956c 913d 26ec e83d 2f15 0cbd c1af 9c3d
00000230: 98ac d73d 5302 e33d 0be6 d73d f697 5abe
00000240: 3fb2 1a3d 1d04 133d a8c7 1cbe bd62 b7bd
00000250: d538 d9bc e0a9 dcbd 9636 43be 62f7 ad3d
00000260: c6b6 8ebd 4e8d 3b3e df24 213e f23c dc3b
00000270: f418 3dbe 806b c1bc d13d 80bc d8ea 343e
00000280: 3f5f e6bc cd1a 4ebd 0b4f 1fbe 915e a83d
00000290: 3a2f 153e 01cf 0fbe 369e 313e 86e6 133e
000002a0: 9da2 1ebe 33da d2bc 9209 08be 0450 91bd
000002b0: b4bd d83d a296 1f3e 5e19 d83d 0c8a 1a3d
000002c0: de95 463c c7a0 12be 98b0 423e 3838 26bd
000002d0: 8fda 1f3d bc15 d4bc 2f63 b93c af9a 08bc
000002e0: 0b9c f1bc 444b 3bbe 6720 a13c 1ac3 dc3d
000002f0: 7fe7 bdbd eb2d b3bc d06a 06be 5dc3 493e
00000300: 6b05 1bbe d6fd 1a3c 366e 1c3d e17a 383d
00000310: 551f cf3d 3efd 9a3d af01 523e 63b6 d3bd
00000320: 36c4 24be 94e3 213e 753b cabc 3633 2b3e
00000330: 1e7a 2e3e 97fc 403e b3ec ecbd f5b2 173e
00000340: 999f 483d 8829 383e 2a29 eebd 6617 273e
00000350: 7b5c 593e 69a5 f1bd edf0 82bd 6d62 e0bb
00000360: de1d 073c aaf3 06be 89d4 813d 29ae f7bd
00000370: e5b8 5f3d dc8e 00be cb1d f63d cae7 343e
00000380: 309f 843d 92ed ad3d e690 333e 4adc 003e
00000390: cd26 3fbe f9db 1dbe 5438 383e 2fcf 8dbd
000003a0: cd2f 4dbc 7b1e 75bc 0050 f9bd b770 313d
000003b0: 705c 29bc 57a5 c33c cd9b 343e 729f 093c
000003c0: 7846 13bd 1efb 1d3e 8f77 443d 45de 59bd
000003d0: 2175 47be 2fab 923d 88d1 f1bc 46af 93bd
000003e0: 5055 24bd 9645 1abe b87d 863c 70ae 70bd
000003f0: 4ee9 5a3d e2a8 e6bd c85c f93d 3238 4fbe

gru.weight_hh_l1 f4 [75, 25]
-0.15088162 -0.1584168 -0.12859227 -0.07686084 0.08986187 -0.100566134 -0.14912167 -0.111017175
0.053418018 -0.025602203 0.11862515 0.1314072 0.0298006 -0.12483467 0.00942737 0.06578629
0.06824188 0.1923091 0.009525248 -0.04721092 -0.13611935 0.042301435 0.10921341 -0.0032861875
0.15797274 -0.034236014 -0.14217177 -0.18100128 -0.0014372687 0.031611178 -0.13079576 -0.2189524
-0.08535958 0.038194112 0.12315847 -0.022193186 -0.053371027 -0.008713525 0.086546004 -0.07031717
-0.17004482 0.112472154 0.14240552 -0.15442637 -0.12678131 -0.14217404 -0.1807985 0.2610224
0.079925284 -0.003837516 -0.22593994 -0.0063973814 0.14194345 -0.0997152 0.15168984 -0.23453084
-0.040060498 0.065837696 0.14774725 0.019959403 0.053028695 -0.008291807 -0.11007919 0.13095298
-0.13712724 0.047106598 -0.023804251 -0.0068566 0.13075432 -0.14991137 0.035454262 0.046200003
-0.09540467 -0.03834159 -0.22020774 0.013867304 -0.16145334 -0.14222889 -0.059465457 -0.032667525
0.26436907 -0.099411935 0.007380373 0.11851578 -0.18821691 0.12167347 0.120760515 0.002543624
-0.19533153 0.15376015 -0.03447884 0.030768193 -0.059988618 -0.0077210367 -0.26421875 0.09166928
-0.0253671 0.0011592675 -0.00083973637 -0.058559913 0.09281496 0.047457792 -0.022120044 -0.1515915
-0.016903514 -0.103105746 -0.050130717 0.09968428 -0.12082124 0.13718605 0.21056417 0.072358884
0.0669242 0.053427864 0.20202951 0.003934262 -0.14511344 -0.15350665 -0.08522213 0.08412158
0.15043138 -0.15612696 -0.16912411 0.07150895 -0.02137385 0.073245086 0.04207754 -0.1686299
-0.053161964 0.19926 -0.061437562 -0.064605296 -0.21969326 0.03129677 0.004646036 -0.17487778
0.12477242 0.162846 -0.12873395 -0.17905492 0.099794954 -0.03040934 -0.18993111 -0.07220129
-0.21816258 0.16255838 0.009766154 -0.08046963 -0.025983857 -0.10523975 0.15988216 -0.007658923
0.15678948 -0.19435838 0.08354537 -0.04024535 0.14271174 0.08630429 0.12606966 -0.1809991
0.11652804 0.15961063 -0.1876637 0.0047676247 -0.07685532 -0.19325876 -0.100317195 -0.0070561944
0.00446344 -0.02000099 0.15139353 0.12741439 0.19469562 0.10995281 -0.25847805 0.15944818
0.20208764 -0.024080535 0.16170444 -0.03456547 -0.19882487 -0.18854463 0.0884197 -0.0022955413
0.080329105 -0.14269575 0.1954912 0.13814989 -0.19578747 -0.105051264 0.09881851 0.0949145
0.2183552 -0.1924422 -0.104194164 0.024905557 0.11552628 -0.07725962 0.22772612 0.12040029
0.025313282 -0.105294034 -0.10179719 -0.03485734 0.14203846 0.14191806 -0.048618697 -0.1296133
0.09290506 0.023664245 0.16276707 0.15207456 -0.067377865 0.17313103 0.13100432 0.08972038
0.012275364 0.09211026 -0.14647077 -0.12964533 0.004475948 0.010063221 -0.24177955 -0.12047836
0.058012094 -0.19211116 0.10343633 0.18407115 -0.0054674596 -0.052204233 0.25211224 -0.016921151
-0.08230761 -0.0821457 0.12188389 -0.19970813 0.062181517 0.00035358782 -0.1943142 0.20636275
0.1164669 0.09782322 0.13940206 0.07820836 -0.115644336 0.022469876 0.053936683 0.22205634
0.06140713 -0.18241945 0.028480068 -0.069710605 0.0031230925 -0.2625547 -0.22178343 -0.21116787
00000000: b680 1abe 0338 22be b1ad 03be 3769 9dbd
00000010: 8009 b83d 9ef5 cdbd 5ab3 18be f95c e3bd
00000020: dacc 5a3d b6bb d1bc bef1 f23d 9c8f 063e
00000030: 6320 f43c 52a9 ffbd 4175 1a3c f6ba 863d
00000040: 66c2 8b3d adec 443e c90f 1c3c 3d60 41bd
00000050: df62 0bbe 4544 2d3d 48ab df3d 145d 57bb
00000060: 9bc3 213e 103b 0cbd 7a95 11be 6658 39be
00000070: bc62 bcba b97a 013d 53ef 05be 0f35 60be
00000080: 01d1 aebd 6e71 1c3d 823a fc3d 7cce b5bc
00000090: 949b 5abd 2cc3 0ebc 083f b13d 7302 90bd
000000a0: 3b20 2ebe cd57 e63d c1d2 113e f221 1ebe
000000b0: f6d2 01be 1296 11be 3e23 39be baa4 853e
000000c0: deaf a33d d67e 7bbb cd5c 67be 20a1 d1bb
000000d0: a059 113e 7c37 ccbd 9554 1b3e da28 70be
000000e0: 7a16 24bd ead5 863d 0e4b 173e e781 a33c
000000f0: 9e34 593d 5cda 07bc 3371 e1bd 8a18 063e
00000100: 156b 0cbe d9f2 403d 2201 c3bc 54ad e0bb
00000110: 76e4 053e 5e82 19be 7d38 113d 373c 3d3d
00000120: 8663 c3bd 120c 1dbd 237e 61be b033 633c
00000130: 0654 25be 73a4 11be 0d92 73bd 62ce 05bd
00000140: 625b 873e 7c98 cbbd 0ed7 f13b 67b8 f23d
00000150: efbb 40be f12f f93d 4a51 f73d eeb2 263b
00000160: fd04 48be 4d73 1d3e af39 0dbd 940d fc3c
00000170: a0b6 75bd c000 fdbb ae47 87be 1abd bb3d
00000180: aace cfbc 90f2 973a c121 5cba 85dc 6fbd
00000190: c515 be3d 1a63 423d 1835 b5bc cd3a 1bbe
000001a0: 3d79 8abc 1b29 d3bd de55 4dbd 4627 cc3d
000001b0: 2071 f7bd 807a 0c3e 229e 573e e530 943d
000001c0: 8e0f 893d 2dd7 5a3d d3e0 4e3e fbea 803b
000001d0: 9e98 14be d930 1dbe f188 aebd ef47 ac3d
000001e0: af0a 1a3e bfdf 1fbe df2e 2dbe 4973 923d
000001f0: 3618 afbc 8501 963d 8059 2c3d 51ad 2cbe
00000200: 5cc0 59bd d00a 4c3e f4a5 7bbd c84f 84bd
00000210: 45f7 60be 0b31 003d c63d 983b 2913 33be
00000220: af88 ff3d 1ac1 263e d5d2 03be 2c5a 37be
00000230: 4c61 cc3d 021d f9bc 4d7d 42be 45de 93bd
00000240: 0366 5fbe b475 263e 3802 203c 43cd a4bd
00000250: 19dc d4bc f087 d7bd 26b8 233e b4f7 fabb
00000260: 6c8d 203e e205 47be d619 ab3d 4fd8 24bd
00000270: 0723 123e 4ec0 b03d 6818 013e d457 39be
00000280: 41a6 ee3d f870 233e ea2a 40be bc39 9c3b
00000290: 5266 9dbd a0e5 45be 1a73 cdbd a637 e7bb
000002a0: 0c42 923b 1ed9 a3bc e806 1b3e eb78 023e
000002b0: 4a5e 473e f02e e13d 3c57 84be 6246 233e
000002c0: 10f0 4e3e 8b44 c5bc d995 253e 8694 0dbd
000002d0: bf98 4bbe d811 41be 6315 b53d cb70 16bb
000002e0: 9683 a43d d61e 12be d82e 483e 2a77 0d3e
000002f0: 837c 48be 1e25 d7bd 5c61 ca3d 8962 c23d
00000300: 8198 5f3e 910f 45be c063 d5bd bd06 cc3c
00000310: 0b99 ec3d 4b3a 9ebd 0931 693e 6d94 f63d
00000320: cd5d cf3c 66a4 d7bd 0c7b d0bd 92c6 0ebd
00000330: 8872 113e f852 113e 6624 47bd 59b9 04be
00000340: 0245 be3d 85db c13c 69ac 263e 6fb9 1b3e
00000350: 68fd 89bd 4349 313e ff25 063e 52bf b73d
00000360: 9c1e 493c 4ea4 bc3d 6ffc 15be bfc1 04be
00000370: f9aa 923b 35e0 243c 0f95 77be 5cbd f6bd
00000380: 179e 6d3d cab8 44be 6dd6 d33d 267d 3c3e
00000390: 6028 b3bb 1bd4 55bd db14 813e 3a9e 8abc
000003a0: e490 a8bd 013c a8bd 439e f93d 4a80 4cbe
000003b0: 0cb2 7e3d c161 b939 4dfa 46be c250 533e
000003c0: 3386 ee3d 8a57 c83d 6abf 0e3e b42b a03d
000003d0: f0d6 ecbd bf12 b83c b6ec 5c3d bd62 633e
000003e0: 0b86 7b3d 2acc 3abe 084f e93c 6fc4 8ebd
000003f0: ccac 4c3b 926d 86be 321b 63be 643c 58be

gru.bias_ih_l1 f4 [75]
0.088765785 0.23462103 0.16044569 0.18251368 -0.11802976 0.15232123 -0.08550925 0.19835849
-0.23953168 -0.024774007 -0.0022946598 -0.012460176 -0.10026624 0.2268331 -0.075423464 -0.030256962
0.0721074 0.18640123 0.15012367 -0.020205254 -0.036166158 0.019666972 0.049638905 0.04715368
-0.102176666 0.09204916 -0.023460174 -0.18090107 -0.04599264 -0.12969232 -0.18453881 0.113724984
0.18391547 0.13512866 -0.19211562 0.24217395 0.01768537 0.056922298 -0.14076293 -0.017785756
-0.1660126 0.050706968 0.15742484 -0.06699674 -0.039073337 -0.0019446394 -0.18442096 -0.015841883
-0.24089868 -0.22553031 0.007861742 0.0593876 -0.11730614 -0.09381984 0.1557699 -0.17285755
0.15055402 -0.14986967 0.10317922 -0.16333134 0.16088918 -0.02820431 -0.18038674 -0.17589244
-0.03695817 -0.055134777 -0.052379526 0.11851061 -0.11141858 0.066942684 -0.19553451 0.059818286
0.005415116 0.016290665 0.14973126
00000000: d6ca b53d 7f40 703e e04b 243e dee4 3a3e
00000010: 96b9 f1bd 19fa 1b3e 791f afbd 7d1e 4b3e
00000020: cb47 75be dcf2 cabc 0162 16bb c425 4cbc
00000030: 6358 cdbd f046 683e 9e77 9abd 73dd f7bc
00000040: 0bad 933d f7df 3e3e 05ba 193e 7d85 a5bc
00000050: f722 14bd a11c a13c 2a52 4b3d 3824 413d
00000060: 0042 d1bd 4584 bc3d 8d2f c0bc 213e 39be
00000070: c762 3cbd 10ce 04be bef7 3cbe a5e8 e83d
00000080: 5654 3c3e 2b5f 0a3e f5b9 44be 73fc 773e
00000090: e9e0 903c 5b27 693d 2824 10be 6fb3 91bc
000000a0: 35ff 29be 1cb2 4f3d fa33 213e 9635 89bd
000000b0: 5d0b 20bd 45e3 feba d9d8 3cbe d6c6 81bc
000000c0: 25ae 76be 6bf1 66be 89ce 003c 6940 733d
000000d0: 343e f0bd 9e24 c0bd 2582 1f3e 9201 31be
000000e0: d52a 1a3e 6f77 19be a04f d33d 5540 27be
000000f0: 22c0 243e ba0c e7bc 4db7 38be 261d 34be
00000100: 7361 17bd 01d5 61bd ea8b 56bd b1b5 f23d
00000110: 6d2f e4bd 3f19 893d 333a 48be 0504 753d
00000120: 4971 b13b 0074 853c 2753 193e

gru.bias_hh_l1 f4 [75]
-0.028219812 -0.014321932 -0.023626478 -0.13639344 -0.17579941 0.19400825 -0.10650109 0.12397304
0.0202063 -0.11592488 0.28572485 -0.101480305 -0.15589596 0.06718329 0.052435096 -0.00357956
0.14278054 0.1663164 -0.12047581 0.26443255 -0.081719086 0.124469705 -0.044400997 0.05506122
0.06236286 -0.13954857 -0.07394657 0.18199001 -0.19551083 -0.12005723 -0.023886789 -0.086092964
0.15468577 -0.002196623 0.0142123075 -0.0627897 0.27837116 -0.15547964 0.08414575 -0.19448206
-0.13079636 0.026215157 0.15188617 0.070887804 -0.16273166 0.17900792 0.062449954 0.1444989
0.098847285 -0.059090126 -0.009154512 0.037518036 -0.097984105 0.16302063 0.002441665 0.20388527
0.02145416 0.03169808 -0.0038539607 0.065038495 -0.009914564 -0.011481366 0.05526703 0.01408353
0.038327847 0.084616505 0.15488887 0.080343746 -0.18466718 -0.13313632 0.13382591 0.04376152
0.20356047 0.03506745 -0.04950574
00000000: 3c2d e7bc 89a6 6abc 518c c1bc b9aa 0bbe
00000010: c304 34be 19aa 463e 3e1d dabd 94e5 fd3d
00000020: af87 a53c 066a edbd 874a 923e e8d4 cfbd
00000030: 31a3 1fbe 6597 893d 2fc6 563d 0d97 6abb
00000040: 1035 123e d94e 2a3e 05bc f6bd b463 873e
00000050: 565c a7bd f9e9 fe3d d2dd 35bd e087 613d
00000060: 3370 7f3d d2e5 0ebe 4d71 97bd 975b 3a3e
00000070: fe33 48be 91e0 f5bd 3aae c3bc 8251 b0bd
00000080: f265 1e3e 38f5 0fbb bdda 683c e397 80bd
00000090: aa86 8e3e 0e36 1fbe 9b54 ac3d 4e26 47be
000000a0: 7bef 05be 2bc1 d63c 0c88 1b3e a02d 913d
000000b0: 21a3 26be da4d 373e 86cb 7f3d 85f7 133e
000000c0: 7270 ca3d 7d08 72bd cefc 15bc 83ac 193d
000000d0: e4ab c8bd e1ee 263e 5704 203b 4dc7 503e
000000e0: a2c0 af3c d9d5 013d bb92 7cbb e732 853d
000000f0: b270 22bc 571c 3cbc ae5f 623d 9bbe 663c
00000100: a9fd 1c3d 6b4b ad3d 309b 1e3e 438b a43d
00000110: 6519 3dbe e354 08be a909 093e 483f 333d
00000120: 2872 503e e3a2 0f3d 88c6 4abd
