checkpoints_gp2/generator_checkpoint60.pth.tar (torch_old, 214106 bytes, 54 tensors)

gru.weight_ih_l0 f4 [75, 10]
-0.06691956 0.11294159 0.11815017 0.14935616 -0.12435008 0.066129915 0.12684597 0.13405392
-0.13786072 -0.13308322 0.02081018 0.035557322 0.32427046 0.34709805 -0.27552202 0.015256912
-0.10194099 -0.020382207 0.019758843 0.007780425 0.11283666 0.12420668 0.15665536 0.035108462
-0.0748166 -0.04759529 -0.19857705 -0.055444706 -0.053875253 -0.17440826 0.23963079 0.05855471
0.23299612 0.26271752 0.0076859756 0.15857033 0.109638646 -0.14253946 -0.18486883 -0.11453524
0.12768795 0.3049659 0.048551504 0.2469607 -0.011580227 -0.18051817 0.09297493 -0.21468836
0.046472218 0.11594212 0.1608537 -0.0820491 0.15008445 -0.005601682 -0.19856271 -0.033315435
0.108198814 -0.16954708 -0.15044746 0.23140445 0.12790926 -0.024370093 -0.009225243 -0.066405304
0.14527617 0.09382983 -0.056730993 0.29094946 0.132696 -0.29007083 0.27896416 0.13585147
0.24648795 0.024321033 0.011825674 -0.031272426 0.1150687 0.014771574 0.010990559 -0.06988196
0.076871395 0.25678006 0.08777428 0.19353664 -0.118016906 -0.02286794 -0.038542025 -0.087890506
0.25953606 -0.09826855 0.07132839 -0.09447378 -0.25078392 0.14049822 0.35112622 -0.017388865
-0.18742564 0.33233544 0.27127135 -0.09752362 0.013160094 0.1799187 0.30596486 -0.01012129
-0.0025041786 -0.050194364 0.1260325 -0.13961226 -0.11107963 0.23569368 -0.0004887054 -0.08723341
0.14133553 -0.008819044 -0.2737398 -0.16019252 0.31016493 -0.1938106 -0.26063251 0.19135784
-0.19965553 -0.21758486 -0.120149255 0.08201983 0.3403641 -0.052028645 -0.34414458 0.05463701
0.2519579 -0.1196052 0.20699336 0.22867171 0.14611135 -0.042799022 -0.13684976 -0.03161824
0.15988496 -0.019623285 -0.118825674 -0.09015076 0.25665492 0.24477409 0.31335565 -0.01879031
-0.13848238 -0.04582227 0.08116431 -0.19229762 -0.23430718 0.28781378 0.18787295 -0.05769291
0.09386579 0.10556778 -0.30042782 0.046051037 0.10099551 -0.23621784 -0.25944006 0.21103643
-0.077202395 0.098002836 0.138642 0.17064595 -0.032276105 0.11273965 -0.047671333 0.062313676
-0.16463654 -0.16028453 -0.11032386 0.11422821 0.10552844 0.11204337 0.24808544 -0.072257794
0.023710135 -0.01787928 0.02743036 0.057701692 0.0054054954 -0.1425077 -0.1629612 -0.06867107
0.24109112 0.024650387 -0.18758836 0.15266882 0.09222673 -0.2541079 0.21217881 -0.057988152
0.04825804 0.0898536 -0.011928105 -0.045374688 0.010745616 0.14479057 0.29964802 -0.025371889
-0.06488228 -0.033237923 0.1266355 0.11363504 -0.24838187 0.17275742 0.14136447 -0.23600684
-0.14625596 0.39830747 0.018169884 -0.15449017 -0.16683802 0.06852691 -0.2525308 0.12110122
0.1978027 -0.1667849 -0.073110625 0.26840112 0.17200482 0.018919557 0.14786011 0.27638808
-0.006499601 0.066055164 0.106841475 0.04762843 0.05190843 -0.019707352 0.046067078 0.23471732
0.35969096 0.28653124 -0.07933406 0.001427972 0.107871406 0.108757 -0.022175765 0.02458076
0.20025763 -0.08315069 -0.01456913 -0.13098806 0.04041284 -0.017661566 0.11370611 -0.049631584
-0.09992955 -0.018340824 0.11324768 0.12661172 0.011816531 0.07381068 -0.05511571 -0.25626764
00000000: 1f0d 89bd ec4d e73d b7f8 f13d d2f0 183e
00000010: 41ab febd 1f6f 873d e9e3 013e 6e45 093e
00000020: 5c2b 0dbe f846 08be 1c7a aa3c 8ea4 113d
00000030: c706 a63e d6b6 b13e 3911 8dbe 21f8 793c
00000040: 70c6 d0bd 96f8 a6bc 4cdd a13c eff2 fe3b
00000050: e816 e73d 1260 fe3d 436a 203e e4cd 0f3d
00000060: 7239 99bd 47f3 42bd c857 4bbe fd19 63bd
00000070: 4cac 5cbd 1498 32be c661 753e 10d7 6f3d
00000080: 8996 6e3e e982 863e a3da fb3b 4360 223e
00000090: 3a8a e03d ddf5 11be 414e 3dbe 7491 eabd
000000a0: a1c0 023e 7e24 9c3e f1dd 463d 44e3 7c3e
000000b0: feba 3dbc c1d9 38be a469 be3d 44d7 5bbe
000000c0: a759 3e3d 1073 ed3d d5b6 243e 5c09 a8bd
000000d0: bdaf 193e 508e b7bb 0654 4bbe c475 08bd
000000e0: 5797 dd3d c09d 2dbe e60e 1abe 4af5 6c3e
000000f0: a5fa 023e caa3 c7bc 7925 17bc 81ff 87bd
00000100: 47c3 143e db29 c03d c25e 68bd 54f7 943e
00000110: 76e1 073e 2a84 94be 64d4 8e3e a61c 0b3e
00000120: 5667 7c3e e73c c73c 79c0 413c 8417 00bd
00000130: 23a9 eb3d 7904 723c bf11 343c 461e 8fbd
00000140: c06e 9d3d ad78 833e 00c3 b33d 782e 463e
00000150: d9b2 f1bd 8c55 bbbc 3ede 1dbd f0ff b3bd
00000160: e9e1 843e 0641 c9bd 9e14 923d 787b c1bd
00000170: c066 80be c4de 0f3e d1c6 b33e 1873 8ebc
00000180: 82ec 3fbe df27 aa3e 14e4 8a3e 77ba c7bd
00000190: 6f9d 573c 9c3c 383e 6da7 9c3e c4d3 25bc
000001a0: 251d 24bb 9b98 4dbd aa0e 013e 84f6 0ebe
000001b0: b87d e3bd af59 713e 771c 00ba 6ea7 b2bd
000001c0: 43ba 103e c07d 10bc a027 8cbe 8209 24be
000001d0: f0cd 9e3e 4976 46be a071 85be 4ff3 433e
000001e0: 8072 4cbe 91ce 5ebe d010 f6bd 03fa a73d
000001f0: 3444 ae3e fd1b 55bd b833 b0be 0fcb 5f3d
00000200: a000 813e 92f3 f4bd 11f6 533e eb28 6a3e
00000210: 379e 153e 074e 2fbd 5822 0cbe 2182 01bd
00000220: e2b8 233e 03c1 a0bc e05a f3bd f6a0 b8bd
00000230: 4668 833e 0fa6 7a3e 2770 a03e 23ee 99bc
00000240: 53ce 0dbe 22b0 3bbd 7939 a63d abe9 44be
00000250: 39ee 6fbe 545c 933e c461 403e 674f 6cbd
00000260: b53c c03d ec33 d83d add1 99be 03a0 3c3d
00000270: bcd6 ce3d 17e3 71be 54d5 84be ef19 583e
00000280: 4a1c 9ebd b6b5 c83d 2bf8 0d3e d0bd 2e3e
00000290: f333 04bd 0ce4 e63d 0443 43bd a03c 7f3d
000002a0: 7b96 28be a121 24be 7af1 e1bd 7bf0 e93d
000002b0: 4b1f d83d ff76 e53d 1c0a 7e3e e5fb 93bd
000002c0: c23b c23c 9177 92bc a2b5 e03c 9c58 6c3d
000002d0: 9520 b13b 8aed 11be 4ddf 26be 6ba3 8cbd
000002e0: 97e0 763e 9cef c93c 2a17 40be 3755 1c3e
000002f0: 5ee1 bc3d 6e1a 82be 6745 593e fc84 6dbd
00000300: 39aa 453d 2a05 b83d 196e 43bc cfda 39bd
00000310: 610e 303c fb43 143e 776b 993e b5d8 cfbc
00000320: 00e1 84bd 7d24 08bd bdac 013e 7db9 e83d
00000330: d157 7ebe 52e7 303e d9c1 103e c7ab 71be
00000340: 1fc4 15be f5ee cb3e 02d9 943c ac32 1ebe
00000350: 96d7 2abe d657 8c3d b84b 81be eb03 f83d
00000360: ca8c 4a3e a9c9 2abe 06bb 95bd df6b 893e
00000370: 0822 303e 30fd 9a3c a468 173e bd82 8d3e
00000380: 9bfa d4bb ee47 873d b4cf da3d 0716 433d
00000390: ef9d 543d 5071 a1bc d5b0 3c3d bd59 703e
000003a0: 6a29 b83e 39b4 923e e579 a2bd ca2a bb3a
000003b0: afeb dc3d fdbb de3d f3a9 b5bc 975d c93c
000003c0: 5610 4d3e e94a aabd 5cb3 6ebc bc21 06be
000003d0: ef87 253d fdae 90bc c0de e83d 7d4a 4bbd
000003e0: dda7 ccbd 7f3f 96bc 66ee e73d 81a6 013e
000003f0: 209a 413c 0e2a 973d 03c1 61bd 8335 83be

gru.weight_hh_l0 f4 [75, 25]
-0.1536578 -0.03279063 0.19888033 0.13508269 0.2594011 -0.10284951 0.02259559 -0.2943856
-0.19002673 0.004119934 0.09789048 -0.24987751 0.14490817 -0.34492326 -0.1763752 0.12863211
-0.27764288 -0.045814194 -0.093718685 0.054305688 -0.13510972 -0.13324395 -0.22918627 -0.0016057674
0.09863412 -0.12128806 -0.0834577 0.10026755 0.2902327 0.08128424 -0.34497374 0.052189864
-0.40958562 -0.23049128 -0.08658693 0.0524897 -0.0042621605 -0.02874364 -0.05848947 -0.15894184
0.06120359 -0.08767434 -0.287617 -0.004218667 0.33228588 -0.07686807 -0.3628357 -0.3654748
-0.31442285 0.010595312 -0.23715645 7.515475e-05 0.20859687 0.08144455 0.22156544 -0.2229447
0.20354052 -0.2961787 -0.08996779 -0.037053235 0.06666743 0.02366865 0.027928174 -0.3550097
-0.21707939 0.041451257 -0.11702571 -0.19413513 -0.08497932 0.35741866 0.18242788 -0.32171065
-0.12841329 -0.10937609 0.34041196 -0.3011449 0.02100375 0.068464085 0.20950823 0.059624575
-0.04517265 0.066012375 -0.17300041 -0.05009393 -0.046096046 -0.23951992 -0.10038772 0.27504468
-0.341061 -0.2432791 0.15678981 -0.01782102 0.08211273 -0.33031425 0.031683214 -0.0914701
-0.17741328 -0.02039882 0.021144675 0.17232317 -0.008085969 0.24622878 0.14135496 -0.034992073
0.0987505 -0.109824955 -0.063635916 -0.22776026 -0.13338621 -0.07896699 0.01234464 0.07970921
-0.16118477 0.022212874 -0.14778918 0.17999369 -0.24698862 -0.2125905 0.22443502 0.065830275
-0.2381256 0.19974121 -0.26791382 -0.073112726 0.24099712 -0.062791035 0.018220047 0.10238414
0.12398447 0.08598986 -0.00049447326 -0.16828533 0.016622383 0.027908023 -0.034024112 -0.16550083
-0.0902676 -0.06240337 -0.07735903 0.038437378 -0.009289398 -0.22049913 -0.1300103 -0.123145744
0.2458869 -0.05600568 -0.18638499 -0.0009641444 -0.1690111 0.006204027 -0.23838484 0.123043366
-0.06485236 0.115470506 0.052442085 -0.12929611 0.07551857 -0.2657559 -0.084076166 0.065987766
0.17972395 -0.40830588 -0.26107147 -0.35909417 0.023908865 0.30408937 -0.049340196 -0.1546173
-0.07536312 -0.0478607 -0.237829 -0.17009385 0.051861662 -0.37104678 0.1971914 0.0583078
0.28962207 0.26781213 0.23094279 -0.043795217 -0.0076639606 -0.1939161 -0.03065438 -0.25003925
0.08517031 -0.05460718 0.039325878 -0.21886165 -0.36181775 -0.011605374 0.14646325 -0.17778558
-0.18262932 0.046587482 0.19808316 0.067837484 -0.2228874 -0.2868117 -0.083918616 0.15172462
-0.1261155 0.17974564 0.05482955 0.23596595 -0.042828202 -0.31641343 -0.0012563203 -0.3147971
-0.1154321 0.17837724 -0.32153356 -0.07328127 -0.12734817 -0.26459974 -0.20719005 0.058043633
-0.15021795 -0.10397088 0.294907 0.2063703 -0.12760188 -0.23482354 -0.19691226 -0.3534305
0.16899571 0.0061602737 0.23704824 -0.1250148 0.12085949 0.047575396 -0.25608513 0.09702517
-0.075657964 0.13506708 0.22305153 0.17362252 -0.3776458 -0.008917564 -0.31654364 -0.17644595
0.004549918 0.0772295 -0.0469628 -0.053258162 0.050568745 -0.3138808 -0.38527566 -0.00903037
-0.13832048 -0.041650455 -0.052527778 0.4258487 0.031573977 0.23774105 0.33259472 -0.2565966
00000000: 7858 1dbe 784f 06bd 49a7 4b3e 1e53 0a3e
00000010: 39d0 843e c4a2 d2bd 631a b93c b6b9 96be
00000020: 5e96 42be 8300 873b ce7a c83d e4df 7fbe
00000030: cf62 143e c899 b0be b39b 34be 23b8 033e
00000040: 3527 8ebe aaa7 3bbd 95ef bfbd a46f 5e3d
00000050: 345a 0abe 1a71 08be ceaf 6abe 9d78 d2ba
00000060: af00 ca3d e065 f8bd dfeb aabd 1359 cd3d
00000070: 6199 943e 5a78 a63d 66a0 b0be 0ac5 553d
00000080: 35b5 d1be e805 6cbe 7d54 b1bd 71ff 563d
00000090: 98a9 8bbb c877 ebbc a892 6fbd a6c1 22be
000000a0: 9eb0 7a3d 9b8e b3bd 8942 93be be3c 8abb
000000b0: 6021 aa3e 026d 9dbd 9ac5 b9be 831f bbbe
000000c0: 08fc a0be f697 2d3c 24d9 72be 669c 9d38
000000d0: 6b9a 553e 66cc a63d 0de2 623e 9e4b 64be
000000e0: ed6c 503e bca4 97be 0841 b8bd 22c5 17bd
000000f0: ef88 883d c2e4 c13c a0c9 e43c d5c3 b5be
00000100: 0f4a 5ebe cbc8 293d 2dab efbd 5ccb 46be
00000110: a309 aebd 94ff b63e 60ce 3a3e 42b7 a4be
00000120: c67e 03be 9200 e0bd 7a4a ae3e aa2f 9abe
00000130: 0e10 ac3c e636 8c3d 5389 563e e638 743d
00000140: f506 39bd 7f31 873d 0527 31be 4b2f 4dbd
00000150: 35cf 3cbd b644 75be 1498 cdbd a8d2 8c3e
00000160: 8c9f aebe 281e 79be 828d 203e 63fd 91bc
00000170: b82a a83d f31e a9be 42c6 013d ad54 bbbd
00000180: d4ab 35be 6d1b a7bc 9937 ad3c 7c75 303e
00000190: 037b 04bc 6623 7c3e 5bbf 103e d953 0fbd
000001a0: b43d ca3d e8eb e0bd 8c53 82bd fc39 69be
000001b0: 6596 08be 72b9 a1bd 2c41 4a3c 953e a33d
000001c0: 9f0d 25be c6f7 b53c 0c56 17be 4450 383e
000001d0: 96ea 7cbe 53b1 59be 4bd2 653e 06d2 863d
000001e0: 33d7 73be f688 4c3e 002c 89be 20bc 95bd
000001f0: f3c7 763e 9698 80bd 3542 953c c7ae d13d
00000200: 92eb fd3d 741b b03d 8a9f 01ba fd52 2cbe
00000210: aa2b 883c 5e9f e43c de5c 0bbd 0d79 29be
00000220: 38de b8bd ad9a 7fbd 696e 9ebd 8370 1d3d
00000230: 8f32 18bc 86ca 61be 6c21 05be d633 fcbd
00000240: c7c9 7b3e 3666 65bd b5db 3ebe a3be 7cba
00000250: 3f11 2dbe 274b cb3b 281b 74be 29fe fb3d
00000260: 50d1 84bd cd7b ec3d 83cd 563d 3366 04be
00000270: 7ba9 9a3d 2811 88be 2030 acbd 9824 873d
00000280: 8e09 383e 780d d1be 29ab 85be 31db b7be
00000290: 86dc c33c 9ab1 9b3e f218 4abd ff53 1ebe
000002a0: fb57 9abd 9509 44bd 7289 73be 152d 2ebe
000002b0: e56c 543d d8f9 bdbe 8bec 493e 29d4 6e3d
000002c0: 5849 943e ac1e 893e 447c 6c3e 9d62 33bd
000002d0: f621 fbbb f191 46be e51e fbbc 2505 80be
000002e0: c66d ae3d c7ab 5fbd 2c14 213d 451d 60be
000002f0: 2d40 b9be 7724 3ebc 76fa 153e 6c0d 36be
00000300: 2e03 3bbe 84d2 3e3d 50d6 4a3e 61ee 8a3d
00000310: 983c 64be fcd8 92be 86dd abbd b35d 1b3e
00000320: 6c24 01be 3e0f 383e f394 603d 0fa1 713e
00000330: a06c 2fbd f100 a2be 1dab a4ba 162d a1be
00000340: aa67 ecbd 86a8 363e 0ca0 a4be 7e14 96bd
00000350: 8f67 02be 9e79 87be a129 54be 29bf 6d3d
00000360: bcd2 19be afee d4bd 0dfe 963e bc52 533e
00000370: 11aa 02be 9575 70be 5ea3 49be d8f4 b4be
00000380: 360d 2d3e 1fdc c93b c6bc 723e e103 00be
00000390: 2e85 f73d 6bde 423d 971d 83be 22b5 c63d
000003a0: 90f2 9abd 064f 0a3e 9f67 643e 1aca 313e
000003b0: ca5a c1be f91a 12bc 0212 a2be 3fae 34be
000003c0: 7b17 953b 802a 9e3d 115c 40bd 3b25 5abd
000003d0: 2c21 4f3d fcb4 a0be da42 c5be 1ef4 13bc
000003e0: e2a3 0dbe ab99 2abd 5e27 57bd d708 da3e
000003f0: b753 013d 6472 733e db49 aa3e a160 83be

gru.bias_ih_l0 f4 [75]
0.2868108 0.27137125 -0.0031805795 0.107859604 -0.029742027 0.23998515 0.36901262 0.13729852
0.21802498 0.2523988 0.04145819 0.24047086 -0.0534906 0.11010224 0.22618817 -0.00826079
0.2099602 0.24072091 0.15238932 0.13120604 0.09446355 0.06400959 0.018610338 0.10160154
0.05169521 0.06660319 -0.19235142 0.05016835 0.23322138 -0.2602837 -0.21364263 -0.36028427
-0.20179406 -0.17946331 -0.37572035 -0.15032004 -0.39582005 -0.073863916 -0.044191297 -0.29649198
-0.061058395 0.06692159 -0.22500432 -0.14999522 0.0759571 -0.2380426 -0.07003641 0.024680227
-0.2669465 -0.011167328 -0.2300113 0.1220421 0.2599644 -0.045069885 0.10867706 -0.30395702
0.02693316 -0.08351524 -0.20300584 0.024228724 -0.22886759 -0.086736046 -0.22655545 -0.2457316
-0.046160668 0.071733885 -0.17293018 -0.22072008 0.031102927 0.12263763 0.051698517 -0.14400446
-0.21912715 -0.08135671 0.2400344
00000000: ddd8 923e 2cf1 8a3e 4571 50bb 7fe5 dc3d
00000010: 8da5 f3bc abbe 753e 39ef bc3e fc97 0c3e
00000020: f141 5f3e 6a3a 813e 10d0 293d fe3d 763e
00000030: f618 5bbd 497d e13d df9d 673e 4458 07bc
00000040: cfff 563e 8b7f 763e f20b 1c3e e05a 063e
00000050: 1b76 c13d 7617 833d b574 983c 7814 d03d
00000060: 5bbe 533d 4167 883d c5f7 44be 547d 4d3d
00000070: 96d1 6e3e e843 85be 22c5 5abe 2e77 b8be
00000080: 1aa3 4ebe 3bc5 37be 6b5e c0be 7fed 19be
00000090: eda8 cabe f745 97bd ef01 35bd cccd 97be
000000a0: 5e18 7abd 300e 893d 8867 66be 5998 19be
000000b0: 658f 9b3d 70c1 73be 406f 8fbd 302e ca3c
000000c0: 36ad 88be 2bf7 36bc 1588 6bbe 35f1 f93d
000000d0: 0e1a 853e 339b 38bd 1492 de3d 41a0 9bbe
000000e0: eea2 dc3c 0a0a abbd c3e0 4fbe 517b c63c
000000f0: 445c 6abe aba2 b1bd 27fe 67be 11a1 7bbe
00000100: f812 3dbd 37e9 923d 9c14 31be 7204 62be
00000110: 91cb fe3c 7029 fb3d d3c1 533d e875 13be
00000120: de62 60be 599e a6bd 94cb 753e

gru.bias_hh_l0 f4 [75]
0.10628076 0.21760413 0.2383322 -0.06535269 0.055066977 0.20139846 -0.00065580383 0.12202396
-0.012286124 0.10605848 0.29458207 0.107430026 -0.0153415445 0.396245 0.13124596 -0.10261297
0.2129196 -0.003035357 0.1789369 0.04290936 -0.041499898 -0.059934366 -0.01923385 0.078876235
0.018495195 0.019792905 -0.21675368 -0.2122481 -0.06665686 -0.33607697 -0.2227602 -0.021162806
-0.16965376 -0.23567839 -0.22753061 -0.43969464 -0.06007974 -0.30850872 -0.014804561 -0.2927204
-0.2657448 -0.22277112 -0.38494298 -0.28561682 -0.07561738 -0.10145553 -0.24199228 0.118463196
-0.36056805 0.20490064 -0.040129393 0.13802709 0.19535817 0.21619351 0.16855937 -0.23069122
-0.10057535 -0.26142234 -0.16863959 -0.18568735 0.13017926 -0.13163841 0.18304026 -0.19060579
-0.1273369 0.09753267 -0.22641498 0.08493793 -0.06708722 0.20793974 -0.19561033 -0.23924835
-0.21229838 -0.04634405 0.0852848
00000000: baa9 d93d 9ed3 5e3e 5b0d 743e a2d7 85bd
00000010: e98d 613d 663b 4e3e 40ea 2bba b3e7 f93d
00000020: bd4b 49bc 3035 d93d 76d3 963e 4604 dc3d
00000030: 1a5b 7bbc a0e0 ca3e 5765 063e c026 d2bd
00000040: 9807 5a3e d7ec 46bb 3c3b 373e bac1 2f3d
00000050: ccfb 29bd bd7d 75bd 4f90 9dbc dd89 a13d
00000060: 3c83 973c bb24 a23c adf4 5dbe 9157 59be
00000070: 6483 88bd 4812 acbe 401b 64be 9f5d adbc
00000080: b7b9 2dbe ad55 71be c9fd 68be a81f e1be
00000090: 2c16 76bd dbf4 9dbe d48e 72bc 73df 95be
000000a0: b40f 88be 1d1e 64be 3f17 c5be 5e3c 92be
000000b0: 49dd 9abd ebc7 cfbd d3cc 77be d59c f23d
000000c0: 609c b8be 79d1 513e b85e 24bd f956 0d3e
000000d0: f90b 483e d561 5d3e d49a 2c3e 523a 6cbe
000000e0: 73fa cdbd 26d9 85be dbaf 2cbe d324 3ebe
000000f0: b64d 053e 38cc 06be e86e 3b3e 2a2e 43be
00000100: 9b64 02be 35bf c73d 54d9 67be f0f3 ad3d
00000110: 0665 89bd 28ee 543e 134e 48be 85fd 74be
00000120: bf64 59be 42d3 3dbd cca9 ae3d

gru.weight_ih_l0_reverse f4 [75, 10]
0.022692066 0.07003886 0.09206685 0.031207783 -0.026567511 -0.057755478 0.1400873 -0.092755854
-0.15723635 -0.07102896 -0.10968677 -0.064874716 0.06861529 -0.06051391 -0.12480411 -0.0611633
0.20315032 -0.009223774 -0.22090782 0.28365156 -0.1500838 -0.13486898 -0.014795972 -0.012579317
0.23812377 -0.062081106 -0.15670626 0.32586023 0.059375323 0.016664289 0.14749415 0.1106605
0.1565674 0.07317458 -0.16256322 -0.07550528 0.13259815 -0.07273432 -0.06663263 -0.024480032
0.19625188 0.025653271 0.25462747 0.081152104 -0.18452841 -0.08987217 -0.008229557 -0.20700796
-0.08018512 0.2911622 0.15228939 -0.08119649 0.01843786 0.15277489 0.013255506 -0.22064687
-0.032641962 -0.014133449 -0.011032804 0.23227292 0.12991366 -0.03031451 0.056930184 -0.09201149
-0.1332793 0.10227969 0.08003816 -0.11681796 -0.2132877 0.1547002 0.1440725 -0.05916188
0.2851951 -0.07505663 -0.15705678 -0.16783476 -0.068540595 0.10991842 -0.092806906 0.05077947
0.11465306 0.15699773 -0.023007682 0.20604695 0.12456986 0.02972542 -0.12968592 0.005649914
0.04073449 -0.0959659 -0.007704915 0.02069183 0.28524148 0.20180596 -0.1136116 -0.05181216
0.10997052 -0.09543964 -0.17152767 0.24015616 0.07230757 0.112655036 -0.10990996 0.010685248
-0.22217883 0.055745248 -0.042895567 -0.107464015 -0.2593404 0.061343905 -0.020956384 0.3124914
0.10610461 0.06490586 -0.12929057 -0.04770205 0.015795799 -0.037908524 0.0041094963 0.12293574
0.06260162 0.088635996 0.0073142434 0.035632256 0.1632322 -0.10899421 -0.112112425 0.12119941
-0.001442907 -0.12788217 0.056052927 0.14624625 0.25260967 -0.11978139 0.09222566 -0.11945899
0.10377539 -0.049094737 -0.17085192 0.08713435 -0.16234097 0.11296499 -0.21844776 -0.25064716
0.009633345 -0.046456017 -0.2230823 0.26121557 0.16636069 0.077648446 0.08153221 0.21647425
0.22614652 -0.011856723 -0.19521643 -0.050549075 -0.041883145 0.0384031 -0.06412094 -0.028736806
0.14126272 0.11931345 -0.055766538 0.04896414 0.2610012 -0.036849093 0.070381515 -0.13465029
-0.12014058 0.037824526 0.18211932 -0.15291303 0.19330187 -0.030574573 -0.116322 0.13351107
0.24634738 0.066524856 0.090444274 0.15678914 -0.13798764 0.056034073 -0.13146646 -0.104728356
-0.20282821 0.09907414 0.22882235 0.03839973 -0.13204886 0.009443945 0.16439186 0.12013404
0.15515783 -0.09091529 0.01134608 0.059853904 -0.30316415 0.20869455 0.07107685 -0.2748668
-0.16332023 0.088335425 -0.019687248 -0.10162346 0.057615973 0.15721847 0.05649704 -0.1317704
0.22825384 0.20868433 0.08896003 -0.06820823 -0.049425345 0.20712602 0.10283092 -0.13748989
-0.04923854 -0.04013311 -0.10431196 -0.18979032 -0.13342029 0.11047006 -0.13102077 -0.012764758
0.18876398 0.104869284 -0.30037716 0.127231 0.12797947 -0.035958685 0.2734902 -0.031692058
0.14030394 0.23744215 -0.041702267 0.113665864 -0.026555972 0.12034874 -0.09014867 0.11453295
-0.0359827 -0.20439287 -0.1301257 -0.13302717 0.14967316 -0.10781871 -0.090151235 0.31754297
0.12471817 0.060561877 -0.21981083 -0.24622336 -0.22494526 0.07339974 -0.15691297 0.027924052
00000000: b6e4 b93c 8970 8f3d 8b8d bc3d 77a7 ff3c
00000010: 1ca4 d9bc 0291 6cbd 0c73 0f3e c8f6 bdbd
00000020: 9102 21be a277 91bd 75a3 e0bd 09dd 84bd
00000030: 2c86 8c3d 6fdd 77bd 4c99 ffbd 5e86 7abd
00000040: a306 503e 501f 17bc a935 62be c73a 913e
00000050: 91af 19be 181b 0abe ce6a 72bc 7b19 4ebc
00000060: b8d6 733e c248 7ebd 9b77 20be 27d7 a63e
00000070: 8a33 733d 8c83 883c b508 173e f9a1 e23d
00000080: 3453 203e 8edc 953d f976 26be 83a2 9abd
00000090: cfc7 073e bbf5 94bd b076 88bd 598a c8bc
000000a0: 41f6 483e cf26 d23c 885e 823e 1333 a63d
000000b0: 04f5 3cbe e60e b8bd 44d5 06bc e5f9 53be
000000c0: 1938 a4bd 3613 953e c0f1 1b3e 584a a6bd
000000d0: ff0a 973c 0571 1c3e 9f2d 593c 41f1 61be
000000e0: 94b3 05bd fb8f 67bc efc2 34bc f4d8 6d3e
000000f0: 1608 053e 2356 f8bc a02f 693d 8570 bcbd
00000100: 5e7a 08be 0478 d13d 0ceb a33d 413e efbd
00000110: 1768 5abe bb69 1e3e be87 133e ba53 72bd
00000120: 1805 923e 4ab7 99bd 7ed3 20be e0dc 2bbe
00000130: 035f 8cbd e91c e13d 8c11 bebd 22fe 4f3d
00000140: 39cf ea3d 03c4 203e 9b7a bcbc f9fd 523e
00000150: 7c1e ff3d b982 f33c 63cc 04be ea22 b93b
00000160: 35d9 263d c589 c4bd 8379 fcbb ea81 a93c
00000170: 2c0b 923e 39a6 4e3e 33ad e8bd fd38 54bd
00000180: 3938 e13d dc75 c3bd f3a4 2fbe 7feb 753e
00000190: fe15 943d afb7 e63d 7918 e1bd 2e11 2f3c
000001a0: d982 63be 2155 643d 43b3 2fbd 1816 dcbd
000001b0: 44c8 84be bf43 7b3d b9ac abbc dffe 9f3e
000001c0: 604d d93d 5ded 843d bf64 04be 3a63 43bd
000001d0: 3166 813c f845 1bbd f4a8 863b bcc5 fb3d
000001e0: 4735 803d ca86 b53d 52ac ef3b 21f3 113d
000001f0: 5826 273e 5b38 dfbd 339b e5bd 6537 f83d
00000200: ed1f bdba 8bf3 02be c197 653d 94c1 153e
00000210: 0e56 813e f24f f5bd cfe0 bc3d eaa6 f4bd
00000220: 3188 d43d 9017 49bd cef3 2ebe 7e73 b23d
00000230: b63c 26be 305a e73d c5b0 5fbe d354 80be
00000240: 2dd5 1d3c aa48 3ebd b06f 64be 0cbe 853e
00000250: 755a 2a3e 2606 9f3d 5cfa a63d 6dab 5d3e
00000260: f492 673e b342 42bc d1e6 47be 8c0c 4fbd
00000270: a98d 2bbd 924c 1d3d d751 83bd 7369 ebbc
00000280: 2da7 103e 9c5a f43d 746b 64bd 9f8e 483d
00000290: f3a1 853e 13ef 16bd 2f24 903d c4e1 09be
000002a0: 440c f6bd e4ed 1a3d 7d7d 3a3e 3c95 1cbe
000002b0: edf0 453e 8777 fabc 3b3a eebd 20b7 083e
000002c0: 7d42 7c3e 2f3e 883d d93a b93d 558d 203e
000002d0: a24c 0dbe fc83 653d 259f 06be d27b d6bd
000002e0: 33b2 4fbe 62e7 ca3d 6850 6a3e 0949 1d3d
000002f0: d137 07be c7ba 1a3c 5756 283e d608 f63d
00000300: b2e1 1e3e cc31 babd e9e4 393c 5e29 753d
00000310: 5538 9bbe 06b4 553e bd90 913d 57bb 8cbe
00000320: 6b3d 27be 34e9 b43d 2747 a1bc f61f d0bd
00000330: bafe 6b3d e1fd 203e 7169 673d d2ee 06be
00000340: 60bb 693e 58b1 553e ad30 b63d c2b0 8bbd
00000350: 3b72 4abd d818 543e 0499 d23d 26ca 0cbe
00000360: 5aae 49bd 9e62 24bd 82a1 d5bd 6558 42be
00000370: 549f 08be 203e e23d 4f2a 06be 4723 51bc
00000380: 584b 413e b5c5 d63d 09cb 99be d848 023e
00000390: 0d0d 033e 6a49 13bd e806 8c3e 88cf 01bd
000003a0: d6ab 0f3e 0924 733e ffcf 2abd a6c9 e83d
000003b0: e98b d9bc 6679 f63d de9f b8bd 4090 ea3d
000003c0: 9862 13bd 5d4c 51be ac3f 05be 4638 08be
000003d0: ec43 193e 0ed0 dcbd 36a1 b8bd fe94 a23e
000003e0: 3d6c ff3d bb0f 783d 1716 61be fa21 7cbe
000003f0: 0d58 66be 9a52 963d cbad 20be fbc0 e43c

gru.weight_hh_l0_reverse f4 [75, 25]
0.0048541743 0.15946676 -0.17857416 0.044293527 0.016558534 -0.03131158 -0.025629686 0.022691147
0.17995207 0.15278283 0.27199736 0.006998686 0.04365441 0.044404555 0.255977 0.05783051
-0.09229608 -0.24174085 0.008945724 -0.12272063 -0.24396311 -0.025365476 -0.05527744 0.024532596
-0.24682294 -0.050719116 0.17996955 -0.18352261 -0.14439291 -0.15587088 0.17152438 -0.028727459
-0.030248772 -0.10715241 0.0013638838 -0.0021412296 0.03209476 -0.030153327 0.115574695 -0.01633426
-0.026731974 0.092409335 -0.069216296 -0.055901866 -0.22707826 -0.1153385 -0.076413795 0.104339905
-0.21135172 -0.18799713 -0.05960063 -0.03391179 -0.14060898 -0.03990181 -0.29746664 0.15471505
0.13650851 -0.16200478 0.21680342 -0.026847564 0.19632463 0.18773067 -0.114409275 0.036301702
0.2161322 0.267449 -0.23322415 0.07649122 -0.030621044 -0.06906217 -0.14245953 0.11649442
-0.047252078 0.3081865 0.07784842 0.07128976 0.28380245 0.009871867 -0.12908575 0.10914747
-0.09284433 0.13614123 -0.24433047 -0.013549167 -0.027564213 -0.16642195 0.21530616 -0.23356484
0.15965177 -0.074428 0.11856999 -0.006005636 -0.24430512 -0.2208303 -0.009754501 -0.13874198
0.105842225 0.024734639 0.02917056 -0.2673868 0.2854321 0.093484096 -0.19839935 0.054944135
0.0003606576 0.20082253 0.17409508 0.0051625404 0.31805873 0.19456336 0.31770673 0.27262473
0.01373217 0.2347845 0.12478243 0.15138951 -0.041919958 0.04025835 -0.25624627 -0.32511112
-0.008991377 0.19127324 0.20439571 0.23483267 0.02955144 0.109864295 0.11242669 -0.27826685
-0.3556037 -0.2897614 0.10353444 0.2648465 -0.26760235 0.20798534 -0.010506418 0.040931176
0.2830914 -0.03226067 0.180043 0.27303663 0.15220766 -0.0984964 -0.07573976 -0.11876186
-0.19153401 -0.33640397 0.085393384 0.24465092 0.055638295 -0.2495918 0.003111164 -0.03557846
-0.19828703 0.11758602 0.104947545 -0.18173197 0.1649788 -0.1968566 0.060542107 0.04149985
0.009770128 -0.055971455 -0.08523864 0.08810471 0.18892562 0.104965694 0.011412326 0.008529238
-0.111087434 0.044569485 -0.080379725 0.036149047 0.037890755 0.12454882 -0.088010915 0.17397398
-0.27110565 0.02090997 0.03757599 0.033533823 -0.14620973 -0.07131345 0.04595579 0.18096992
-0.0367539 -0.15041746 0.19004966 0.11533222 -0.030280776 -0.037535965 -0.087448746 0.012706966
-0.082535364 0.0023094127 0.14487109 -0.04836746 0.050875742 0.22407953 -0.0037934382 0.07450602
0.04300905 0.017643299 -0.184759 -0.35074794 -0.32782978 0.27004543 0.32540905 0.0056027095
0.031481124 0.16694644 0.073016874 0.04891306 0.009172986 0.21589522 0.024298012 -0.028497478
-0.25893798 -0.17407835 -0.04383902 0.03900166 -0.13537501 0.12711641 0.28892848 0.17671388
-0.18346693 -0.061768413 0.29808557 -0.21645664 -0.122315474 -0.101662226 0.082414925 -0.01522179
-0.1812444 0.19279432 0.1401898 0.028717564 -0.0023653347 -0.08696018 0.15499039 0.022963157
-0.008592073 -0.14284945 0.08210865 -0.18918633 -0.20671599 -0.19743428 0.08629012 0.18132533
0.049125448 -0.040075786 0.095177725 -0.09540135 -0.22822209 -0.41180614 -0.01101037 0.35574874
00000000: c40f 9f3b 414b 233e 25dc 36be 216d 353d
00000010: c3a5 873c 9240 00bd 59f5 d1bc c9e2 b93c
00000020: 5b45 383e 1a73 1c3e 3d43 8b3e 3c55 e53b
00000030: f7ce 323d 8de1 353d 6b0f 833e afdf 6c3d
00000040: ba05 bdbd ea8a 77be 1691 123c f454 fbbd
00000050: 77d1 79be 42cb cfbc 996a 62bd 95f8 c83c
00000060: 27bf 7cbe d9be 4fbd f049 383e 5aed 3bbe
00000070: bcdb 13be 9e9c 1fbe 16a4 2f3e d955 ebbc
00000080: 46cc f7bc b972 dbbd 59c4 b23a df53 0cbb
00000090: cc75 033d 1c04 f7bc 6db2 ec3d 6dcf 85bc
000000a0: 03fd dabc 1b41 bd3d 46c1 8dbd 5bf9 64bd
000000b0: 3487 68be 9736 ecbd d67e 9cbd 29b0 d53d
000000c0: 966c 58be 5282 40be ca1f 74bd 17e7 0abd
000000d0: cdfb 0fbe 1570 23bd 8c4d 98be 9f6d 1e3e
000000e0: e3c8 0b3e 95e4 25be b701 5e3e 6cef dbbc
000000f0: 5309 493e 783c 403e 694f eabd 18b1 143d
00000100: c251 5d3e 13ef 883e 50d2 6ebe 6ea7 9c3d
00000110: fcd8 fabc 7870 8dbd e9e0 11be a094 ee3d
00000120: 658b 41bd 9fca 9d3e fe6e 9f3d 5e00 923d
00000130: 8e4e 913e 9cbd 213c 0e2f 04be b588 df3d
00000140: 2b25 bebd 9b68 0b3e c431 7abe 53fd 5dbc
00000150: 58ce e1bc 846a 2abe 3879 5c3e 9f2b 6fbe
00000160: c17b 233e b56d 98bd d3d4 f23d edca c4bb
00000170: 1f2b 7abe 5721 62be 58d1 1fbc 6112 0ebe
00000180: cfc3 d83d 4ca0 ca3c 19f7 ee3c ece6 88be
00000190: 2824 923e 9774 bf3d 3329 4bbe 1a0d 613d
000001a0: a516 bd39 6ca4 4d3e fb45 323e 872a a93b
000001b0: 98d8 a23e 9e3b 473e 75aa a23e 7895 8b3e
000001c0: e5fc 603c 596b 703e ee8d ff3d da05 1b3e
000001d0: 43b4 2bbd f1e5 243d b632 83be f774 a6be
000001e0: 9250 13bc 22dd 433e 1c4d 513e fa77 703e
000001f0: dd15 f23c 8800 e13d f73f e63d fe78 8ebe
00000200: b011 b6be 9b5b 94be dd09 d43d f699 873e
00000210: 2d03 89be 1cfa 543e 1c23 2cbc 73a7 273d
00000220: 5bf1 903e c423 04bd 315d 383e 75cb 8b3e
00000230: 53dc 1b3e 7bb8 c9bd 731d 9bbd 6b39 f3bd
00000240: 7e21 44be 243d acbe bae2 ae3d c585 7a3e
00000250: fbe4 633d fe94 7fbe ace4 4b3b b8ba 11bd
00000260: c10b 4bbe f0d0 f03d bdee d63d f217 3abe
00000270: 34f0 283e c794 49be 00fb 773d bffb 293d
00000280: e312 203c 5342 65bd 9991 aebd 3e70 b43d
00000290: b875 413e 41f8 d63d c4fa 3a3c 38be 0b3c
000002a0: cf81 e3bd 7e8e 363d 209e a4bd 0611 143d
000002b0: 5633 1b3d 7413 ff3d 113f b4bd 3c26 323e
000002c0: 5cce 8abe 634b ab3c 48e9 193d c35a 093d
000002d0: 01b8 15be c90c 92bd 233c 3c3d 2e50 393e
000002e0: 428b 16bd 0907 1abe 619c 423e 4d33 ec3d
000002f0: 640f f8bc 50bf 19bd 5418 b3bd e130 503c
00000300: 4d08 a9bd 8459 173b 1659 143e f51c 46bd
00000310: 1563 503d 1b75 653e 559b 78bb 9d96 983d
00000320: 422a 303d ae88 903c 7731 3dbe 3c95 b3be
00000330: 4ed9 a7be 6543 8a3e 049c a63e ef96 b73b
00000340: 5af2 003d 02f4 2a3e df89 953d 1059 483d
00000350: 4b4a 163c a313 5d3e a00c c73c 8b73 e9bc
00000360: 8593 84be 9841 32be 8b90 33bd 34c0 1f3d
00000370: bf9f 0abe ce2a 023e 6fee 933e 7cf4 343e
00000380: c1de 3bbe e000 7dbd ac9e 983e cfa6 5dbe
00000390: 8980 fabd 4934 d0bd 28c9 a83d d164 79bc
000003a0: 2298 39be e06b 453e ea8d 0f3e 1941 eb3c
000003b0: bb03 1bbb 2e18 b2bd cdb5 1e3e 3b1d bc3c
000003c0: c4c5 0cbc 2047 12be 9428 a83d 10ba 41be
000003d0: 5bad 53be 362c 4abe e0b8 b03d 59ad 393e
000003e0: c437 493d 8226 24bd 8aec c23d c861 c3bd
000003f0: 0db3 69be 41d8 d2be d764 34bc b324 b63e

gru.bias_ih_l0_reverse f4 [75]
0.17729765 -0.021676587 -0.07499435 -0.043101072 0.19368559 0.2125484 0.13873532 -0.096495636
0.22194616 -0.016107537 -0.10672765 -0.010796936 0.09760566 -0.118574016 0.02781967 -0.020569913
-0.035146717 -0.11102538 -0.028474212 0.20468394 -0.18222599 -0.016871946 0.24159199 -0.0018177923
0.2252586 0.046979856 -0.25341707 -0.20129403 -0.23882152 -0.15405957 0.05647977 -0.15822004
-0.06701063 -0.19236954 -0.24282792 0.091960125 0.1367599 0.07656355 0.11269219 -0.08729944
-0.1532023 -0.15311132 -0.25500253 -0.00684442 -0.23403265 0.044866636 -0.012853943 -0.19196336
-0.019396883 -0.17255789 0.01405134 0.10773851 0.09744461 -0.13697892 -0.0646427 0.13824415
0.10753791 -0.25912547 0.16191323 0.159372 -0.009582964 0.18850741 -0.1224776 0.1876386
0.103202246 0.116046436 0.10356183 0.036927044 -0.018814145 0.046029128 -0.15108028 0.13876154
0.10021528 0.13404332 -0.05266536
00000000: 848d 353e 1993 b1bc a396 99bd c08a 30bd
00000010: 8455 463e 4aa6 593e a210 0e3e 819f c5bd
00000020: db45 633e f4f3 83bc 0794 dabd a2e5 30bc
00000030: 7ae5 c73d efd6 f2bd 14e6 e33c 3c82 a8bc
00000040: 01f6 0fbd 4661 e3bd c042 e9bc ab98 513e
00000050: 7399 3abe 0937 8abc e463 773e fd42 eeba
00000060: 31aa 663e f36d 403d e2bf 81be 0620 4ebe
00000070: a18d 74be cbc1 1dbe 5557 673d 6f04 22be
00000080: df3c 89bd 85fc 44be e2a7 78be 9755 bc3d
00000090: ca0a 0c3e 5acd 9c3d 2acb e63d 0cca b2bd
000000a0: 10e1 1cbe 37c9 1cbe b18f 82be 2847 e0bb
000000b0: 41a6 6fbe 14c6 373d 5899 52bc 0b92 44be
000000c0: 36e6 9ebc 04b3 30be 9737 663c 02a6 dc3d
000000d0: 0a91 c73d 3444 0cbe 6463 84bd e08f 0d3e
000000e0: d63c dc3d 18ac 84be 95cc 253e 6a32 233e
000000f0: dd01 1dbc 1608 413e 89d5 fabd 5524 403e
00000100: b35b d33d c1a9 ed3d 3a18 d43d d040 173d
00000110: 1f20 9abc 0a89 3c3d cab4 1abe 8117 0e3e
00000120: ab3d cd3d a742 093e a2b7 57bd

gru.bias_hh_l0_reverse f4 [75]
0.23479505 0.11718014 0.19808978 0.22828145 -0.07408368 0.120340236 0.12967831 0.17432354
0.055985227 0.051974833 0.17014508 -0.0069338293 0.18902421 -0.05343781 0.20713747 0.029558973
0.24253516 0.09068282 0.058174152 0.16877009 0.066093646 0.2125635 -0.09335973 0.12796207
-0.026956417 -0.25480434 -0.19417988 -0.32574803 -0.25234836 0.081247315 0.1247184 0.004094231
-0.124487266 -0.025007838 -0.16977622 0.041341763 0.012199727 -0.25079712 -0.16576542 -0.11212766
-0.28002784 0.12637134 0.137387 -0.21115248 -0.2528903 -0.021372378 -0.064125314 -0.12701511
-0.11836197 0.05954273 -0.15529439 -0.13238512 -0.14303297 0.028575689 -0.03001667 0.19342212
-0.08427682 -0.015000163 0.077286646 0.15791056 0.1406732 -0.053940594 0.019098092 0.14905693
0.03594909 0.2230187 -0.03936595 -0.120865755 -0.07761028 -0.1387621 0.037227716 0.09272749
0.16225055 0.16112317 -0.15774645
00000000: 1d6e 703e 24fc ef3d 0cd8 4a3e 9dc2 693e
00000010: 2fb9 97bd f174 f63d 64ca 043e df81 323e
00000020: c450 653d 90e3 543d 833a 2e3e 2d35 e3bb
00000030: 908f 413e 9be1 5abd d81b 543e a925 f23c
00000040: 235b 783e eab7 b93d 0548 6e3d 11d2 2c3e
00000050: 1b5c 873d 3faa 593e 6333 bfbd 7d08 033e
00000060: b4d3 dcbc b775 82be 17d7 46be 72c8 a6be
00000070: ce33 81be fe64 a63d 5c6c ff3d e628 863b
00000080: 2ef3 febd 3ddd ccbc d1d9 2dbe fb55 293d
00000090: 5de1 473c 7b68 80be 69be 29be 30a3 e5bd
000000a0: cf5f 8fbe 7d67 013e 2daf 0c3e 5b38 58be
000000b0: d67a 81be 2015 afbc 2254 83bd 4010 02be
000000c0: c367 f2bd 14e3 733d 7e05 1fbe f78f 07be
000000d0: 3c77 12be 9017 ea3c 85e5 f5bc 7310 463e
000000e0: 5399 acbd 3ec3 75bc 7648 9e3d 4eb3 213e
000000f0: a30c 103e d0f0 5cbd 9a73 9c3c 61a2 183e
00000100: 5a3f 133d 045f 643e 313e 21bd 7788 f7bd
00000110: 23f2 9ebd a717 0ebe 177c 183d e9e7 bd3d
00000120: 0225 263e 79fd 243e 4988 21be

gru.weight_ih_l1 f4 [75, 50]
-0.08725769 -0.10729437 -0.01995154 0.14484417 -0.10670961 -0.067112714 0.2341909 -0.014706274
-0.14485645 -0.46987805 0.016929613 0.16920456 0.19499241 -0.030029448 0.15970662 -0.0517087
-0.015490782 0.26330355 -0.37036306 0.15667552 0.3494742 0.19998325 -0.024773676 0.20826466
0.0982199 0.21634148 -0.028027536 -0.2456142 0.080123395 -0.10218297 0.09734023 -0.07069898
-0.12679021 0.12307569 0.120377384 -0.012732347 -0.00083599275 -0.0927252 -0.03125679 0.21593055
-0.014062485 -0.011802863 0.011805133 -0.25772777 -0.26901194 0.10747458 -0.11127638 0.20681477
-0.052045267 -0.3396763 -0.06806182 0.08108788 -0.07365815 0.12951955 0.07120905 -0.26130882
0.034109447 -0.0715208 -0.2816745 -0.16059043 -0.18854366 -0.07059522 0.018528849 -0.048853938
-0.24961726 -0.095126994 -0.047809012 0.039935134 -0.062921464 0.073592596 0.16734451 -0.051430654
-0.098942846 -0.20491056 0.06209193 0.10219 -0.07686782 0.040587753 -0.07457993 -0.027291471
-0.075743675 0.04150763 0.015969886 0.15655965 0.20003472 0.2588887 -0.0029503955 0.019236019
0.1236547 0.0111798495 0.020731969 -0.1514616 0.045549564 -0.17382914 -0.07959936 -0.16118434
0.14779225 0.10692804 0.016826823 0.012951646 -0.117124565 -0.24377349 0.04359321 0.22904795
0.034065906 0.08295381 0.34480307 -0.16004017 -0.22454426 -0.38300052 0.18436612 0.065727726
0.257093 -0.10877545 0.035487946 -0.04136349 -0.17742331 0.023839485 -0.09920776 0.062447894
0.066677354 0.041816667 0.10355461 0.33864388 0.15178704 -0.031380817 0.27598596 -0.24424654
-0.08590566 0.032678857 0.024618937 0.20052712 -0.0842906 -0.05576994 -0.061230246 0.2781761
0.105454594 0.055281147 0.01088469 0.17849892 0.065250635 0.013317829 0.028647149 -0.2327232
-0.07281981 -0.010718139 -0.14252034 0.022075621 -0.029128995 -0.2113092 -0.23689628 0.063708425
-0.0069950223 0.21502037 0.14796843 -0.037067916 -0.059567496 -0.092522554 -0.09498236 0.06383838
-0.030576173 0.032540515 -0.06465049 -0.0066958535 0.15141356 -0.15534543 0.12001071 0.13402459
-0.27626944 0.08393421 0.005639009 -0.14201911 0.033484526 0.18942578 0.14381833 0.16821252
-0.063799106 -0.27033156 0.06315282 -0.15598331 0.13354151 0.06958398 -0.08538181 0.08256138
0.06468287 -0.064068615 0.17023103 -0.0059817014 0.026391301 0.0853309 -0.02007403 0.08924544
-0.26947042 0.11445747 -0.07875032 -0.022408858 0.20754243 0.18997078 0.32242215 -0.20331106
-0.10175038 0.19469821 -0.033917613 0.124469556 0.18756586 0.1709427 -0.10477027 0.13302387
0.03939737 0.17115833 -0.06626561 0.101000845 0.1721998 -0.08735074 -0.11948131 0.023545938
-0.014380345 -0.19864248 0.059050106 -0.12441406 0.042211045 -0.121726334 0.12731603 0.12862046
0.07363777 0.2648844 0.06013525 -0.056804568 -0.32270196 -0.28122932 0.2919126 0.035675954
-0.10544262 0.10963837 -0.03680782 0.19447641 0.15978816 -0.11790906 0.30029368 0.14099535
0.05339522 0.014112907 -0.085168056 0.009746668 -0.3517779 -0.022740157 0.11758944 0.09168337
0.11132876 -0.29956454 -0.057101626 -0.097808644 0.10482618 -0.06654717 0.12725562 -0.24570915
00000000: 29b4 b2bd 27bd dbbd 6971 a3bc 0852 143e
00000010: 918a dabd 6472 89bd bdcf 6f3e 95f2 70bc
00000020: 4055 14be db93 f0be f9af 8a3c f643 2d3e
00000030: 17ac 473e 5100 f6bc 228a 233e 80cc 53bd
00000040: 0dcd 7dbc b9cf 863e 3aa0 bdbe 8c6f 203e
00000050: 48ee b23e 69c8 4c3e 2af2 cabc 5543 553e
00000060: 8427 c93d 9f88 5d3e 019a e5bc 4a82 7bbe
00000070: bc17 a43d 4e45 d1bd 515a c73d a0ca 90bd
00000080: 4bd5 01be 1b0f fc3d 6b88 f63d 559b 50bc
00000090: 8626 5bba b6e6 bdbd 1f07 00bd e61c 5d3e
000000a0: 5666 66bc cc60 41bc 516a 413c e5f4 83be
000000b0: efbb 89be a21b dc3d dfe4 e3bd 40c7 533e
000000c0: 6b2d 55bd 0dea adbe ff63 8bbd 6711 a63d
000000d0: 16da 96bd c6a0 043e 0dd6 913d 45ca 85be
000000e0: 59b6 0b3d 7f79 92bd a437 90be d171 24be
000000f0: 9711 41be 3a94 90bd d0c9 973c 111b 48bd
00000100: ab9b 7fbe f1d1 c2bd 62d3 43bd 0693 233d
00000110: f8dc 80bd b7b7 963d 5c5c 2b3e f3a8 52bd
00000120: 8ca2 cabd 13d4 51be 1c54 7e3d fe48 d13d
00000130: e06c 9dbd 583f 263d 5dbd 98bd 5d92 dfbc
00000140: 801f 9bbd e803 2a3d 47d3 823c 2c51 203e
00000150: e7d5 4c3e 0f8d 843e 6c5b 41bb db94 9d3c
00000160: ad3e fd3d b02b 373c 17d6 a93c c018 1bbe
00000170: 2e92 3a3d 4400 32be fd04 a3bd 820d 25be
00000180: da56 173e 17fd da3d 68d8 893c 2433 543c
00000190: 01df efbd c29f 79be cb8e 323d 8c8b 6a3e
000001a0: b188 0b3d b0e3 a93d 078a b03e 92e1 23be
000001b0: eeee 65be a518 c4be 79ca 3c3e 429c 863d
000001c0: b2a1 833e aac5 debd cf5b 113d c36c 29bd
000001d0: 75ae 35be 064b c33c 702d cbbd 5dc9 7f3d
000001e0: 238e 883d f447 2b3d 7014 d43d bb62 ad3e
000001f0: 106e 1b3e 2c89 00bd 084e 8d3e c41b 7abe
00000200: 4fef afbd 44da 053d a7ad c93c fb56 4d3e
00000210: 8da0 acbd 056f 64bd 91cc 7abd 196d 8e3e
00000220: 94f8 d73d 7c6e 623d b355 323c 6cc8 363e
00000230: 20a2 853d 0633 5a3c 6dad ea3c fe4e 6ebe
00000240: 8d22 95bd 229b 2fbc daf0 11be efd7 b43c
00000250: ee9f eebc 7061 58be f094 72be 9079 823d
00000260: 8036 e5bb 4d2e 5c3e 0985 173e 87d4 17bd
00000270: 0cfd 73bd 777c bdbd 1d86 c2bd b2bd 823d
00000280: e27a fabc 3449 053d 7a67 84bd e468 dbbb
00000290: 280c 1b3e df12 1fbe 2dc8 f53d be3d 093e
000002a0: 3073 8dbe b3e5 ab3d 70c7 b83b 756d 11be
000002b0: 1227 093d d5f8 413e 1d45 133e e73f 2c3e
000002c0: 1ba9 82bd e668 8abe 4456 813d 17ba 1fbe
000002d0: 1bbf 083e 0c82 8e3d a9dc aebd f115 a93d
000002e0: 7478 843d 6836 83bd 0b51 2e3e 2602 c4bb
000002f0: 9232 d83c f8c1 ae3d 4b72 a4bc 50c6 b63d
00000300: 07f8 89be ae68 ea3d d947 a1bd c892 b7bc
00000310: 0186 543e b387 423e 8414 a53e c630 50be
00000320: 8162 d0bd f85e 473e 32ed 0abd e5e9 fe3d
00000330: 4411 403e 9a0b 2f3e cc91 d6bd 6937 083e
00000340: 235f 213d 2144 2f3e 44b6 87bd 88d9 ce3d
00000350: 2555 303e f2e4 b2bd 9eb2 f4bd 69e3 c03c
00000360: 8a9b 6bbc ef68 4bbe 86de 713d cccc febd
00000370: 7de5 2c3d a84b f9bd 225f 023e 15b5 033e
00000380: 66cf 963d ee9e 873e 6150 763d e8ab 68bd
00000390: 3139 a5be 4afd 8fbe 9175 953e f320 123d
000003a0: 4df2 d7bd 158a e03d ccc3 16bd d324 473e
000003b0: 829f 233e 4e7a f1bd 18c0 993e 1661 103e
000003c0: f2b4 5a3d d339 673c 976c aebd 7db0 1f3c
000003d0: 3c1c b4be 9149 babc bbd2 f03d 7ec4 bb3d
000003e0: 5500 e43d 8660 99be 65e3 69bd e64f c8bd
000003f0: 1caf d63d e249 88bd 4c4f 023e 2e9b 7bbe

gru.weight_hh_l1 f4 [75, 25]
0.0045821993 -0.17987837 -0.031681858 0.023710746 0.042638663 -0.17802992 -0.06287391 -0.0005860819
0.07444139 0.051226728 0.1267679 0.23825555 0.062257227 -0.15319765 0.094313495 0.12976503
0.05503325 0.2690395 0.04477891 0.06005657 -0.079460144 0.07439285 0.023473548 -0.033319082
0.07724916 0.008376088 -0.16034387 -0.13361278 0.049911737 0.0040737446 -0.19366902 -0.18346317
-0.015840013 0.057978116 0.13437259 -0.031621356 0.004316848 -0.02054065 0.05290914 -0.040707763
-0.15478404 0.11915921 0.15787521 -0.15847817 -0.12758209 -0.13311708 -0.18531917 0.23040548
0.066852525 -0.023684433 -0.07029018 -0.06814143 0.1947212 0.02415282 0.05319282 -0.338017
0.05941514 0.22393784 0.21682772 0.074923195 0.008055093 0.11779825 -0.13859712 0.03916638
-0.045489978 0.10823824 0.020155352 0.070949875 0.12829508 -0.07896825 0.034786146 0.03254584
-0.1537523 -0.10770369 -0.3098763 0.074235685 -0.19552076 -0.08703297 -0.0104347635 -0.10546496
0.14508909 -0.04952975 0.10589723 0.16645071 -0.15842892 0.0944776 0.22291362 -0.015007639
-0.26146838 0.2239363 -0.0043099886 0.06567168 -0.013097935 -0.00848892 -0.26543814 0.10351018
-0.056687485 -0.08663644 -0.06487513 -0.13405757 0.16610134 0.03219043 0.063290246 -0.1178101
-0.12540519 -0.1698108 0.018569179 0.1998579 -0.08829962 0.17830211 0.19779296 0.18122089
0.096124865 0.03431535 0.2872575 0.032459114 -0.0735752 -0.043462366 -0.085789196 0.12700546
0.16633777 -0.19163167 -0.24651112 -0.013438783 -0.18562661 0.05891014 0.0075368425 -0.18356849
-0.053174645 0.2180654 -0.11848407 -0.075533554 -0.20754698 0.059114143 -0.02329246 -0.19877604
0.1585006 0.12111312 -0.17399302 -0.15420155 0.092587985 -0.0062814364 -0.18478674 -0.09870144
-0.23940608 0.1399141 -0.004311458 -0.064493515 -0.06224967 -0.09988318 0.32579294 -0.0066840444
0.2889908 -0.06487201 0.07799001 -0.06374273 0.28848273 0.14421453 0.13448077 -0.0965314
0.14278442 0.21097685 -0.13573825 0.03604704 -0.03335509 -0.078522 -0.08670384 0.061382916
0.060398117 0.0964078 0.19918078 0.19414483 0.09230004 0.094459265 -0.33971125 0.11400723
0.16873655 -0.09640222 0.08805514 -0.06148923 -0.23256662 -0.23583317 0.09190609 0.029887596
0.036462978 -0.17515726 0.21431464 0.07946066 -0.24495359 -0.099771276 0.06515906 0.12966877
0.22211643 -0.23046257 -0.1432536 -0.02359547 0.09272742 -0.012283922 0.1907813 0.12722532
0.09168201 -0.106326275 -0.07131297 0.014828504 0.08981045 0.08020721 0.003775678 -0.07137661
0.10728197 0.033958 0.16838564 0.21269393 -0.033665784 0.17624393 0.18879758 0.11832247
0.027491372 0.14530158 -0.1537585 -0.09718392 0.016584942 -0.023676319 -0.27276927 -0.14464165
-0.028279964 -0.26456773 0.14133474 0.15880682 -0.054893088 0.04003342 0.35626838 -0.041991163
-0.22782078 -0.15024266 0.09680396 -0.16853169 -0.0672283 0.033789262 -0.13833554 0.10628638
0.10681584 0.029772121 0.053516626 0.10586276 -0.1410785 0.06445357 0.10428914 0.2381672
0.13454516 -0.06581943 0.0276413 -0.03272246 -0.007386735 -0.304957 -0.23294589 -0.19289796
00000000: 4626 963b 0932 38be d6c4 01bd 0a3d c23c
00000010: e1a5 2e3d 7a4d 36be 09c4 80bd 4aa3 19ba
00000020: ba74 983d 1ed3 513d 72cf 013e 43f9 733e
00000030: 6f01 7f3d d8df 1cbe 6f27 c13d 20e1 043e
00000040: 8c6a 613d 8cbf 893e 176a 373d e1fd 753d
00000050: 00bc a2bd 475b 983d 994b c03c 9779 08bd
00000060: cf34 9e3d dc3b 093c 2f31 24be cad1 08be
00000070: 4070 4c3d 0c7d 853b 2c51 46be c5dd 3bbe
00000080: eac2 81bc 767a 6d3d f898 093e 6585 01bd
00000090: 5874 8d3b dd44 a8bc 41b7 583d 2fbd 26bd
000000a0: b57f 1ebe be09 f43d 0aaa 213e 1a48 22be
000000b0: e1a4 02be d84f 08be 4fc4 3dbe 6aef 6b3e
000000c0: fae9 883d db05 c2bc 4cf4 8fbd bc8d 8bbd
000000d0: ff64 473e 23dc c53c b7e0 593d 9010 adbe
000000e0: 4a5d 733d f64f 653e 1608 5e3e 5571 993d
000000f0: 82f9 033c 3540 f13d 67ec 0dbe ed6c 203d
00000100: b353 3abd 03ac dd3d d61c a53c 2b4e 913d
00000110: c95f 033e 1bba a1bd eb7b 0e3d c94e 053d
00000120: 3e71 1dbe c193 dcbd 1ba8 9ebe e108 983d
00000130: 9836 48be 573e b2bd 92f6 2abc 03fe d7bd
00000140: 3c92 143e b5df 4abd a6e0 d83d 0e72 2a3e
00000150: 313b 22be 797d c13d 7843 643e 9ae2 75bc
00000160: 2fdf 85be 8f4f 653e ce3a 8dbb e07e 863d
00000170: b998 56bc 1c15 0bbc 82e7 87be 25fd d33d
00000180: 2331 68bd 726e b1bd 41dd 84bd 6346 09be
00000190: 7816 2a3e 1dda 033d 519e 813d 6c46 f1bd
000001a0: 386a 00be e2e2 2dbe 641e 983c 8da7 4c3e
000001b0: 6ed6 b4bd d494 363e 3d8a 4a3e f891 393e
000001c0: 1ddd c43d 418e 0c3d 6a13 933e d9f3 043d
000001d0: 98ae 96bd 9805 32bd 3fb2 afbd b80d 023e
000001e0: 7354 2a3e 183b 44be 696d 7cbe 572e 5cbc
000001f0: e714 3ebe c24b 713d 9ef7 f63b 61f9 3bbe
00000200: a8cd 59bd 894c 5f3e c7a7 f2bd 56b1 9abd
00000210: 3287 54be ac21 723d d4cf bebc f28b 4bbe
00000220: fb4d 223e 280a f83d 3a2b 32be 03e7 1dbe
00000230: c59e bd3d 82d4 cdbb bc38 3dbe fb23 cabd
00000240: de26 75be a445 0f3e 2247 8dbb 2d15 84bd
00000250: 83f9 7ebd 8d8f ccbd 55ce a63e d405 dbbb
00000260: 9af6 933e 9edb 84bd 3ab9 9f3d 8c8b 82bd
00000270: 02b4 933e f9ac 133e 54b5 093e 41b2 c5bd
00000280: 1436 123e 510a 583e f8fe 0abe 10a6 133d
00000290: 599f 08bd 24d0 a0bd c891 b1bd a76c 7b3d
000002a0: 0464 773d 7471 c53d 0cf6 4b3e e7cd 463e
000002b0: ce07 bd3d dc73 c13d a2ee adbe 9f7c e93d
000002c0: 46c9 2c3e 876e c5bd 4156 b43d 21dc 7bbd
000002d0: f225 6ebe 407e 71be 4339 bc3d d5d6 f43c
000002e0: 345a 153d 6d5c 33be 4c75 5b3e 45bc a23d
000002f0: 1dd5 7abe e254 ccbd 1d72 853d e4c7 043e
00000300: 7d72 633e 61fe 6bbe 12b1 12be 494b c1bc
00000310: e0e7 bd3d 8142 49bc 2c5c 433e 5b47 023e
00000320: c7c3 bb3d 97c1 d9bd 890c 92bd 41f3 723c
00000330: 8bee b73d ad43 a43d 5e71 773b e62d 92bd
00000340: a6b6 db3d 8b17 0b3d 496d 2c3e 70cc 593e
00000350: 22e5 09bd 4a79 343e 2754 413e 0d53 f23d
00000360: 9635 e13c f0c9 143e de72 1dbe 5d08 c7bd
00000370: 25dd 873c d7f4 c1bc 6aa8 8bbe f11c 14be
00000380: 62ab e7bc 6c75 87be 0eba 103e 419e 223e
00000390: 93d7 60bd 15fa 233d cf68 b63e edfe 2bbd
000003a0: da49 69be 36d9 19be 2841 c63d 9293 2cbe
000003b0: feae 89bd 9c66 0a3d d5a7 0dbe acac d93d
000003c0: 43c2 da3d aae4 f33c 4034 5b3d 93ce d83d
000003d0: e276 10be 3c00 843d 8b95 d53d 1ae2 733e
000003e0: 35c6 093e 56cc 86bd 0270 e23c fc07 06bd
000003f0: 6d0c f2bb 5323 9cbe 5e89 6ebe 0b87 45be

gru.bias_ih_l1 f4 [75]
0.07490045 0.25410637 0.18163301 0.24354276 -0.12293337 0.18873003 -0.1074768 0.22957006
-0.24826014 -0.03257664 -0.03135986 0.01564009 -0.0902599 0.22810198 -0.008708327 -0.02554898
0.05858676 0.2020783 0.1732438 0.011599092 0.039769568 0.070529014 0.053093422 0.06407757
-0.09063903 -0.09381832 -0.06891975 -0.35003453 -0.17190096 -0.23571245 -0.21757983 -0.08113053
0.035368536 0.15884072 -0.26059404 0.20417182 -0.18862638 0.015226075 -0.2577498 -0.086123735
-0.31878567 0.12544554 0.1655124 -0.13059698 -0.12823816 -0.13777794 -0.37662518 -0.20602977
-0.27715275 -0.18853444 0.062484603 0.06832989 -0.08540839 -0.06685485 0.15982711 -0.18656954
0.18787481 -0.13907515 0.109781526 -0.1471349 0.1776546 -0.023813989 -0.18408817 -0.2168714
-0.031128831 -0.0023330157 -0.05477825 0.11233422 -0.079662986 0.076570205 -0.16702695 0.114440314
-0.024524722 -0.015041485 0.16768968
00000000: 6865 993d 3b1a 823e 01fe 393e 4663 793e
00000010: 7ec4 fbbd 7242 413e cc1c dcbd 6a14 6b3e
00000020: e837 7ebe 156f 05bd 3273 00bd a51f 803c
00000030: 2fda b8bd 9193 693e 5fad 0ebc 184c d1bc
00000040: acf8 6f3d 9ded 4e3e d366 313e 1e0a 3e3c
00000050: 6ae5 223d 8471 903d 7d78 593d 1a3b 833d
00000060: f5a0 b9bd d223 c0bd cc25 8dbd ba37 b3be
00000070: ce06 30be 9b5e 71be 3fcd 5ebe c327 a6bd
00000080: 99de 103d 24a7 223e 956c 85be 6b12 513e
00000090: 4627 41be ca76 793c c8f7 83be a461 b0bd
000000a0: e037 a3be cc74 003e 157c 293e 37bb 05be
000000b0: dd50 03be a915 0dbe 04d5 c0be 78f9 52be
000000c0: f7e6 8dbe 2c0f 41be dbef 7f3d 8bf0 8b3d
000000d0: 98ea aebd 32eb 88bd b8a9 233e 160c 3fbe
000000e0: 4162 403e b769 0ebe 23d5 e03d 88aa 16be
000000f0: 16eb 353e 8e15 c3bc 9c81 3cbe 8913 5ebe
00000100: e401 ffbc 82e5 18bb 295f 60bd 7c0f e63d
00000110: 5926 a3bd d7d0 9c3d 1d09 2bbe af5f ea3d
00000120: 12e8 c8bc 9070 76bc d8b6 2b3e

gru.bias_hh_l1 f4 [75]
-0.04208494 0.005162682 -0.0024390651 -0.07536441 -0.18070255 0.23041704 -0.1284684 0.15518513
0.01147773 -0.12372697 0.2566586 -0.073379815 -0.14588979 0.068452 0.119150035 0.0011284096
0.12925996 0.18199347 -0.097355805 0.29623678 -0.005783311 0.17533167 -0.040946558 0.07198503
0.07390054 -0.32541606 -0.11940614 0.012856643 -0.32141903 -0.2260772 -0.056928314 -0.28094843
0.006138712 0.02151557 -0.054266643 -0.10079197 0.07205948 -0.19717588 -0.032841034 -0.2628202
-0.2835696 0.10095375 0.15997373 0.0072876187 -0.25189626 0.04317445 -0.1297554 -0.045689136
0.06259323 -0.022094488 0.011432381 0.046079215 -0.103777476 0.18993554 -0.033099324 0.1960394
0.03172841 0.046615213 0.0073393886 0.104519375 0.00939539 0.0020821812 0.037409738 -0.03403713
0.032692213 0.11030967 0.16206129 0.07531205 -0.18182985 -0.12331989 0.16455257 0.09571088
0.21960683 0.009441221 -0.033463407
00000000: 4261 2cbd b72b a93b b9d8 1fbb a858 9abd
00000010: 170a 39be 72f2 6b3e 388d 03be dae8 1e3e
00000020: 170d 3c3c 9164 fdbd c268 833e 2848 96bd
00000030: 2264 15be 9030 8c3d ef04 f43d 25e7 933a
00000040: b95c 043e 7f5c 3a3e 7b62 c7bd 59ac 973e
00000050: ee81 bdbb 258a 333e 94b7 27bd e36c 933d
00000060: 2b59 973d ef9c a6be 358b f4bd aba4 523c
00000070: 0991 a4be c880 67be aa2d 69bd 79d8 8fbe
00000080: 4027 c93b 6c41 b03c b346 5ebd 056c cebd
00000090: ec93 933d 79e8 49be 5284 06bd 5f90 86be
000000a0: 0930 91be d7c0 ce3d 27d0 233e facc ee3b
000000b0: 8cf8 80be b1d7 303d 99de 04be 8824 3bbd
000000c0: e130 803d 80ff b4bc e24e 3b3c 8fbd 3c3d
000000d0: 4989 d4bd 767e 423e 2893 07bd 8dbe 483e
000000e0: a6f5 013d 98ef 3e3d 417f f03b 410e d63d
000000f0: 1fef 193c 3475 083b f43a 193d 856a 0bbd
00000100: 45e8 053d 09ea e13d 65f3 253e 343d 9a3d
00000110: 9b31 3abe 238f fcbd 7880 283e 1104 c43d
00000120: 9de0 603e 5aaf 1a3c ed10 09bd
