checkpoints_gp/discriminator_checkpoint20.pth.tar (torch_old, 292887 bytes, 27 tensors)

gru.weight_ih_l0 f4 [150, 6]
000000 29 da 04 3e 7c 54 29 3d 69 3a b0 3d 17 98 95 ba
       0.12973846 0.041340336 0.08604891 -0.0011413124
000010 13 31 f7 3d 15 cb 8e bd 27 d6 c7 3d 14 4b 9d bd
       0.12069907 -0.069723286 0.09757643 -0.07680336
000020 16 c2 9c bd e0 b3 9b 3c ed 77 3d 3e 73 35 fa bd
       -0.076542065 0.01900667 0.1850278 -0.12217226
000030 e0 ac ed 3d bd 51 21 be df 98 9e bd 6d 4a 31 3d
       0.11605239 -0.15753837 -0.077440016 0.04328387
000040 0e a8 1f bc 96 da e3 3d 9f d0 10 3d 96 5f 13 bd
       -0.009744657 0.11125676 0.035355207 -0.03597983
000050 14 a5 bc 3d 37 14 11 3e 80 18 0d 3e c2 ed 16 3e
       0.09211174 0.14167868 0.13778877 0.14739135
000060 ae 0c b2 bc a5 b9 c3 bb e7 81 e4 3d fb 7f 9a bd
       -0.021734562 -0.0059730583 0.111575894 -0.075439416
000070 8c 40 e5 bd ca 77 d1 bd b3 db 0c 3e 41 1b ee 3c
       -0.11193952 -0.10227926 0.13755684 0.02906573
000080 26 2c bd 3d ad f5 00 bd ab 9b 09 bb b9 69 8a bb
       0.09236936 -0.031484295 -0.0020997326 -0.004224029
000090 9b bd 78 3d 39 da 1a bd f5 57 86 3d 98 40 44 bd
       0.060727697 -0.03780577 0.06559745 -0.047913164
0000a0 ba 2f fd 3d b4 5b 02 3e 53 13 ad 3d 21 63 67 bd
       0.12362619 0.12730294 0.084509514 -0.05649102
0000b0 bb 94 08 bd 58 91 1a 3d 60 f5 5f 3d 39 18 fa bd
       -0.033344965 0.037736267 0.054677367 -0.12211651
0000c0 72 2d 67 bd 12 24 ba ba af aa a6 3c 99 17 81 bd
       -0.056439824 -0.0014201424 0.02034506 -0.06303329
0000d0 3a 43 11 3c ba 78 a8 3d 68 e5 aa bd 1f fb 20 be
       0.008866126 0.08226152 -0.08344537 -0.15720795
0000e0 5b 96 58 bd c2 1e ab 3d ae fb fa 3d 4a 64 10 3d
       -0.052877765 0.08355476 0.12255035 0.035251893
0000f0 b4 f4 57 bc 8f 2a 0a bd e6 fa d3 3d bc e6 ab bd
       -0.0131809 -0.033731993 0.103505895 -0.083936185
000100 c7 7b 32 3d c5 4c dd 3d 1b a0 ca bd 88 4c 04 3e
       0.043575075 0.10805658 -0.09893819 0.1291982
000110 ed 7c a6 bc a1 a0 5a 3c db d0 0e 3d b3 d0 fc 3c
       -0.020323241 0.013343961 0.03486715 0.030861234
000120 05 13 9c 3c 16 b8 77 3d 32 08 f0 3d 34 bd cf 3d
       0.019052038 0.060478292 0.11720313 0.101435095
000130 b4 5a bd 3d d5 aa bb ba 6a be 1c 3e 92 6b 82 bc
       0.09245816 -0.001431788 0.15307012 -0.015920434
000140 cb 5a 11 3e da aa 07 3d d3 73 19 3e 67 9a f5 3d
       0.14194791 0.03312192 0.1498559 0.119923405
000150 d9 d6 a5 3d e4 11 8d 3d a6 01 1e 3d 9c 61 58 3d
       0.080976196 0.06888178 0.03857579 0.052827463
000160 1d b0 c1 bc 8c 22 8d bd a8 0a b8 3d c5 9c d9 bd
       -0.023643548 -0.06891355 0.089864075 -0.106256045
000170 5e ed 26 3e 41 0a 82 bd 83 54 18 3d ec 41 e5 3d
       0.16301486 -0.06349612 0.03718997 0.11194214
000180 59 66 22 3d cf d5 67 3d 54 45 b5 bc c0 34 d3 bd
       0.039648388 0.05660039 -0.022127785 -0.10312796
000190 ae 56 2c 3d ac 31 05 be 39 fd df bc f5 1e 02 be
       0.04207485 -0.1300723 -0.027342426 -0.12707122
0001a0 52 6a ba 3d 04 e7 0c 3e e3 ef bb 3d 8e 0a b3 bd
       0.0910231 0.1376 0.09176614 -0.087422475
0001b0 86 86 28 3e e2 80 a3 bd 6f fe ab 3d a9 81 69 bd
       0.16457567 -0.07983567 0.08398139 -0.05700842
0001c0 53 43 2d bc b8 30 fc 3d 36 76 1c 3e 02 e8 53 bd
       -0.010575133 0.1231398 0.15279469 -0.05173493
0001d0 5a e9 1f 3e d0 e4 d1 3d 8b a7 89 3d e1 ca 86 bd
       0.1561636 0.10248721 0.067214094 -0.06581665
0001e0 6e ac 3f be 6b e9 37 be eb 24 80 3c 4e 89 5f bd
       -0.1871812 -0.17960136 0.015642604 -0.054574303
0001f0 ed 9e e6 3d 1c 8f 34 3e b3 82 f4 bc e0 3f ab ba
       0.112607814 0.17632717 -0.029847478 -0.0013065301
000200 5e ed 91 bc 39 44 d1 3c 30 a9 36 3d 5e 09 0d 3e
       -0.01781338 0.025545226 0.044594944 0.13773105
000210 c1 ec 97 3c 08 89 1d bc 9c 05 da bd 65 66 0b 3d
       0.01854551 -0.00961519 -0.10645601 0.034033198
000220 d7 ee 43 bc 80 6a 30 bc 43 58 d2 bc e0 3d 2a bd
       -0.011958799 -0.010767579 -0.025676852 -0.041562915
000230 23 41 8c 3c 47 8d 04 bd d8 f9 41 3e 22 2b cf bc
       0.017120903 -0.032361295 0.18942964 -0.025289122
000240 f6 ae b5 3c a4 81 e6 bd 89 9e a3 bd e5 b5 dd 3c
       0.022178154 -0.11255196 -0.079892226 0.027064273
000250 d6 98 ca 3d 63 01 ce 3d 28 bb 06 bc 67 2d fb 3c
       0.098924324 0.10058858 -0.008223332 0.030661298
000260 fc d9 dd bd 93 8e d0 bd 11 85 10 3e b4 e4 65 3d
       -0.10832593 -0.10183444 0.14113261 0.05612631
000270 80 bd 0a 3e 96 4e 17 be 56 1f 6c bd 4c 44 8c bd
       0.13548851 -0.14776072 -0.05764707 -0.06848964
000280 ea cd 9e 3c de 46 0f 3d 0e a8 ed 3d 4c ed 18 bd
       0.019385297 0.034979694 0.116043195 -0.03733568
000290 d6 bf b9 3d 69 c9 76 3d 37 a4 cf bc c9 f9 9a 3d
       0.09069793 0.060250673 -0.025346858 0.07567174
0002a0 b5 93 96 3d 54 b0 0b be a6 d8 17 3e dd bf a7 3c
       0.07352392 -0.13641483 0.14828739 0.02047723
0002b0 21 87 94 bd 4c 40 09 bc e9 ba fd 3c 99 89 9c bc
       -0.07252336 -0.008377146 0.030972915 -0.01910858
0002c0 8a 7e b6 bd 4e 99 27 bd f4 a7 3b 3e e1 8a a5 3d
       -0.08910854 -0.040917687 0.18325788 0.0808313
0002d0 e6 2e af bd 61 0e ae 3d ac 44 5a 3e f1 2a 41 3d
       -0.08553867 0.08498836 0.21315259 0.047160093
0002e0 9b f4 b5 3d 33 7f f9 bd 0a e3 a8 bd 17 f5 4b 3b
       0.088845454 -0.121824645 -0.08246429 0.0031121427
0002f0 42 c1 cd bc c6 57 51 bd ac b3 81 3c f0 a3 62 bd
       -0.025116567 -0.051109098 0.015832745 -0.055332124
000300 67 e7 47 3e 81 f7 ed bd 4d fd d6 3d 53 3c fd 3d
       0.19521867 -0.11619473 0.10497532 0.123650216
000310 2c cf d5 bd 6b 33 89 3d 97 9e fa bd 0c c3 a6 bd
       -0.104399055 0.0669926 -0.1223728 -0.08142671
000320 be 5a a8 bc 40 fb ec bd 18 c3 3a bd 6b 56 b1 3c
       -0.020551082 -0.1157136 -0.045596212 0.021647653
000330 75 00 32 3e 47 78 80 3d c0 9a e2 3d a9 23 6a 3d
       0.17382987 0.06272941 0.110646725 0.057162914
000340 86 33 66 3d 10 ad c1 3d 45 08 4b bc fb 80 28 3d
       0.05620148 0.09456837 -0.012392108 0.04113863
000350 50 c4 ae 3d e1 7a 49 3d 03 94 19 3e dc 8d 14 be
       0.085335374 0.049189452 0.14997868 -0.1450724
000360 d6 11 c8 bc 9e 50 10 bd f3 b0 ee bd 9b d7 96 3d
       -0.024422567 -0.035233133 -0.11654844 0.07365342
000370 14 0d bd bd 14 36 09 be 4b cb 8e 3b 1a d7 73 bd
       -0.0923101 -0.13399535 0.0043577305 -0.05953131
000380 f6 6b 1f bc 45 dc 52 3d a5 5f c4 bd 02 64 2d 3c
       -0.00973033 0.051479597 -0.09588555 0.010582926
000390 cf 27 22 3d 78 b0 44 3d 9c c4 88 3d d3 90 b9 bd
       0.039588746 0.048019856 0.06678125 -0.09060826
0003a0 34 3f 0f bb b0 04 c1 3d 26 87 0c bd f9 ed b4 3d
       -0.002185774 0.09424722 -0.034308575 0.08834452
0003b0 c8 65 f6 3d d9 e6 63 bd 34 54 ed 3b a7 97 91 3d
       0.12031132 -0.055640075 0.007242704 0.071090035
0003c0 1a 1e 9e 3c b8 74 c7 3d 41 5b 28 3e 84 dc dc 3d
       0.019301463 0.09739059 0.1644106 0.107842475
0003d0 29 60 7c 3b 79 f1 95 3c 13 0b 14 3e db e1 73 3c
       0.0038509464 0.01830362 0.1445735 0.014885391
0003e0 85 0d 46 3c b6 94 16 be ed b4 0c 3e 3e e3 46 bd
       0.012088184 -0.14705166 0.13740893 -0.04855656
0003f0 16 60 e4 bd ca d8 51 3d fb 20 0a bd a0 f4 58 bc
       -0.111511394 0.051232137 -0.03372286 -0.013241917

gru.weight_hh_l0 f4 [150, 50]
000000 eb 3e 1d bd a4 a8 b6 bd 76 6c 1d be 07 bf cb bc
       -0.03839008 -0.089188844 -0.15373406 -0.024871362
000010 a3 44 94 3b cc 86 d5 3a e1 0e ac bd ec 2d 12 3e
       0.0045247837 0.0016290783 -0.084012754 0.1427533
000020 54 67 fe 3d 51 cb 90 3d 8c ad 08 be f4 8e ea bd
       0.12422052 0.070700295 -0.13347453 -0.114530474
000030 7c e9 ad bc d4 c7 5a 3d d1 12 b2 3d 77 f1 14 3c
       -0.021229498 0.053413227 0.08694995 0.009090773
000040 9d 31 35 3d 54 a2 1b be 2a dc 51 bc 04 80 88 bd
       0.044236768 -0.15198642 -0.012808839 -0.06665042
000050 48 60 cd bd dd 90 37 bc 36 82 d3 bd be fa fe bd
       -0.1002813 -0.011203972 -0.1032757 -0.12450169
000060 bf 45 ee bd 93 8a 8a 3d 8e 8c 3c bd 09 99 22 3e
       -0.11634397 0.06764712 -0.04603248 0.15878691
000070 b2 8c b8 bc 65 01 c4 bd 44 28 26 be c7 6f 08 be
       -0.022528026 -0.095705785 -0.16226298 -0.1332389
000080 5d ea 70 bc 5c 04 6f bd 3a d9 0b be be ae 72 3d
       -0.014704314 -0.058353767 -0.13657084 0.05924868
000090 b9 64 97 bd 9d 4e 7e bd a8 ae 9d bd 84 b2 b0 3d
       -0.07392258 -0.06208669 -0.07699329 0.08627799
0000a0 99 2a 89 3d 66 f3 ea bd 57 93 16 be 38 57 31 3d
       0.06697578 -0.11472206 -0.14704643 0.04329607
0000b0 90 71 b3 3d c5 e2 9e 3c 8f 78 d8 bd b8 fb 11 3e
       0.08761895 0.019395242 -0.1056987 0.1425618
0000c0 a5 9d ad 3c 95 28 12 3e f0 57 5c bc fa 63 0d be
       0.021193335 0.14273293 -0.0134487 -0.1380767
0000d0 71 64 b1 bd 49 bc 22 3e 04 f5 ae 3d aa a6 1a be
       -0.08661736 0.15892138 0.08542827 -0.1510264
0000e0 3a f7 95 3c d5 ae fb 3d fc 7c 92 bd 60 5c 64 3d
       0.018306363 0.12289206 -0.07152745 0.05575216
0000f0 b2 76 9a 3d 2c 37 81 bd 12 16 81 3d 36 d2 07 be
       0.075421706 -0.06309351 0.06303038 -0.13263783
000100 a5 0f 01 be 7d 38 b9 3c 8c a0 17 bd 55 53 c8 3d
       -0.12603624 0.022609944 -0.037018344 0.09781519
000110 da 83 0b 3e 7b f7 cb 3d 85 db c6 3d 73 fe 2b 3d
       0.13624516 0.099593125 0.09709839 0.04199071
000120 7b 1a 00 3e 8f ed 19 be 67 79 ae 3a 34 fa 63 3c
       0.12510101 -0.15032028 0.0013311327 0.013914634
000130 4d fd 9e 3d f2 78 3f 3e 74 58 fd bd 0c 5a fe bc
       0.07763157 0.1869848 -0.12370387 -0.031048797
000140 40 7c e6 bc b7 41 c8 3d 99 0c cf bc e7 b5 38 3d
       -0.028135419 0.09778159 -0.025274562 0.04509535
000150 88 4a b3 bd 17 d2 dc bd fe ac 28 3e 0a 38 f4 3b
       -0.0875445 -0.10782259 0.16472241 0.0074529694
000160 a4 3b d9 3c 79 f9 ea bd 48 4e 30 3d 87 df d6 3d
       0.026517697 -0.114733644 0.043043405 0.10491853
000170 fa 03 21 be 61 9d 1b be 72 42 92 3d 93 63 21 be
       -0.15724173 -0.15196754 0.0714158 -0.15760641
000180 ec 0c 99 bd ba d3 a4 bd a9 45 45 3d eb ef a3 3d
       -0.07473168 -0.08048196 0.048162136 0.08004745
000190 d6 a0 2a 3d b5 7a 1a be 88 f1 67 bd 47 43 8e bc
       0.04165729 -0.15085872 -0.056626827 -0.017366065
0001a0 13 9c 16 3d 41 30 ea bd ce 0a cc 3d 9f 9e d6 bd
       0.036769938 -0.11434985 0.09962998 -0.10479473
0001b0 04 34 a7 3d aa 60 4d be 7e 48 8f 3d 94 78 00 be
       0.08164218 -0.20056406 0.06996249 -0.12545997
0001c0 b0 43 ae 3c 7c 4e 23 be 14 f7 84 3d a7 7c 8f bd
       0.02127251 -0.15947908 0.06492439 -0.070061974
0001d0 ba 9d be bd 8f 4c f7 bd 80 7b 95 3d 49 75 57 bd
       -0.09307428 -0.12075149 0.072989464 -0.052602086
0001e0 af 1a 05 be 5c 4b 7a bc f5 5d d9 bc c7 ed b8 3c
       -0.1299846 -0.015276756 -0.02653406 0.022574319
0001f0 9e 3b 1e 3d ed 5e d6 bc b1 d4 a1 bd 4a db a6 3d
       0.038631074 -0.026168311 -0.07901896 0.08147295
000200 38 b7 42 3d 49 02 dd bd f2 ae 31 bc bc 48 1b 3b
       0.047538012 -0.107914515 -0.010844933 0.0023694476
000210 de 9f fb bc f9 32 fe bc 95 e9 27 3d f2 06 8d 3c
       -0.030715879 -0.031030165 0.040994246 0.017215226
000220 41 3a a1 bd 7c ff c3 3d 5b 51 ae bd 7e be 18 be
       -0.07872439 0.09570214 -0.08511611 -0.14916417
000230 39 53 34 be 2e 00 cd 3c 7a b1 c2 bd d0 c7 e7 bd
       -0.17609872 0.0250245 -0.09506507 -0.11317408
000240 07 35 0f bc cc 38 02 3e 09 5d 38 3e fb 57 66 bd
       -0.00874067 0.12716979 0.1800424 -0.05623625
000250 52 16 08 3d 36 ab 03 be 02 ed a7 3d b7 67 83 bd
       0.03322441 -0.1285828 0.081995025 -0.064162664
000260 5c c5 ae 3d 12 ab 8a bc 66 05 a7 3d e3 82 04 3e
       0.08533737 -0.016927276 0.081553265 0.12940554
000270 be aa 42 bd 6d 05 c4 bc 9e 4b 4d bd 60 4c a6 3d
       -0.047526114 -0.023928368 -0.050120942 0.08120036
000280 43 45 e4 bd ad 32 d8 bc 05 c8 15 3e 73 e1 b9 3d
       -0.11146023 -0.026391352 0.14627083 0.09076204
000290 b3 4c c5 3d 0b 29 ff bb 96 ea 89 3d 05 2d c3 3d
       0.0963377 -0.007786875 0.06734197 0.09530071
0002a0 88 94 98 3d e2 7b 49 3d 22 2a bc 3d c9 37 80 3d
       0.07450205 0.04919041 0.09187724 0.0626064
0002b0 a4 67 be 3c de 68 8e bd 4a b7 82 bd 2f d4 f0 3d
       0.02324278 -0.069535956 -0.06382616 0.11759221
0002c0 4e 20 b1 bd c7 6a 0e 3e fc f5 97 3d 89 42 3d bc
       -0.0864874 0.1390792 0.07419965 -0.011551508
0002d0 40 b4 16 be 4f d5 4b bd 7b 35 8e bd b5 15 77 bd
       -0.14717197 -0.049763974 -0.06943794 -0.060323436
0002e0 2c d0 10 bd b9 38 08 be 60 af 27 3c 9c c6 25 3d
       -0.03535478 -0.13302888 0.010234684 0.04047261
0002f0 96 56 d3 3b 32 46 58 bd e6 c6 9e 3d 92 69 a4 bc
       0.006449531 -0.05280132 0.077527806 -0.020069871
000300 01 d9 04 be e6 e6 89 bd d7 c4 38 bd 0b 3f 8c 3d
       -0.12973405 -0.067334935 -0.045109596 0.06847962
000310 73 bb 95 bd 76 2b 3c 3e c1 ef f5 bb ca 53 e2 3d
       -0.07311144 0.18375954 -0.0075053875 0.11051138
000320 5a b9 23 bd af 8d 0f be 93 f2 60 3d 19 d1 ac bd
       -0.039971687 -0.14018892 0.054918837 -0.0843832
000330 0b 2e 10 be 1e 0d 99 bd d3 ac ec 3d cd 27 db 3d
       -0.14080064 -0.07473205 0.11556401 0.10700951
000340 04 10 aa 3d c8 07 ca 3c 67 f8 1f 3e 1d a7 91 3d
       0.08303836 0.024661914 0.15622102 0.071119525
000350 50 93 ae 3d 3e e4 24 bd ca 52 cc 3d c2 23 cd bd
       0.085241914 -0.04025673 0.09976728 -0.10016586
000360 78 ed 53 bd 36 13 0c bd 96 8c 5f bd e8 15 19 3c
       -0.05174014 -0.03419801 -0.054577433 0.009343602
000370 b6 c0 00 be 06 08 90 3c a5 34 e0 bb f1 de 0f bd
       -0.12573513 0.01758195 -0.006842213 -0.035124723
000380 89 eb 07 bd 9d b4 b8 bd c5 28 c2 bd b5 13 a4 3d
       -0.03318361 -0.09018824 -0.094804324 0.08011571
000390 79 89 18 3d a1 c2 bb 3c d1 ab d0 bb 1d 01 c0 3d
       0.03724048 0.022919955 -0.0063681384 0.09375212
0003a0 64 79 9b 3c 32 d2 57 bc 3f 03 e7 3d e8 6d b5 3d
       0.018978782 -0.013172673 0.11279916 0.088588536
0003b0 c4 3d 77 bd 7d e6 33 bd ff 85 13 3d 62 9d 27 be
       -0.06036164 -0.043920983 0.03601646 -0.1636863
0003c0 10 8e 8f 3d a4 ff 9d 3d e7 ac f9 bc 5d 04 44 3c
       0.07009518 0.07714775 -0.030477954 0.011963931
0003d0 34 7c 07 3e ee b6 fc bd 3a 7a 1e 3d 7a 6d 0d 3e
       0.13230973 -0.123395786 0.038690783 0.13811293
0003e0 e5 a3 db 3c 07 dc d0 3d 66 89 6a bc d3 9e 3a bc
       0.02681155 0.10198217 -0.014314985 -0.011390406
0003f0 bb 73 30 bd f0 97 f5 3c f9 e9 7c 3d 12 94 79 bc
       -0.04307912 0.029979676 0.06174657 -0.015233057

gru.bias_ih_l0 f4 [150]
000000 af ff 32 3e ba bf e6 3d 0c ef 35 3d af 38 24 3e
       0.17480348 0.11267038 0.044417426 0.16037248
000010 b6 c8 46 bd 06 cb e3 bc 02 63 1f bc fa db db 3d
       -0.048531257 -0.02780677 -0.009728195 0.107353166
000020 9f 58 40 3e c2 e7 8c 3d e8 63 1c bd ae a8 68 bd
       0.18783806 0.06880142 -0.038181216 -0.05680149
000030 2c 1a a5 bd 1c 53 1c 3e 8e 58 90 bc df fe 0f 3e
       -0.080616325 0.15266079 -0.017620351 0.1406207
000040 25 51 9f 3d 0f 70 bf bc 0f e6 24 3e 28 f9 a7 bc
       0.07779149 -0.023368863 0.16103385 -0.02050455
000050 4f 83 54 3c 02 85 08 3c c1 fd 7c bd 34 98 17 3e
       0.0129707595 0.008332493 -0.061765436 0.14804155
000060 c6 cd 07 bd 40 07 90 3b e7 7d 4a 3c 7d 8e 8e 3d
       -0.033155225 0.0043953955 0.012359119 0.06960771
000070 3a 53 d1 3d 48 cb 37 3e 0d 6d 46 bd 5f 90 82 bd
       0.10220952 0.1794864 -0.048443843 -0.06375193
000080 b0 60 44 3d ab 18 03 3d 10 47 d9 3d 09 0f 23 bd
       0.04794377 0.032005947 0.10609257 -0.03980926
000090 96 ce 98 3c fe 2e f5 3d 44 8e 6a 3d 5e 26 ef 3c
       0.018653195 0.11971854 0.05726458 0.0291931
0000a0 8f ff 6b bd a1 d5 4b bb 05 30 c6 bd 3c db da bd
       -0.057616767 -0.0031102675 -0.09677128 -0.10686347
0000b0 0c 68 34 bd e6 f5 cc bd f2 6e 08 3e 57 0c d3 3d
       -0.04404454 -0.10007839 0.13323572 0.10305088
0000c0 ff c7 f5 3d 50 4a 79 bd 75 91 07 be 3d 0b e7 bd
       0.12001037 -0.060861886 -0.13239081 -0.112814404
0000d0 94 7f b4 3d 98 bc df 3c c4 58 b5 3d 77 7e 15 3e
       0.08813396 0.027311608 0.08854821 0.14599024
0000e0 25 2b 38 bd 6d af d5 bd 6e 5a 45 3d 87 a7 aa bd
       -0.04496302 -0.104338504 0.048181944 -0.083327346
0000f0 ef 9c 06 be 61 ee 76 bd c1 f8 f4 bc 63 8c ce bc
       -0.13145803 -0.06028593 -0.029903771 -0.025213426
000100 f8 08 e4 ba 3e 69 5e 3c 38 4b 1a be 09 85 32 3d
       -0.0017397692 0.013574896 -0.15067756 0.043583903
000110 bd f0 99 bd f4 f1 0b 3e 7f 69 e7 bd 12 a4 7b bd
       -0.0751662 0.13666517 -0.11299419 -0.061435767
000120 97 8e fb bd ac 8f 04 be 00 e6 b5 3c fe fd 02 be
       -0.12283056 -0.12945431 0.0222044 -0.12792203
000130 3d 24 3c 3c ae 61 22 3d ef 76 8d 3d aa 71 ee 3c
       0.011483249 0.039643936 0.069074504 0.029106934
000140 09 74 9a 3b ea 18 8c bd af af 18 be b2 54 8e 3d
       0.0047135395 -0.068406895 -0.14910768 0.06949748
000150 6d 59 e6 3d 88 9b 46 be db 2d f9 3d f1 bc 53 be
       0.11247525 -0.19395268 0.12166949 -0.20677544
000160 80 5c 75 3d 76 df 4b bc e5 7c ad bd 59 29 a7 bd
       0.059902668 -0.012443414 -0.08471087 -0.08162183
000170 14 d8 5b bd d4 9b 84 bd 1b d2 ee 3c 72 3f a5 3b
       -0.053672865 -0.06475034 0.02915292 0.0050429637
000180 7e d7 54 bd e7 02 31 3d 42 76 16 bd d0 5b 8a bd
       -0.051963322 0.04321566 -0.036733873 -0.06755793
000190 96 72 c0 3d af 74 de bd 89 54 21 3c 76 36 c8 3d
       0.093968555 -0.108620994 0.009846815 0.097760126
0001a0 9f f0 8b bd 13 fb 16 be 25 c5 e4 3d 40 a9 be 3c
       -0.06833004 -0.14744215 0.11170415 0.023274064
0001b0 e7 dd dc 3d 0c 7b bb bd 8d 08 a2 bd 5f 97 4c 3b
       0.10784512 -0.09154329 -0.07911787 0.0031218154
0001c0 d0 36 c8 3d 69 56 5b bd 3a fb fd 3c 75 ed e0 3c
       0.0977608 -0.053549204 0.031003583 0.027456978
0001d0 1f 31 aa 3d 44 62 53 3d df 97 67 bd e9 29 a0 3d
       0.0831015 0.051607385 -0.05654132 0.07820494
0001e0 b6 db 0f be d5 55 96 3c bf f7 ef 3d 3f ed 19 3d
       -0.14048657 0.018351475 0.11717176 0.03757977
0001f0 55 ae 1a be 33 7d e6 3d 66 98 0f 3c 03 9e 80 3d
       -0.15105565 0.112543486 0.008764362 0.06280138
000200 0c b1 58 3d 58 b4 86 3d 71 fd 09 be 50 46 83 bd
       0.05290322 0.065773666 -0.13475586 -0.064098954
000210 f1 12 b1 3b 5c 4a 4c bd 75 b6 91 bd 05 dd 45 be
       0.0054038693 -0.049875602 -0.07114879 -0.19322594
000220 14 36 28 3c 46 c0 8b 3d bc b4 14 bd 32 d3 9a bd
       0.0102667995 0.068237826 -0.036305174 -0.075598136
000230 cd 45 68 3d 54 17 9e bd 1e 28 8b bd a2 5d dc bd
       0.056707192 -0.07719293 -0.06794761 -0.107600465
000240 5f a2 58 bd a5 4c 38 bc 0a 08 1b 3e fa c8 00 3e
       -0.052889224 -0.011248742 0.15139785 0.12576666
000250 9d d6 8b 3d fe cf c9 3c
       0.068280436 0.024635311

gru.bias_hh_l0 f4 [150]
000000 aa 15 3c bd be 02 1f 3e 9e e3 0e bd a1 f1 24 bc
       -0.045919098 0.1552839 -0.03488504 -0.010067374
000010 73 91 ab 3d e8 d7 21 bd 72 88 b3 3d c8 21 1d bc
       0.083773516 -0.039512545 0.08766259 -0.009590574
000020 e1 a1 e9 3d 00 56 00 3e 41 a6 04 3e 28 7a fd 3d
       0.11407829 0.12532806 0.12954046 0.12376815
000030 ca fd 0c 3e 6f ab cf 3d 11 7d c1 3c 9e c8 a7 3d
       0.13768688 0.1014012 0.023619207 0.081925616
000040 49 4c e5 3c 2a ee 33 3e 4c 3b 3f 3d 36 25 08 bd
       0.027990477 0.17571321 0.04668741 -0.033238612
000050 0d 75 13 3e 3a d5 44 3b aa 8f b8 bc 52 28 ba bd
       0.1440012 0.003003432 -0.022529442 -0.09089722
000060 8f 17 d8 3d f4 3e 68 3d c2 72 8a bd 3b e3 87 3d
       0.105513684 0.05670066 -0.067601696 0.06635138
000070 90 df ac bc c6 d9 94 bd 0b b0 be 39 bf 38 c6 bd
       -0.021102697 -0.072680995 0.00036370786 -0.09678792
000080 41 84 a9 3d 68 34 94 bc 99 cf 63 3d 65 b3 4a bd
       0.082771786 -0.018091395 0.055617902 -0.04948749
000090 c2 85 15 bd 69 21 32 bd de b7 ab 3d 8f 6c 0c ba
       -0.036504515 -0.043488894 0.08384679 -0.00053567527
0000a0 8a e5 88 bd 54 52 78 bc 1a d7 16 bc 53 ee 52 3d
       -0.06684406 -0.015156347 -0.009206558 0.051496815
0000b0 12 35 c2 bd 44 aa 14 3e d5 cc af 3c 7e 0c 5a bd
       -0.094827786 0.14518076 0.021459976 -0.05323457
0000c0 38 6e f0 bd 89 b5 36 3e c9 b9 26 3d ad 2d 0d be
       -0.117397726 0.17842688 0.040704522 -0.13786955
0000d0 e0 51 a0 bc 16 6b d6 bd e7 ac e4 bd 3d f9 89 bd
       -0.019570291 -0.10469644 -0.11165791 -0.067369916
0000e0 f7 b4 87 3d c7 e3 ce bd 4f ec 55 3d 6b d5 26 be
       0.06626313 -0.10102039 0.052227315 -0.1629235
0000f0 38 2f 57 3d 59 67 2b be f4 20 94 3c 06 20 13 3d
       0.052535266 -0.16738643 0.01808212 0.03591921
000100 ad 92 a2 bd b1 87 cf bd 0f 76 9b bd a9 da 2f be
       -0.079381324 -0.10133303 -0.07590877 -0.17173256
000110 10 14 42 be ec 19 9f bd 8e db 68 3d f0 fd 36 be
       -0.18952966 -0.07768616 0.05685001 -0.17870307
000120 97 ce 31 be 6b e4 6e bc 2e 9c 5e 3d f7 4e b5 bd
       -0.17363964 -0.014580826 0.054348163 -0.08852952
000130 27 6c 77 bc b6 ec 0f be 65 30 0e be 06 64 1a be
       -0.015101469 -0.14055142 -0.13885649 -0.15077218
000140 7b a2 d2 bd f4 5f 06 3d e4 66 20 bc 60 44 fb bd
       -0.10284897 0.03280635 -0.009790156 -0.12268901
000150 c1 c3 90 3d fa ee 7f bd 5b 32 b3 bd cd e2 d9 3c
       0.07068587 -0.062483765 -0.08749839 0.026597405
000160 89 5a c2 bc 2f e9 24 3d 9f 1a cd bc 73 22 36 3c
       -0.023724811 0.040261444 -0.025037108 0.011116612
000170 cf f0 56 be db cb 0a be 22 df 67 3d 80 34 c2 3d
       -0.20990299 -0.13554327 0.05660928 0.0948267
000180 cf 33 f0 bd 8c a2 b0 3d d2 6b 0f 3d 4f 83 a6 3d
       -0.11728632 0.08624753 0.035014935 0.08130514
000190 b4 ee 1a 3e 87 b6 13 be 50 fc 53 bd 97 1f b1 3d
       0.1513012 -0.14425097 -0.051754296 0.086486034
0001a0 5b f6 44 bd 24 73 3a 3d aa 7e 0e 3e d1 cd 17 3d
       -0.048086505 0.045519963 0.13915506 0.037061516
0001b0 e8 5c 51 bd 04 99 6f bd 81 bb 09 bb fa 42 26 be
       -0.051113993 -0.058495536 -0.0021016302 -0.16236487
0001c0 aa 18 c2 3d 77 e8 84 bd b7 0c b2 bd 82 78 e5 3d
       0.094773605 -0.06489652 -0.086938314 0.11204626
0001d0 1f 54 31 bd 81 9a 78 bd 9a 89 74 bd 6e 98 2c 3d
       -0.043293115 -0.06069422 -0.05970154 0.042137556
0001e0 f2 f5 8a 3d 3f e6 10 bc 4c 6e 6c bc c8 a7 71 bd
       0.067851916 -0.008843957 -0.014430594 -0.0589979
0001f0 17 66 a3 3d 95 5a 94 3c 5a c5 3e 3d 94 ab 60 3d
       0.079784565 0.0181096 0.046574928 0.05485113
000200 3b f1 92 3c 8a 2d d5 3d 09 f2 f2 3d 07 e2 8a 3d
       0.017937293 0.104090765 0.11862571 0.067813925
000210 e3 4a 39 bd 7c c9 d5 bd 3b d4 f2 bd ba 66 81 3d
       -0.045237433 -0.10438821 -0.11856886 0.06318422
000220 4a 25 0f bd 42 2e e3 3d 32 04 8c 3d e8 67 2f 3e
       -0.03494767 0.11092807 0.06836738 0.17129481
000230 57 11 71 bd e6 5e 3f bd 86 d5 94 bd cf 45 0c be
       -0.058854427 -0.04672136 -0.07267289 -0.13698505
000240 b2 a3 9c 3d b6 84 fd bc eb c2 d1 bd 1b 24 c7 3d
       0.0764841 -0.03094707 -0.10242256 0.097236834
000250 e0 74 ea 3d f9 e8 ba 3b
       0.114480734 0.005704042

gru.weight_ih_l1 f4 [150, 50]
000000 8b d6 46 3d fa 54 33 bd 3c 02 9e bd c8 7f 33 3d
       0.048544448 -0.04378221 -0.0771527 0.043823034
000010 0d b9 10 be 28 2e 01 be ee 72 be bd 9d fa 55 3d
       -0.14133091 -0.12615263 -0.09299265 0.052240957
000020 0b 6d 2b 3e e1 5d f5 3d 91 b1 02 be dd 12 d5 bd
       0.16740815 0.119807966 -0.12763049 -0.104039885
000030 52 d4 34 3d 99 e9 64 bd c9 0f 09 3d 7f a3 81 bc
       0.044147797 -0.05588684 0.03346232 -0.015825031
000040 66 9c 10 3e f4 0c 03 3b e9 38 56 3d 57 89 e8 3d
       0.14122161 0.0019996734 0.052300368 0.113543205
000050 82 a5 11 3e 52 f3 f1 3d f3 cb 3a 3d 72 29 c4 bd
       0.14223292 0.11813988 0.045604657 -0.095782176
000060 44 25 46 3e e9 5c a0 bd 7d eb 1c 3e bb cc e8 3d
       0.19350153 -0.07830221 0.15324207 0.11367174
000070 86 33 66 bd 4a 1b 88 bd e3 a0 f0 3c d1 8a f4 bb
       -0.05620148 -0.0664583 0.029373592 -0.0074628373
000080 8d f3 46 3c 6d c5 35 be 9d 89 ec bd f7 71 90 bc
       0.012143028 -0.17751093 -0.11549685 -0.017632468
000090 50 74 52 be 46 e4 02 3e 10 a6 32 bb 5f be a6 3c
       -0.20552182 0.12782392 -0.0027259625 0.020354448
0000a0 f5 bf 22 3e e6 3b 18 3e 6c a2 8f bc 5a 75 a3 bc
       0.15893538 0.148666 -0.017533503 -0.019953419
0000b0 d1 c1 26 be 9b 7a d6 3d 83 f5 b9 bd ad 0c 16 3d
       -0.16284873 0.10472604 -0.09080031 0.036633182
0000c0 8b 38 ac bd 80 4e ab 3d 46 91 68 bc 83 5a ba bd
       -0.08409222 0.08364582 -0.014194792 -0.09099295
0000d0 10 8e 24 3c ea 91 6d bd 57 24 78 3d d6 ba b4 bd
       0.010043636 -0.058000483 0.06058153 -0.088246986
0000e0 39 db fe 3d d0 52 49 bd 24 fe 05 3e df b3 38 bd
       0.12444157 -0.04915124 0.13085228 -0.045093413
0000f0 50 c8 9a bd 0a b3 da bc 40 a7 34 3e c2 7d 81 3b
       -0.07557738 -0.0266967 0.17641926 0.003951759
000100 52 fd 1d 3e 8f d2 32 3e af 0d cc bd 07 cf cc 3c
       0.15428665 0.17463134 -0.099635474 0.025001062
000110 91 cf f1 bd 91 9f 1f 3c 24 6c ea bd 39 52 ab bc
       -0.11807168 0.009742633 -0.114464074 -0.02091323
000120 e8 2c c9 bd b9 9d 3c bd 4f 0b 0c 3e a4 79 bc bd
       -0.09823018 -0.046048854 0.13676189 -0.092028886
000130 f5 ea b3 3c 16 fc bb bc 13 b0 3d 3d 1f 99 b4 bc
       0.021962622 -0.022947352 0.046310496 -0.02204567
000140 a7 af 0e be fe 03 40 bd 20 f4 4e bd e4 6e 88 bd
       -0.13934194 -0.046878807 -0.050525784 -0.06661776
000150 0d 10 ea 3c 9b 97 f2 bd 20 f2 86 bb 32 4b 46 bd
       0.028572107 -0.11845323 -0.004118219 -0.048411556
000160 f6 99 16 be f3 44 2c be 21 15 d7 bb 41 ef 8d bd
       -0.14707169 -0.16823177 -0.006563798 -0.069304
000170 74 e3 ab 3d 78 17 e3 39 21 2f b4 3c 7c 07 18 3c
       0.083929926 0.000433143 0.021995129 0.009279128
000180 26 c0 57 3d e8 a2 f9 3c 66 21 d3 3d 99 59 c0 3d
       0.05267348 0.030473188 0.103091046 0.093920894
000190 79 ae f9 bb 11 3f f2 bd 07 14 12 bd 52 5f 58 3c
       -0.0076196757 -0.11828435 -0.03566363 0.01320632
0001a0 31 12 22 be e7 a6 1c 3e 42 ee 8b bd d2 f5 23 3e
       -0.15827252 0.15298043 -0.068325534 0.16011742
0001b0 b6 0d 4d 3e 5c 39 97 3d a6 2c ab bb 88 9a 9c 3d
       0.20024762 0.07383987 -0.0052238284 0.07646662
0001c0 38 0c 81 3b 18 53 65 bd 17 bc bc bd 8b a5 2d bd
       0.003938224 -0.055987448 -0.09215563 -0.042394202
0001d0 a5 80 87 bd 42 27 20 bd 03 20 47 be ed 58 0b 3e
       -0.06616334 -0.03909994 -0.19445805 0.13608141
0001e0 eb 07 0e bd a8 6c 2f bd 9b 79 48 3d e3 b7 a3 3d
       -0.03467552 -0.042828232 0.048944097 0.07994058
0001f0 39 0c dc 3d 91 8b bc bc b8 85 a1 3d 27 ff b9 bd
       0.10744519 -0.02301577 0.07886833 -0.090818696
000200 60 7b 62 bb 40 aa 2a 3d 6d 0e bc bc df 31 2d 3d
       -0.00345584 0.04166627 -0.022956097 0.04228389
000210 56 4c af bd 88 73 b2 3c 87 64 a3 bd 40 c5 04 be
       -0.08559482 0.021783605 -0.079781584 -0.1296587
000220 5b 9f 39 be ca c8 f8 3d 24 87 fc bd d1 66 94 bc
       -0.18127196 0.121476725 -0.123304635 -0.018115433
000230 a1 fe 5b bd 4a 09 a0 bc 25 a5 ca 3d a8 fb 0a be
       -0.05370963 -0.01953568 0.0989478 -0.13572562
000240 38 c3 01 3e 21 71 45 3d d3 0c 98 3b 0c e3 c9 3d
       0.12672126 0.04820359 0.0046402006 0.09857759
000250 71 59 16 3e 2f 8c e6 3d ab 66 cd bd 50 8d b3 bd
       0.14682557 0.11257207 -0.10029348 -0.087671876
000260 30 d3 03 bd 2b 9d c7 bd da 8d 0a 3e ad 12 94 3d
       -0.032183826 -0.09746774 0.13530675 0.072301246
000270 03 db 85 3d 62 69 8f bc 22 0f 68 bd 28 cb 17 3e
       0.06535914 -0.017506305 -0.056655057 0.14823592
000280 a4 bd 69 bd e9 f9 b8 3a d8 fd 0f 3c f1 6b e3 3c
       -0.05706562 0.0014112565 0.008788548 0.027761431
000290 b1 53 98 3d bf a9 97 bc b1 d1 b0 bd d4 2e dd 3d
       0.07437838 -0.018513558 -0.086337455 0.107999474
0002a0 d8 d0 86 3d 2c 4f 24 3d 7f 67 8b 3c 11 f6 2a bd
       0.065828025 0.040114567 0.017017124 -0.041738573
0002b0 b5 fb be bd 3c e7 38 3d ac c7 dd bd 4d 96 28 3e
       -0.09325353 0.045142397 -0.108291 0.16463585
0002c0 7b 22 17 bd 71 6d 80 3d e4 88 74 bd d9 1b 6d bc
       -0.036898118 0.06270874 -0.05970086 -0.014471971
0002d0 60 c4 4e 3d 77 69 ec 3b 70 c2 08 be 5a e4 87 3b
       0.050480247 0.007214721 -0.13355422 0.0041470947
0002e0 52 a7 f8 3d 3e b4 be 3d 33 1d ef bd 7e 7c bc bd
       0.12141289 0.09311722 -0.11675491 -0.092034325
0002f0 d0 38 fa bd d0 37 17 be 0e 14 35 3e 79 57 8f 3d
       -0.122178674 -0.14767385 0.17683432 0.06999106
000300 50 5b 67 bd 5d a0 c1 3c 4e 3b 7c 3c 81 2f 76 bd
       -0.056483567 0.023636037 0.015394999 -0.060103897
000310 ec 59 75 bd 38 51 9e bd ad 88 04 be 45 8b 9a 3d
       -0.05990021 -0.07730335 -0.12942763 0.07546095
000320 9d fa fa 3d 36 91 db bd 39 10 13 be e4 97 24 bc
       0.12254832 -0.10721056 -0.14361657 -0.010045979
000330 ec 23 dd bc f1 11 4d 3d d6 e9 0b 3e 2e 4e 88 bd
       -0.026994668 0.05006594 0.1366342 -0.066555366
000340 79 2b 8a bd 34 6f 57 bd 57 a3 f0 3d cf 79 a5 3d
       -0.06746573 -0.052596286 0.117499046 0.08079874
000350 77 94 48 bc 0d 62 b4 3c 84 fb 30 3d 49 f7 c1 bc
       -0.012242428 0.02201941 0.043208614 -0.023677485
000360 3a 1d f2 bd 5f fc b9 3c 9b 9d 0d be 11 8f 06 bc
       -0.11821981 0.022703348 -0.13829653 -0.008212821
000370 ce 00 ed 3d db fd 9a 3d bd c9 93 bd 17 1a d3 bc
       0.11572419 0.0756795 -0.07216213 -0.025769277
000380 13 62 cf bb b9 01 cd 3d 1f 34 b6 3d d6 fe 47 3d
       -0.00632883 0.10010094 0.0889666 0.048827015
000390 29 5a c7 3d 93 bd 13 3d 77 2d b5 3d 6a da ce 3d
       0.097339936 0.036069464 0.08846562 0.10100253
0003a0 f9 9d f3 3b 7d cb d2 3d 96 cf 4a 3d 1d ea ab 3d
       0.0074346033 0.102927186 0.049514376 0.08394263
0003b0 3e 30 20 3e 3e 38 ad bd 1d 18 0e 3e ed 92 ab 3c
       0.15643403 -0.08457993 0.13876386 0.020944083
0003c0 bb 7d 26 bd 26 09 65 3c 62 42 2f be e9 ac d3 3c
       -0.04064725 0.013979232 -0.17115167 0.025839286
0003d0 d6 b5 cc bd 9e 5a 95 3d ae 64 29 3c 99 56 0c 3e
       -0.0999562 0.072926745 0.010338945 0.1370491
0003e0 8a 67 c9 bd 8d 45 ad 3d f7 be 50 bd 95 92 df bd
       -0.09834202 0.084605314 -0.05096337 -0.1091663
0003f0 60 a9 82 3d 0a 9e a7 3d 0e d7 5a 3d 90 9b f6 bd
       0.06379962 0.081844404 0.05342775 -0.1204139

gru.weight_hh_l1 f4 [150, 50]
000000 a6 ea 11 be cc 4a 3b 3c a9 28 65 3d ce 84 16 bd
       -0.14249668 0.011431407 0.05594698 -0.036747746
000010 26 2b 9f bd 08 6a 14 3e 86 7f 4d bd b9 d6 11 3d
       -0.07771902 0.14493573 -0.050170444 0.035605166
000020 2b ee 69 3c 13 c6 07 be ea 65 30 3d f2 63 a8 bd
       0.014277975 -0.13259153 0.043065943 -0.08222188
000030 02 41 08 be 15 5d d4 3c c4 6b 89 3d d0 18 5d bd
       -0.13306049 0.025923291 0.06710008 -0.05397874
000040 1c d1 6e 3d b3 d8 9c bc 5b 7c c9 3b 12 8a 17 bd
       0.05830489 -0.019146299 0.0061488575 -0.03699691
000050 e5 0f 2f 3e db f8 3b 3d 2e b8 a9 3d de 49 10 bd
       0.17095907 0.045891624 0.082870826 -0.035226695
000060 73 b4 18 be a1 47 9d bc 9a b3 de bc 0e 35 e8 bd
       -0.14912586 -0.019199194 -0.02718525 -0.113382444
000070 00 92 2a bc e3 af fc 3d f9 bf 87 bd 50 9e bd bc
       -0.010410786 0.12338235 -0.06628413 -0.023146778
000080 42 a5 82 bc bd 56 66 bd ef 77 0a be 0f 2e 51 bd
       -0.015947942 -0.056235064 -0.13522314 -0.051069316
000090 a6 aa f5 3d 93 a0 4d 3e 18 80 24 bd 08 f0 2d 3e
       0.11995439 0.20080785 -0.040161222 0.16986096
0000a0 61 06 7f bd 01 cb 8f bc 3e ac ba bd 57 2b 0a 3e
       -0.062261943 -0.017552854 -0.09114884 0.13493095
0000b0 e3 ed f2 bd f0 2a ea 3d 58 71 e8 3d bb 15 0a be
       -0.118617795 0.11433971 0.113497436 -0.13484852
0000c0 e2 89 75 3d e8 55 09 3e 81 03 d7 3d 9c 64 14 3c
       0.05994595 0.13411677 0.10498715 0.00905719
0000d0 39 ce ad bd ec 02 10 bd a3 36 ea 3d b4 54 89 bc
       -0.084865995 -0.035159037 0.114362024 -0.016764022
0000e0 ed bb 17 3e fe 74 dc 3d 8e e5 41 3d fd fd e9 bd
       0.14817782 0.10764502 0.04733806 -0.114253975
0000f0 e4 22 b3 bb 11 ec 14 3e 3a f4 7f 3d c7 2e aa 3d
       -0.005466806 0.14543177 0.062488772 0.08309703
000100 0e 43 9a bd c7 dc ed bd cf 24 d8 bd 30 5c 1b bd
       -0.07532321 -0.116143756 -0.10553896 -0.037929714
000110 d7 0b 18 bd 48 92 26 bd 8b 41 34 bd b8 f2 e6 3c
       -0.037120666 -0.04066685 -0.04400782 0.02819191
000120 45 e1 29 3d ef 8e e0 3d df 18 cf 3c 68 86 dd 3d
       0.0414746 0.109647624 0.025280414 0.108166516
000130 4c 82 9b 3d 2b 66 57 3d 58 b5 1f 3e 54 e4 44 3d
       0.075932115 0.05258767 0.15596521 0.048069313
000140 a1 9a 7a 3d eb 32 80 bd 05 d3 f8 bd fe 2a 20 be
       0.061182622 -0.06259712 -0.12149624 -0.156414
000150 99 37 b4 3c 34 ef a3 3d 9f b3 02 bd b7 eb 8b 3d
       0.021999167 0.08004609 -0.03190958 0.068320684
000160 29 b1 a3 3d 68 b8 15 bd 94 d3 b8 3d 36 16 c0 3d
       0.07992775 -0.036552817 0.0902473 0.093792364
000170 a1 ca 04 bc ce 45 dc bd 51 12 39 be d8 5f 7f bd
       -0.008104951 -0.10755502 -0.18073393 -0.062347263
000180 e4 7d 0a 3d 11 e1 28 3e 6b 2b 1d 3d 83 1c 83 bb
       0.033811465 0.16492106 0.038371485 -0.0040012016
000190 6b 21 d0 bc ce d6 e6 bd 6a 85 6a bd e6 9e b6 3d
       -0.02540656 -0.112714395 -0.05725614 0.08917026
0001a0 fe e3 d9 3c 9f 9c e9 bd c8 07 e6 3a 23 19 d0 bc
       0.026597973 -0.11406826 0.0017549926 -0.025402611
0001b0 3e 8e 31 bd 95 e4 5d bd 38 6a 00 bd f4 d0 d4 3d
       -0.043348543 -0.05417307 -0.031351298 0.10391417
0001c0 63 1f 35 3d e8 32 a8 3d 74 48 b9 bd 9e 92 61 3d
       0.044219386 0.082128346 -0.090470225 0.055071466
0001d0 a5 f9 de bc 82 e1 46 bd 3a ee 85 bb a5 96 1d 3d
       -0.02721865 -0.048554905 -0.0040872367 0.038473744
0001e0 8f 2d 98 3d 3e 93 08 bc 5c c7 d4 3d a8 75 6e 3c
       0.074305646 -0.0083358865 0.10389587 0.014554419
0001f0 62 fd e6 bd d5 a1 13 3e d9 8d cd 3d 3f 58 11 be
       -0.11278798 0.14417203 0.10036821 -0.1419382
000200 d1 48 8f 3d f6 2a 07 3e f8 4d bf bd 0b 89 4c bd
       0.069963105 0.13199982 -0.09341043 -0.04993538
000210 b0 10 2f be 4e 52 3d 3d 4f c3 b6 3c 05 24 3d bd
       -0.1709621 0.04622107 0.022309927 -0.04617693
000220 27 7f 9e bd 9e 24 52 3d 3f 28 89 3d b6 8a 89 bd
       -0.07739096 0.051304452 0.066971295 -0.0671591
000230 2f f7 9e bc 15 7b 79 3d 65 fa 7d bd 70 e7 7a 3d
       -0.019404976 0.060908396 -0.062006373 0.061255872
000240 3c 14 09 3d eb e8 1a 3c 85 3c 25 3e a3 58 b7 3d
       0.033466563 0.009454946 0.16136368 0.08952453
000250 85 21 a8 bd e8 41 76 3d 6b 31 92 3c e7 16 44 3c
       -0.08209518 0.060121447 0.01784583 0.011968351
000260 26 fe 02 bd 3a d2 18 be e4 7f 0c bd 2a 8a 90 3d
       -0.031980656 -0.14923945 -0.034301654 0.07057603
000270 ff 00 d6 3c 5f 81 f2 bd 40 7f bc 3c dc 55 11 be
       0.026123522 -0.11841082 0.023009896 -0.14192909
000280 ed 01 d1 bd be 34 b3 bb c9 5d ef 3b 97 5e 7e bd
       -0.102054454 -0.005468934 0.0073048812 -0.062101927
000290 f2 91 d6 bd c0 6c f8 3d 2b 1e 0f 3e 36 05 27 3d
       -0.104770556 0.121301174 0.13976352 0.040776454
0002a0 6b 19 bf bd e1 0f 0b 3d 74 57 48 3c 3b 27 a0 bb
       -0.0933102 0.03395069 0.012227882 -0.004887489
0002b0 39 d6 ef 3d 39 95 09 3d fa 09 c7 bb a9 66 71 3c
       0.117107816 0.033589575 -0.0060741873 0.014733949
0002c0 9b 9d b0 bd 4a 9c b2 bc 6d 6c b6 bc 31 d6 11 be
       -0.08623811 -0.02180304 -0.022268498 -0.14241864
0002d0 a6 fa cc bd 62 b7 09 3e 13 19 89 3c c4 ac b3 bd
       -0.10008745 0.13448861 0.01673559 -0.08773187
0002e0 72 fa 81 3c 97 88 d4 bd 46 08 91 bd 6c ed 01 3e
       0.015866492 -0.10377615 -0.07081656 0.12688226
0002f0 2a bd a4 bd fe b2 ab 3d 74 5c f7 bd 69 7a 93 bd
       -0.08043893 0.083837494 -0.12078181 -0.07201082
000300 9e 49 fe 3d a4 36 7d bd ad 18 aa bc 13 6f bc bd
       0.12416385 -0.061819687 -0.02076372 -0.09200873
000310 3f 90 9b 3d 1f 99 ca 3d 78 c6 88 bd a0 dd 0c be
       0.07595872 0.09892487 -0.0667848 -0.13756418
000320 a1 3f fb 3d 65 3d b3 3d 0c de a9 3d bb af 24 3d
       0.122679956 0.087519445 0.08294305 0.040206652
000330 db 9d 89 bd d1 ec 0f 3e af 8e 92 bc 28 e8 9f bd
       -0.06719562 0.14055182 -0.017890302 -0.07807952
000340 7f 73 e1 bd ca 0b 07 be ea 23 a8 bc af 0f b7 3d
       -0.11008357 -0.13188091 -0.020524938 0.08938538
000350 84 39 ce bd 50 a7 bb 3d c7 0e 53 bc f1 c2 7a bd
       -0.10069564 0.09162772 -0.012881941 -0.061221067
000360 62 33 40 bc 4e 36 ca bd f8 6c 2c be bc 9e 8b 3d
       -0.011731001 -0.09873639 -0.16838443 0.068173856
000370 a4 4d 32 3e 86 48 6f bd 56 57 c9 bb be 40 14 3e
       0.1741243 -0.058418773 -0.0061444445 0.14477822
000380 bf ae ce bd 85 62 be bc 59 1d 9e bd ae c8 a7 bd
       -0.10091924 -0.023240337 -0.07720441 -0.081925735
000390 8e 6a 1f 3e 77 1e 73 3d 13 f3 bc 3d c2 e4 ed 3a
       0.15567991 0.059355225 0.0922605 0.001814984
0003a0 6d bd ba 3d 6c 6f f3 bc 8e 92 11 bd b1 64 fe 3d
       0.09118161 -0.029716216 -0.035540156 0.12421549
0003b0 b3 2a 1d 3d 28 33 32 3e ee 2a 90 bc 69 ab ab bd
       0.0383708 0.17402327 -0.017598595 -0.08382303
0003c0 2e 97 a8 3d a0 0e aa bd 0b 3d 09 be 18 23 e2 bd
       0.0823196 -0.08303571 -0.13402192 -0.1104185
0003d0 41 08 ca 3d ed 88 53 bd de 3c af 3c d9 7a e8 3d
       0.098648556 -0.051644254 0.021391328 0.11351556
0003e0 10 3d 92 bd 9e 80 f0 3d 7d 71 67 3d 7e 18 c5 bd
       -0.07140553 0.11743282 0.056504715 -0.09623812
0003f0 6e 4d b3 3d 5f 5e 56 3d 74 bf 24 3d e1 36 d0 bc
       0.08755003 0.052336093 0.040221646 -0.025416793

gru.bias_ih_l1 f4 [150]
000000 81 8b 37 3e 78 8f 28 3e 83 c0 c5 3d 04 a1 07 3e
       0.1792431 0.16460979 0.09655859 0.13245016
000010 1c 85 f5 3d f4 3b b6 3d 67 4a b0 bd c1 7d 1e 3b
       0.11988279 0.08898154 -0.08607941 0.0024183842
000020 c6 42 f2 3b bd d9 29 bc ab 82 b9 3d 91 35 25 3e
       0.007393214 -0.010366854 0.09058126 0.16133715
000030 71 11 69 bd 06 52 be 3b 4a 80 04 3e ab 69 28 3e
       -0.0569014 0.005808118 0.12939563 0.16446559
000040 42 71 83 3d a5 4e 3c 3d ee 86 bc bd 24 a4 a4 3d
       0.064180866 0.04597344 -0.09205423 0.0803912
000050 ba ae f1 3d b4 69 08 3e 2b 17 e3 3c dd 56 7d 3d
       0.118009046 0.13321573 0.027721008 0.061850417
000060 a9 28 bb 3d ad 04 cb bd fc 0b 9b 3d cb 5f ef 3d
       0.09138615 -0.09913001 0.07570645 0.11688193
000070 90 ea 7a 3c 06 b5 21 3d f6 89 e9 bb cf 98 3d 3e
       0.015314713 0.039479278 -0.007127042 0.18515323
000080 ed b9 b8 3d dc 32 af bd f0 c9 f3 3d 5b 25 c9 bd
       0.090198375 -0.085546225 0.11903751 -0.09821578
000090 58 84 da 3d eb 3e 19 3e 75 42 e0 bd be 58 c5 bd
       0.10669774 0.14965408 -0.10950176 -0.09636067
0000a0 31 2f 57 3c 77 1c 1c bd 69 8b ec 3c ca 14 49 3d
       0.01313381 -0.038113084 0.02887507 0.04909209
0000b0 0a 98 21 3e ab ae 8b 3d c4 ba f0 3d f8 08 2f 3e
       0.15780655 0.06820425 0.11754373 0.17093265
0000c0 a3 9a 13 bd b8 47 45 bd d3 7b b0 3c 49 da 80 bd
       -0.036036145 -0.0481641 0.021543419 -0.062916346
0000d0 c3 62 08 bd 73 49 68 bd b5 8f 69 bd 7d 35 c5 bd
       -0.03329731 -0.05671067 -0.057021815 -0.09629343
0000e0 f5 4f 9b 3d 53 a8 c5 bd fe 23 ec bd aa 54 72 3d
       0.0758361 -0.09651246 -0.115303025 0.059162773
0000f0 a5 16 29 be 65 67 14 be 8c a5 22 bc ec 8f d7 bd
       -0.16512544 -0.14492567 -0.009927165 -0.10525498
000100 dd b5 41 bd 76 96 6b 3d 29 4f bd bd f2 51 48 be
       -0.04729258 0.057516538 -0.09243614 -0.1956251
000110 ae bf 31 be 99 7f 1a 3d 24 0c d3 3d 5a 52 48 bd
       -0.17358276 0.037719343 0.1030505 -0.04890666
000120 14 c7 0b be 05 55 47 3d bc 0b 0d be 41 6e 31 bd
       -0.13650161 0.048665065 -0.13774008 -0.043318037
000130 92 07 34 be 25 bd d0 bd 90 78 4c 3d 2e 8f 69 3d
       -0.17581013 -0.101923265 0.049919665 0.057021312
000140 c7 6a 89 3d 88 4d 93 3c e1 4e 25 be 0a ea a8 bd
       0.06709819 0.017981306 -0.16143371 -0.082477644
000150 4b 9f 05 be 7b 0a b6 3d 36 3f 2c be ce 0c 67 3d
       -0.13049047 0.08888718 -0.16820988 0.056408696
000160 ad 58 63 bc c8 a8 0d bd 06 25 4b bd bb 6b cf bd
       -0.013876122 -0.03458479 -0.049595855 -0.1012797
000170 4d 54 b5 3d ef a8 07 be b5 08 13 3d 6d 92 fa 3b
       0.0885397 -0.13248037 0.035896976 0.00764685
000180 76 f4 11 be a5 ec ab bc 53 5d f0 bd f9 ac 9a 3d
       -0.1425341 -0.020986864 -0.1173655 0.07552523
000190 a2 9d 42 bd 5d d8 c1 bd 27 a0 c9 bd a1 14 f7 bc
       -0.04751361 -0.09465096 -0.09845 -0.030161204
0001a0 cd cc 8a 3d 61 89 3f 3b f7 e8 7c 3d 8d cf bd bd
       0.06777344 0.0029226171 0.06174561 -0.09268103
0001b0 77 51 da 3d f6 20 ef bc 0d 97 60 bc ed 45 eb 3d
       0.106600694 -0.029190522 -0.013707888 0.11487947
0001c0 1b 92 09 be 8b 4c fc 3d 76 28 8a bd 8f f0 cf bc
       -0.13434641 0.12319287 -0.067459986 -0.025383262
0001d0 07 cb 98 bd 3e a1 21 bd e5 f5 c8 3d 27 18 8b ba
       -0.074605994 -0.039460413 0.09812526 -0.0010612056
0001e0 43 d4 09 3e 1b 3e 08 3e 43 4d 3e 3e 36 45 56 3c
       0.13459878 0.13304941 0.1858416 0.013078025
0001f0 31 0a 15 be 47 fa 9b 3d 9e eb 8c 3d 1d f8 92 bd
       -0.14554669 0.07616096 0.06880878 -0.0717623
000200 87 52 06 bb f2 fc ed bb d4 77 c8 3b 66 b9 f4 bd
       -0.0020495967 -0.0072628194 0.0061178003 -0.119494244
000210 84 00 de bd 96 52 d7 bd d7 28 13 3d b1 56 ff 3d
       -0.10839942 -0.10513799 0.03592762 0.12467707
000220 63 6e 0f 3d 05 e5 bd 3d 15 76 88 3d b9 d9 35 3d
       0.035017382 0.09272198 0.06663147 0.04439709
000230 74 ba ce 3d e1 8f 8e bd ed 37 51 bc 20 13 50 bd
       0.10094157 -0.069610365 -0.012769681 -0.05079949
000240 ea bb ff bd 1f b2 1d bd 3c 70 f2 bc 7e 72 12 be
       -0.12487014 -0.038499948 -0.029594533 -0.14301488
000250 a8 f6 d8 bc 83 8b b3 3d
       -0.026484802 0.08766844

gru.bias_hh_l1 f4 [150]
000000 bb 95 30 3d a6 8d 32 3e 17 10 e8 3d 41 66 d6 3d
       0.043111544 0.17436847 0.11331194 0.10468722
000010 ee 41 9f bb 0f 67 2e 3e 19 f2 d7 3d 30 f4 04 3e
       -0.0048601544 0.17031501 0.10544223 0.12983775
000020 50 3f 14 3d 7b 8e 9f 3d 87 19 05 3e 05 65 81 3d
       0.036193192 0.07790848 0.12998019 0.06318096
000030 13 67 dd bd 13 40 12 bd 2a ac 8a 3d cc 83 14 3e
       -0.108106755 -0.035705637 0.06771119 0.14503402
000040 0b b7 88 3d e6 34 86 3d 94 26 91 bc 33 df ed 3d
       0.06675538 0.06553058 -0.01771859 0.116148375
000050 e9 60 4c bd 8e fa 09 3e 1b dc 85 bd 54 8f 0d bd
       -0.04989711 0.13474485 -0.065361224 -0.034560516
000060 0e 31 f1 3b 36 11 cc 3d c8 c9 10 3e 21 83 60 3d
       0.007360584 0.0996422 0.14139473 0.054812554
000070 90 4f e0 3d d1 55 72 3d 60 2c a4 bd ed 6e be 3d
       0.10952675 0.059163872 -0.08016276 0.09298501
000080 75 94 a9 bd 99 19 58 bd bd f2 15 3d c8 37 bb bc
       -0.08280269 -0.052758787 0.036608446 -0.022853747
000090 9e ec 2e 3e 02 59 d4 bd 72 ea 5c 3d e1 ba 15 3d
       0.1708245 -0.103685394 0.053934522 0.036555175
0000a0 68 21 03 bd b9 35 4d 3d c5 20 83 3b ae f4 a1 bd
       -0.03201428 0.050100062 0.004001709 -0.07907997
0000b0 dc e0 10 bd 03 07 f2 3d 11 2d 4d bd 06 ee c1 3c
       -0.035370693 0.11817744 -0.050091807 0.023673069
0000c0 f4 76 2b 3e 6b 17 65 bd 33 ae 84 3c 36 88 5d 3d
       0.16744596 -0.055930536 0.016196346 0.05408498
0000d0 44 5f 5b bd b5 14 91 bb 32 c5 29 bd 32 85 41 be
       -0.05355765 -0.0044275173 -0.041447826 -0.18898466
0000e0 d5 22 08 be f8 ea 57 3b a4 cf 10 be a1 ba dc bd
       -0.13294537 0.0032946449 -0.14141709 -0.10777784
0000f0 3a a6 85 3c c9 df a5 3d 55 27 cd bd 01 1f bb bd
       0.016314615 0.08099324 -0.100172676 -0.09136773
000100 e9 82 67 3d 49 5c 14 3d 27 f5 98 bd 90 2c 26 be
       0.05652133 0.036220822 -0.07468634 -0.16227937
000110 03 c1 a3 bd 4a db 2f 3d 53 6f 9d bc 36 50 4b bd
       -0.079957984 0.04293374 -0.019218123 -0.049637042
000120 2c 10 fd 3b f5 c7 6a bc ae 16 89 bd ba d2 ab 3d
       0.007722875 -0.0143299 -0.06693779 0.08389802
000130 87 69 65 3d ed fc 13 3d 5b 65 52 be 52 87 2f bd
       0.05600884 0.03612988 -0.20546477 -0.04285366
000140 8e 57 37 3d 9f 14 0b be 3d 12 bf 3c 00 e3 28 bd
       0.044761233 -0.13582085 0.023324126 -0.04123211
000150 2d 0f 8b bc 1d 61 dc 3c db 4b ae bd 7d 84 c9 3c
       -0.01697501 0.026901776 -0.08510562 0.024599308
000160 a9 05 cc bd d5 db d4 bd 28 09 3a bc 06 17 32 bc
       -0.09962017 -0.10393492 -0.011354722 -0.010869747
000170 4c 6e ce 3d 17 4c 46 be 7b 1a c7 bd 80 30 9d bc
       0.10079631 -0.19364963 -0.097218476 -0.019188166
000180 cd ff 3e be 78 e7 3f be 93 8d 7e bd ad d5 7f 3c
       -0.18652268 -0.18740642 -0.062146734 0.015614909
000190 61 e1 cd bd 91 31 69 bd 5e 16 bd bd 83 ed 11 be
       -0.10052753 -0.056932036 -0.09232782 -0.1425076
0001a0 45 44 8a 3c 81 ff 81 bd 82 09 82 bc 1c 8c 91 bc
       0.016878257 -0.06347562 -0.015873674 -0.017767005
0001b0 81 2b 49 bd 28 03 8a bd 61 18 d7 3d 3f 1d 89 3d
       -0.049113754 -0.06738883 0.10502697 0.066950314
0001c0 24 53 ca 3d af 6b 14 be 8e 68 d7 bd 77 1d 7f 3d
       0.09879139 -0.14494203 -0.10517989 0.06228396
0001d0 51 96 d9 bd 2c 15 2e 3d 1a 15 04 be f5 7c 5c bd
       -0.10624374 0.04250066 -0.12898675 -0.053830106
0001e0 31 c3 22 bd 9a 62 f4 3b 32 16 fe bd 21 b6 05 3d
       -0.03973693 0.0074580433 -0.12406577 0.032644395
0001f0 75 96 1f be db c8 91 3c 0f fb f1 bd 6f 5c 23 be
       -0.15584739 0.01779597 -0.11815464 -0.1595323
000200 de a5 0c 3e 74 ce fd bd 29 68 b5 3d 8d 44 91 bd
       0.13735148 -0.123928934 0.088577576 -0.07093153
000210 e8 5e 30 be 36 22 e0 3d 83 53 29 bd 2c 5c e1 3c
       -0.17223704 0.10944025 -0.04133941 0.027509771
000220 6e 8a 4d bc 3d 99 4f bd 0e 15 5e bc 38 d1 0d 3e
       -0.012545211 -0.05068325 -0.0135548245 0.13849342
000230 8e 29 57 3d 7c 7f 2b bd 44 c1 f9 3d e1 c0 e4 3d
       0.052529864 -0.041869625 0.121950656 0.11169601
000240 a7 50 ed bd 10 88 33 3e d9 91 ee bd 6d 43 cd 3d
       -0.11587649 0.17532372 -0.11648912 0.10022626
000250 8f bb c4 bd 43 b2 6e bd
       -0.096060865 -0.058275472

dense.weight f4 [1, 50]
000000 10 21 26 be 43 a6 1b be a5 56 85 ba 03 9f 87 bd
       -0.1622355 -0.15200143 -0.0010172917 -0.06622126
000010 cd b0 88 bd a7 68 fc bd d1 43 de bd 18 40 5b bd
       -0.06674347 -0.12324648 -0.10852779 -0.05352792
000020 f0 b7 16 3e 6f cf 24 bd 14 d5 1d be 2f 2e 39 3e
       0.14718604 -0.040236887 -0.15413314 0.18084024
000030 44 4f 14 3e 4e 11 f8 bd 45 01 3e be 72 33 10 be
       0.14483362 -0.121126756 -0.18555172 -0.14082125
000040 6a 0b 8c 3d 0f 9a 12 be da 7d f1 bd aa 97 db 3d
       0.068381146 -0.14316581 -0.117915824 0.10722287
000050 1a 27 eb 3d 7b a6 f6 3c 34 c3 fc 3d e6 14 5e bc
       0.114820674 0.030108681 0.123419195 -0.013554787
000060 eb 30 5a 3d 85 d0 28 3e d1 33 06 be 4d e8 e5 3d
       0.053269308 0.16485794 -0.13105704 0.112259485
000070 58 79 01 3e 89 17 24 3e 0c 14 ce 3d 72 d6 67 3d
       0.12643945 0.16024603 0.100624174 0.056600995
000080 3a 89 c4 3d ac 3d aa bc dd 39 01 3d 46 72 90 bd
       0.095964864 -0.02078136 0.031549323 -0.07053046
000090 4e f8 0d be 64 37 a4 3d fc d5 56 3d 7c b7 ee 3d
       -0.13864252 0.080183774 0.052450165 0.116560906
0000a0 79 42 35 3e 7a 3f b2 3d 8a d7 08 be 9a d5 d6 3d
       0.17701139 0.087035134 -0.13363472 0.1048996
0000b0 20 49 18 3e 84 76 c8 3d 5d dc 4a 3d 7a 91 a8 3c
       0.14871645 0.0978823 0.04952656 0.020577181
0000c0 d5 aa ee bd 56 58 44 bd
       -0.116536774 -0.047935806
