checkpoints_gp/discriminator_checkpoint60.pth.tar (torch_old, 292887 bytes, 27 tensors)

gru.weight_ih_l0 f4 [150, 6]
000000 ca d6 f3 3d 0b bb 5a 3d ad aa 9b 3d 5c c9 41 bc
       0.11906202 0.053401034 0.07600913 -0.011827793
000010 ea ca ec 3d 8a b1 8e bc c5 e5 d2 3d b8 0e 49 3c
       0.1156214 -0.017418642 0.10297731 0.012271576
000020 48 b8 94 bd 67 49 22 3d 24 6f 40 3e fd 15 e4 bd
       -0.07261711 0.039620783 0.18792397 -0.111370064
000030 2c 65 33 3e 16 2e 09 be 7e 86 ad bd 6e c2 77 3d
       0.17519063 -0.13396487 -0.08472918 0.060488157
000040 ce cd 80 bc 08 f4 d9 3d bb f5 cf 3c 8f eb 77 bc
       -0.015723135 0.106422484 0.025385728 -0.015131845
000050 9b 1c d9 3d 66 b7 11 3e 0d bd 1e 3e 87 65 54 3e
       0.10601159 0.14230117 0.15501805 0.20741855
000060 75 18 79 bc 73 9e f8 bc f2 02 dc 3d f5 44 99 bd
       -0.015203585 -0.030348992 0.10742749 -0.07483856
000070 0d 33 e2 bd 20 6e ed bd 51 fc 11 3e 35 23 90 ba
       -0.110448934 -0.1159327 0.14256407 -0.0010996821
000080 8e c4 d6 3d c6 4a f9 bc 88 ac a1 3b 08 be cc bc
       0.104867086 -0.030431163 0.0049338974 -0.024992958
000090 df e2 1c 3d 52 db 7f 3b 4f e6 98 3d a7 28 82 bd
       0.0383023 0.0039040637 0.07465803 -0.0635541
0000a0 aa 17 13 3e 60 7e 4e 3e e4 19 de 3c 11 5e 47 bd
       0.14364496 0.20165396 0.027111955 -0.048673693
0000b0 dd 45 a9 bc 0b f9 69 3d 67 04 7a 3d c5 29 f8 bd
       -0.020663196 0.05712227 0.061039355 -0.12117342
0000c0 ac 7a 5d bd 09 14 b9 bc 93 33 79 3c 4c e8 70 bd
       -0.054072067 -0.022592561 0.01521005 -0.058815286
0000d0 db a1 ac 3b 22 8f 82 3d e1 c8 0b be bc c6 3c be
       0.005268318 0.06374957 -0.13650848 -0.18435186
0000e0 28 b4 bf bd db 40 5b 3d 7e a8 be 3d e8 a0 75 3d
       -0.09360534 0.053528648 0.09309481 0.059967905
0000f0 18 b1 08 bd 40 34 f7 bb 27 92 ef 3d 8f 65 a9 bd
       -0.033372015 -0.0075440705 0.11697798 -0.08271324
000100 38 1a 80 3d e4 51 3b 3e 06 7a 85 bd 8f 07 9c 3d
       0.06255001 0.18292958 -0.06517415 0.07618629
000110 f1 f5 06 3c 0a d4 59 3d 43 78 80 3d 0b 0d c2 bc
       0.008237348 0.05318073 0.06272938 -0.02368786
000120 16 fb aa 3c b5 da 7e bd 9a 06 37 3e b0 32 2a 3e
       0.02087168 -0.062220294 0.17873612 0.16620898
000130 42 de 12 3e a8 ec ab 3c 18 03 0b 3e dd a4 04 be
       0.14342597 0.02098687 0.13575399 -0.12953515
000140 57 af 31 3e f4 90 80 3d 85 51 38 3e 8a 1e 16 3e
       0.17352043 0.062776476 0.17999847 0.14660087
000150 12 cf 71 3d c0 dc d2 3d 1a 4b 8b 3d 96 ca 86 3d
       0.05903537 0.10296011 0.06801434 0.06581609
000160 32 97 d5 3b 06 5e ed bb 58 a6 9f 3d 4d d0 8d bd
       0.006518268 -0.0072438745 0.077953994 -0.06924496
000170 db b9 39 3e e6 09 96 bd 1e a4 86 3d 9d 96 00 3e
       0.18137304 -0.07326107 0.065742716 0.12557454
000180 de 02 61 3d 76 bc f8 bc 3b f8 83 bc f7 c6 a6 bd
       0.054934375 -0.030363303 -0.016109576 -0.08143418
000190 70 e9 6b 3d b0 28 0a be 97 fc fd bc 8b a7 37 be
       0.05759567 -0.13492084 -0.031004233 -0.17935006
0001a0 24 67 01 3e a0 28 3c 3e 46 85 e7 3d ed 77 06 be
       0.12637001 0.18374872 0.11304717 -0.13131686
0001b0 03 d1 47 3e d6 ee 08 be f2 cb d5 3d 7f a0 f4 bc
       0.19513325 -0.13372359 0.1043929 -0.029861687
0001c0 cf 9d 57 3c 75 ec 0a 3e fc 59 0d 3e b6 7d 99 bd
       0.013160183 0.13566764 0.13803858 -0.074946806
0001d0 b3 a8 26 3e 26 ce e6 3d 45 6d a4 3d 9d 3d 72 bd
       0.16275291 0.112697884 0.08028654 -0.05914079
0001e0 03 36 85 be 00 d1 5f be 0d d5 c3 3c 0c 90 28 bd
       -0.2601777 -0.21857071 0.023905301 -0.041153
0001f0 59 2f f0 3d 54 57 3a 3e 43 2c c3 bc b2 47 8f 3c
       0.11727781 0.18197376 -0.023824817 0.017490242
000200 b0 32 bd bc ee 4b 4c 3b b7 63 16 3d 46 e3 e4 3d
       -0.023095459 0.0031173187 0.03671619 0.111761615
000210 01 0a ec 3d 8c 7c 9b bd 2f 5c 89 bd d5 99 fc 3d
       0.115253456 -0.07592115 -0.06707036 0.12334029
000220 82 55 a8 3d a8 a2 bb 3d 0c 1a 3e bd d4 a1 da bd
       0.08219434 0.091618836 -0.04641156 -0.106753975
000230 92 41 9a 3d 27 09 ce 3c 36 a9 79 3e fb a0 da 3c
       0.07532038 0.025150849 0.24380955 0.02668809
000240 7b e6 48 3d f1 be f9 bd 23 ea b2 bd b4 40 81 3c
       0.04904793 -0.12194622 -0.08736064 0.015777923
000250 8b 47 be 3d 91 9a d2 3d 14 3c 95 bc 3a c6 46 3d
       0.092909895 0.102833875 -0.018217124 0.048528887
000260 7d 0c 8c bd a0 a3 d7 bd 16 47 2c 3e cc 74 bc 3b
       -0.068383195 -0.10529256 0.16823992 0.005751228
000270 13 bb f1 3d 45 5d a4 bd 9d 0e 2c bd ff b9 ab bd
       0.1180326 -0.08025602 -0.042006124 -0.08385085
000280 60 46 db 3c 99 d6 22 bd de eb c1 3d 53 0a 04 be
       0.026766956 -0.039755438 0.09468816 -0.12894563
000290 40 81 0b 3e dd cc c2 3d f9 5b 78 3c 3c 54 11 3e
       0.13623524 0.09511731 0.015158647 0.14192289
0002a0 8c f6 aa 3d bd df 0a be 54 80 2a 3e 34 ba 5c 3a
       0.08347806 -0.13561912 0.16650516 0.00084200804
0002b0 80 f2 3e bd 82 cd cf bb e5 32 37 bb 28 cd 8a bc
       -0.046617985 -0.006341637 -0.002795392 -0.01694353
0002c0 ae 62 b7 bd 84 f9 97 bd d4 c6 3c 3e 8f 6a 9c 3c
       -0.089543685 -0.07420638 0.18435222 0.01909378
0002d0 c2 6f 8a bd 3e 7a 56 bb 5c 0b 30 3e 15 30 a5 3d
       -0.06759597 -0.003272667 0.17191833 0.080658115
0002e0 f8 70 8e 3d 79 5e bd bd 22 bc c4 bd a0 63 ed 3c
       0.06955141 -0.09246535 -0.09606196 0.028978169
0002f0 ae 53 80 bd 61 e8 fb bd 48 ff ea bc ae 26 de bd
       -0.06265961 -0.12300182 -0.02868618 -0.10847221
000300 ac 4e 76 3e cc 02 e8 bd 7c 96 c6 3d 41 af 52 3e
       0.24053448 -0.113286585 0.09696671 0.20574667
000310 96 0a b0 bd 44 68 01 3e a7 d7 11 be 3c a3 0b be
       -0.08595769 0.1263743 -0.14242421 -0.13636488
000320 db 04 44 bd 91 0f ee bd d5 34 5a bd 0e f8 23 3c
       -0.047856193 -0.11624063 -0.05327304 0.010007871
000330 72 cf 71 3e 69 b6 28 bd a3 d4 fe 3d 6c a5 89 3d
       0.2361429 -0.041189585 0.12442901 0.06721005
000340 f1 5a 8e 3d ca 19 e0 3d 11 58 45 bc 8e 39 24 3d
       0.069509394 0.10942419 -0.012044922 0.04009395
000350 f2 9a dd 3d 0c 36 a2 3c ab a5 31 3e 02 77 1f be
       0.10820569 0.019801162 0.17348354 -0.15572742
000360 58 4d 68 bc 3e d7 31 bd e3 b3 f3 bd 7a 10 1d 3d
       -0.014178596 -0.04341816 -0.11899545 0.03834579
000370 0d 16 be bd 26 b5 2e be 54 47 c2 3b d2 15 16 be
       -0.092815496 -0.1706129 0.005928913 -0.14656761
000380 cc a2 21 bd d7 69 28 3d 2d 06 61 bd 5d 35 07 3d
       -0.039461896 0.04111656 -0.05493753 0.033009876
000390 58 d8 01 3d 32 1f 45 3d e9 d7 9b 3d fb ef b0 bd
       0.031700462 0.048125453 0.07609541 -0.08639523
0003a0 19 21 1f 3c 64 2e 07 3e 61 bc 5b bd d2 d6 e7 3d
       0.009712481 0.1320129 -0.05364645 0.113202706
0003b0 4c fe ff 3d 87 11 59 bd 2d 9e 64 3c ce 3f ef 3d
       0.12499675 -0.05299523 0.013953728 0.11682092
0003c0 84 76 c6 bb 01 e0 f7 3d 21 5b 29 3e 06 ed d7 3d
       -0.0060566086 0.12103272 0.16538669 0.105432555
0003d0 cf a1 02 3c dd 0c 8a 3d 61 62 14 3e 67 ff 2b 3d
       0.0079731485 0.06740735 0.14490654 0.041991618
0003e0 21 4b 97 3c 67 95 29 be f8 25 1a 3e 41 d6 f2 bb
       0.018468441 -0.16560899 0.15053546 -0.007410795
0003f0 5f b3 ab bd 28 8d 0b bd f5 17 21 bc eb fc ce 3d
       -0.08383822 -0.034070164 -0.009832372 0.10106834

gru.weight_hh_l0 f4 [150, 50]
000000 7f 44 d8 bc 60 dd e2 bd fb 33 18 be fa c1 47 bc
       -0.026399849 -0.1107738 -0.14863579 -0.012192244
000010 94 f3 ab bc e7 c2 eb 3c fb b4 82 bd ac b1 25 3e
       -0.02099017 0.02877946 -0.063821755 0.16181058
000020 d0 bc 17 3e a3 24 8e 3d c8 01 1b be a4 96 08 be
       0.1481812 0.06940582 -0.15137398 -0.13338715
000030 d0 51 08 3d c3 de 2b bc 1d 06 a1 3d 90 75 17 bc
       0.033281147 -0.010490122 0.07862494 -0.009244338
000040 36 ed 85 3d c9 43 1f be 61 aa a0 bc 19 5c 18 bd
       0.06539385 -0.15553202 -0.019612493 -0.037197206
000050 70 99 ca bd 9f 22 e8 bc 2c a9 08 be 9b 60 1f be
       -0.09892547 -0.028336821 -0.13345784 -0.15564196
000060 6a a1 e7 bd ae e5 b3 3d db 6b 2b bd f6 20 4f 3e
       -0.11310084 0.08784042 -0.041850906 0.20227417
000070 d7 7c 3a 3a 84 86 a7 bd a0 38 33 be c6 61 1f be
       0.00071139395 -0.08179954 -0.1750207 -0.15564641
000080 f3 79 20 3b 30 c7 bc bd 39 9d 37 be 59 7b 1e 3d
       0.002448675 -0.092176795 -0.1793107 0.038691852
000090 a1 c8 74 bd 1d 17 d9 bc 4b ee 9f bd 5c b1 68 3d
       -0.059761647 -0.02650028 -0.07809123 0.056809768
0000a0 65 67 f4 3d 0d c7 15 be 3f f6 3a be c4 f7 86 3c
       0.119337834 -0.14626713 -0.18257998 0.016475566
0000b0 79 1b ef 3d cd b6 bf 3c c3 80 c5 bd 7f 1f 09 3e
       0.11675162 0.023402596 -0.096437 0.13390921
0000c0 97 cc 80 3c ee fe 40 3e 5b d6 3a 3d 7a 17 e1 bd
       0.015722556 0.18847248 0.04561458 -0.10990806
0000d0 81 4d 0f bd fc 7c 5e 3e e9 9d 17 3e 35 89 24 be
       -0.034986023 0.21727365 0.14806332 -0.16067965
0000e0 54 b2 6f 3d 69 3b 81 3d 10 ce 78 bd ab 9a 3e 3d
       0.058519676 0.0631016 -0.06074339 0.04653422
0000f0 bd e9 9b 3c c0 6a 6a bd 45 3b 61 3d e4 5e 23 be
       0.019032354 -0.05723071 0.054988164 -0.15954167
000100 17 8d 70 be 79 5f a9 bc fc ce 8c bd 65 48 e1 3d
       -0.23491322 -0.020675408 -0.06875417 0.11000136
000110 06 1c 23 3e a3 14 2d 3d ff fb bb 3d 01 b0 86 bd
       0.15928659 0.04225601 0.09178924 -0.06576539
000120 dc e5 14 3e 19 82 25 be bf 00 bf bd 9b 55 64 3b
       0.1454081 -0.1616291 -0.09326314 0.0034841064
000130 1f 60 db 3c a8 95 41 3e 74 54 e7 bd f8 e6 d5 bc
       0.026779233 0.18904746 -0.11295405 -0.026111111
000140 a6 ae 29 3d d9 61 a1 3d ce c6 d6 bd c1 10 83 3d
       0.041426323 0.07879991 -0.10487138 0.0639968
000150 d0 03 e1 bd d1 84 10 be ae 2f 56 3e 69 b5 94 bc
       -0.10987055 -0.14113165 0.20916626 -0.01815291
000160 f6 1f 99 3d 7e e8 93 bd f5 39 85 3b 43 7c a5 3d
       0.07476799 -0.07222079 0.004065747 0.08080342
000170 ae d5 f5 bc 54 78 0b be 6e 85 50 3c 54 cc 24 be
       -0.030009117 -0.1362012 0.012727125 -0.1609357
000180 d8 db ec 3c 7c 7e 33 be 84 1f 76 3d 74 b3 c0 3c
       0.028913423 -0.17528719 0.06008865 0.02352307
000190 0b 6a b9 3d e5 f4 dc bd 4b 56 a8 bc 36 bf d0 3c
       0.09053429 -0.107888974 -0.02054896 0.025481801
0001a0 fa 65 f7 3c 01 11 26 be 16 7f 1e 3e 60 05 42 be
       0.030199993 -0.16217424 0.15478167 -0.18947363
0001b0 f8 08 09 3d 12 d7 7c be ef 51 e5 3c 0f 09 13 be
       0.03345582 -0.24691418 0.02799317 -0.14358924
0001c0 04 0d 3c bc 35 b8 04 be 84 99 5d bc 6a 7e fd bd
       -0.011477713 -0.12960894 -0.0135253705 -0.12377627
0001d0 0e 85 81 bd 53 9b 16 be 4f 4b 91 3d 37 c1 48 bd
       -0.06324206 -0.14707689 0.07094442 -0.04901239
0001e0 6e 7a 49 be 94 e0 73 bd 3b 3b a9 bc ff 80 5b 3d
       -0.1967561 -0.059540346 -0.020658126 0.053589817
0001f0 27 97 0c bd 30 58 a9 bc 31 51 0b be 74 c6 99 3d
       -0.034323838 -0.020671934 -0.13605191 0.07508555
000200 c9 52 ad 3d ad af 86 bd 6f c4 47 bc de c1 fa bc
       0.08463056 -0.06576476 -0.0121928295 -0.030610021
000210 72 1b 03 bd d6 95 31 bd 0a aa 96 3d 90 b6 c7 bc
       -0.032008596 -0.043355785 0.07356651 -0.024379045
000220 05 9e b2 bc 13 b7 c6 3d 0b e7 86 bd 6d 43 10 be
       -0.021803865 0.097028874 -0.06587037 -0.14088221
000230 b8 37 3e be be 2d 95 3b 64 48 85 bd 4f 3e f6 bd
       -0.18575943 0.004552572 -0.06507948 -0.12023603
000240 4f f4 96 bb 4e 68 88 3d ba b8 75 3e ff fd b6 bd
       -0.0046067606 0.066605195 0.23996249 -0.08935165
000250 f2 56 02 3d 89 04 07 be 70 e6 e8 3d 4e 17 90 bd
       0.0318212 -0.13185324 0.113720775 -0.07035695
000260 dd ce de 3d 04 16 ab 3b 45 a8 8d 3d 3e f5 1f 3e
       0.108793 0.0052211303 0.069168605 0.15620896
000270 58 7b f2 bb 20 93 a4 bc 23 f3 3d bd 84 ce 71 3d
       -0.0073999576 -0.020089686 -0.04637445 0.05903484
000280 1d c7 18 be 0c 2d 66 bd 94 da 3e 3e 01 50 0c 3d
       -0.14919706 -0.056195304 0.18638068 0.034255985
000290 e5 de 88 3d a7 f0 1c bd 2d 09 af 3d 46 3a 9b 3d
       0.06683139 -0.03831544 0.08546672 0.07579474
0002a0 d5 12 9a 3d c4 e5 87 3d 8e 04 ab 3d 9f 2e 4e 3c
       0.07523123 0.06635621 0.08350478 0.0125843575
0002b0 80 78 82 3c 72 be c6 bd 12 94 9a bd c4 24 0c 3e
       0.0159266 -0.09704293 -0.075477734 0.136859
0002c0 f3 3d bb bd 8c ea 3c 3e 42 0a e9 3d b5 31 90 3c
       -0.09142675 0.18448848 0.1137891 0.017601827
0002d0 5d 05 1c be 7a 82 ba bd 59 c3 95 bd 14 c7 ab bd
       -0.15236421 -0.09106918 -0.0731265 -0.083875805
0002e0 e0 69 a6 bd f7 74 2d be d1 87 0a 3d 2f 85 5f 3d
       -0.08125663 -0.1693915 0.03382093 0.054570373
0002f0 02 31 86 3c 1c 68 8c bd b5 c2 ea 3d 6a 36 89 bd
       0.01638079 -0.06855795 0.11462919 -0.06699832
000300 1d 59 0a be 17 41 c4 bd 84 74 ce bc 6d 81 62 3d
       -0.13510557 -0.095827274 -0.025202043 0.05529921
000310 18 a0 08 bd e0 39 2b 3e d6 ef c4 bc 40 61 0f 3e
       -0.033355802 0.16721296 -0.024040144 0.14001942
000320 c1 4f 87 bd fc 80 2b be 52 4c 2e bb 6d 3c d4 bd
       -0.06607009 -0.16748422 -0.0026595783 -0.10363088
000330 6f d0 46 be 8b e7 a5 bd 32 5e ca 3d 03 6b 00 3e
       -0.19415449 -0.08100804 0.098812476 0.12540822
000340 c4 e2 b2 3d f7 7f 07 3d c5 c6 32 3e 0e 95 91 3d
       0.08734658 0.03308102 0.17458637 0.07108508
000350 08 97 c9 3d 3f ae c3 bc 67 bf 28 3e 07 37 96 bd
       0.0984326 -0.023886798 0.16479264 -0.073347144
000360 69 ed 04 bd fc 87 05 bd 56 ce 8b bd 51 6d 45 3d
       -0.032452974 -0.032600388 -0.06826465 0.048199955
000370 4a 67 02 be 9e fa 83 3d 7d 45 fb bc 48 d2 19 bd
       -0.12734714 0.06444286 -0.030672783 -0.037554055
000380 30 30 87 3c eb 17 ac bd 94 e1 72 bd 70 32 aa 3d
       0.01650247 -0.084029995 -0.05929716 0.083104014
000390 bb 9c 08 3d 69 bc 49 3c 42 3e 3c bd 78 7a df 3d
       0.033352595 0.012312987 -0.04595781 0.10912031
0003a0 75 c7 86 3d b6 5b f9 bc e3 45 c5 3d a8 e6 cc 3d
       0.06581012 -0.030439239 0.096324705 0.10004932
0003b0 71 61 af bd 83 e1 b2 bc ce d1 a3 bb 9b a6 40 be
       -0.08563507 -0.021836048 -0.004999376 -0.18813555
0003c0 1f 58 d9 3d 67 d6 b3 3d 53 b8 06 be 18 63 0f 3b
       0.10612511 0.087811284 -0.13156252 0.0021879133
0003d0 96 a0 3d 3e ef 36 e4 bd e4 e5 26 bc 83 7b 52 3e
       0.1851829 -0.1114329 -0.010186646 0.20554928
0003e0 30 4d d2 3c e3 68 10 3e 4f 93 0d bd cd ba 37 bd
       0.025671571 0.14102511 -0.034564313 -0.04485588
0003f0 32 3f b9 bd 78 60 ca 3c 3d ba 84 3d 7e a4 65 bc
       -0.09045257 0.024704203 0.06480835 -0.014016269

gru.bias_ih_l0 f4 [150]
000000 d7 37 46 3e 7d 34 ec 3d e3 57 6a 3d 24 d3 3b 3e
       0.19357239 0.11533449 0.05721272 0.18342263
000010 05 cd 42 bd 23 c1 0c bd 54 d4 20 3c 9e d0 c0 3d
       -0.047558803 -0.034363877 0.009816248 0.094147906
000020 22 65 56 3e d1 98 bc 3d 84 b0 79 bc 9f b8 e6 3b
       0.20937017 0.09208835 -0.0152398385 0.0070410515
000030 68 54 53 bc 13 35 3d 3e 77 65 60 3c d2 6e 24 3e
       -0.012898542 0.18477277 0.013696066 0.160579
000040 2a 6b ce 3d ce fe 0a 3d 49 0e 4e 3e c8 f9 bb ba
       0.10079034 0.033934407 0.20122637 -0.0014341408
000050 09 5b 12 3c 1d 6c 55 bb 81 46 9e 3c 61 a6 4b 3e
       0.008932837 -0.0032565661 0.019320728 0.19887687
000060 2e f4 d0 bc 78 09 3d 3d 4a 54 e2 3c 1c 38 e7 3d
       -0.025507059 0.04615161 0.027628083 0.11289999
000070 ff 8b 1d 3e ed 5b 68 3e 15 95 79 bc 30 c4 a2 bd
       0.15385436 0.22691317 -0.015233298 -0.07947576
000080 56 f7 9a 3d 45 1c 10 3d 37 45 0f 3e 68 40 05 bc
       0.07566707 0.03518321 0.13991247 -0.008133031
000090 4a 9c 17 3d 20 f5 16 3e 16 11 8f 3d 3f 63 17 3d
       0.037014283 0.14741945 0.06985681 0.036959883
0000a0 ee 0e 47 bd 29 87 ff 3a 84 cc 6d bc 0d 85 a6 bd
       -0.048598222 0.0019495237 -0.014514092 -0.08130846
0000b0 3c 19 34 3d 27 8c 63 bd 29 3e 23 3e b3 28 f7 3d
       0.043969378 -0.05555358 0.15941681 0.1206831
0000c0 cc 3f 11 3e 1c 83 67 bd fc bc 1d be a0 88 f3 bd
       0.14184493 -0.05652152 -0.15404123 -0.118912935
0000d0 71 65 84 bb e1 a4 47 bd ab b9 e4 3d ba fb 1c 3e
       -0.004040413 -0.048741225 0.11168226 0.15330401
0000e0 5c 71 4f bd f1 77 2d be 53 d4 98 3c 97 5f b6 be
       -0.050645217 -0.16940285 0.018655932 -0.35619804
0000f0 6b 08 1c be cc 49 37 3d a2 4e 4c 3d a7 19 5a 3d
       -0.15237586 0.044748113 0.049879678 0.05324712
000100 3f 11 d6 3d 9b ad c0 ba 46 a2 e4 bd 8b 6d 9b 3d
       0.10452508 -0.0014700176 -0.11163764 0.07589253
000110 66 76 93 3d 7d b9 1e 3e a0 48 16 be 58 e1 cb bd
       0.07200317 0.15500446 -0.14676142 -0.0995509
000120 61 ea 95 be 6f 6c a4 bd da 36 ff 3c 5c 28 29 be
       -0.2928038 -0.080284946 0.031154085 -0.16519302
000130 72 35 6f bc 7d 31 e8 3d a1 f9 af 3c 16 7e 5a be
       -0.014600145 0.11337564 0.021481337 -0.2133716
000140 77 bd a1 3c 41 1b 7d be ff e2 96 be f2 1e ed 3d
       0.019743664 -0.24717428 -0.2947006 0.11578168
000150 7a 71 38 3e 9f 2e 99 be da 11 e6 3d a1 f1 18 be
       0.18012038 -0.29918382 0.11233874 -0.14935924
000160 fb df de 3d a6 64 01 3d 24 3c 6c bb 2e 63 87 be
       0.10882565 0.031590126 -0.0036046589 -0.26442856
000170 18 72 09 be 5b be 32 3d 49 e6 67 bd 8d de bd 3c
       -0.1342243 0.04363857 -0.0566161 0.02317741
000180 52 01 15 bc 75 91 02 3e 40 fb e3 bd f6 26 b9 bd
       -0.009094553 0.127508 -0.111319065 -0.09040634
000190 74 42 f4 3d 2a 00 af bd a1 23 64 3d 09 24 f2 3d
       0.119267374 -0.08544953 0.05569804 0.118232794
0001a0 24 d3 8e bd 91 7a 32 be 34 01 0f 3e 59 d6 96 bc
       -0.06973866 -0.17429568 0.13965303 -0.018412756
0001b0 2c 04 cc 3c fb 32 50 be 0d 00 ae bd a5 cc 88 bd
       0.024904333 -0.20331948 -0.084961034 -0.06679658
0001c0 03 65 67 3d 3c a7 e5 bb 67 99 98 3c 6c 1e 00 bd
       0.056492817 -0.0070084613 0.018627835 -0.031279013
0001d0 de 58 de 3d a7 51 df bc 88 b1 9a bd f9 9e f0 3d
       0.10856794 -0.027260615 -0.07553393 0.11749072
0001e0 94 1c 44 be 77 dc 99 bc e3 e4 44 3e a8 19 a3 3d
       -0.19151527 -0.018781884 0.19227938 0.07963878
0001f0 8f 8f 38 be 29 f0 1e 3e 6b c5 39 bd 32 10 fa 3c
       -0.18023513 0.15521301 -0.045354288 0.0305253
000200 84 47 17 3e 41 18 27 3e e6 6e 16 be c4 0e 1d be
       0.14773375 0.16317846 -0.14690742 -0.15337664
000210 dc ba 75 bd 5f 02 a1 bd 6f 86 ef bc 94 56 8a be
       -0.059992656 -0.078617804 -0.029238908 -0.2701918
000220 67 20 85 3d 3e 1c 94 3d f9 fa 4a bd 10 ff a1 bd
       0.06500321 0.07231949 -0.049555752 -0.079099774
000230 23 5e 94 3d 52 8e e6 bd ac 4a 3b bd a4 bc 0b be
       0.07244518 -0.11257614 -0.04572551 -0.1364618
000240 5d 73 a3 3b f0 2f 82 bd c7 b2 14 3e 79 1e d9 3d
       0.0049881176 -0.063567996 0.14521323 0.10601515
000250 07 27 bb 3d 43 8e 3e 3d
       0.09138303 0.04652239

gru.bias_hh_l0 f4 [150]
000000 72 6a de bc 34 bd 21 3e 80 f5 b4 bc 0f b5 54 3c
       -0.027150366 0.15794832 -0.02208972 0.012982621
000010 4a 8f ad 3d 82 b3 3c bd 63 8f db 3d 5f be ba bc
       0.08474596 -0.04606963 0.10720708 -0.022795854
000020 76 dd 0a 3e 74 2e 18 3e 22 24 1c 3e 06 1d 40 3e
       0.13561043 0.1486147 0.15248159 0.18761072
000030 a6 55 52 3e a7 b7 08 3e 12 04 61 3d 7e a8 d0 3d
       0.20540485 0.13351308 0.054935522 0.10188387
000040 27 da 50 3d ee 9b 6e 3e cc ed b1 3d fd 21 68 bc
       0.050989296 0.2330167 0.08687934 -0.01416826
000050 91 52 0f 3e ad aa 0c bc 3a d9 6f 3d 1a 18 24 bd
       0.1399634 -0.008585614 0.058556773 -0.040062048
000060 69 c1 e7 3d d5 a3 c9 3d c3 5a 56 bd da 8c e0 3d
       0.11316187 0.098457016 -0.05233265 0.10964365
000070 d5 33 fa 3c e0 e1 ce bc 3a 85 09 3d 90 6c e6 bd
       0.030542294 -0.02525419 0.03357432 -0.112511754
000080 3c 4b e2 3d 77 5a 74 bc 3f 2b b7 3d ff e8 91 bc
       0.11049506 -0.014914147 0.089437954 -0.017811297
000090 a4 a1 94 bc 64 55 81 bc da 81 c5 3d 7e f3 ec 3b
       -0.018143483 -0.015787788 0.09643908 0.007231175
0000a0 7b da 6c bd ea 6b 25 bc 8b 9b 95 3d 50 cd 9d 3d
       -0.057825547 -0.0100965295 0.07305058 0.07705176
0000b0 4e 46 df bb 16 42 42 3e 74 23 43 3d 87 d3 11 bd
       -0.006813801 0.18970522 0.047641233 -0.03560212
0000c0 7e b6 c3 bd 69 27 3b 3e ad 17 9c 3c 67 6c 13 be
       -0.09556292 0.18276753 0.019054258 -0.14396821
0000d0 5f da e4 bd 6e 16 39 be f4 4b b5 bd 40 fd 75 bd
       -0.111744635 -0.18074962 -0.088523775 -0.06005597
0000e0 e4 23 78 3d 1d 12 2a be fc f7 b9 3c 4b 20 df be
       0.060581103 -0.16608472 0.022701256 -0.43579325
0000f0 79 81 01 3d 34 65 7f bd bc 6d c8 3d e0 3f ea 3d
       0.031617615 -0.062352374 0.09786555 0.114379644
000100 d4 3a dc 3c 74 57 ee bd 98 03 17 bd 30 c5 0e be
       0.02688352 -0.11637774 -0.03686866 -0.13942409
000110 69 82 2d bd 79 15 73 bd 20 18 bd 3c 8d 05 5e be
       -0.042360697 -0.05934665 0.023082793 -0.21681805
000120 00 ee af be 8c ac 0d 3d 4c a2 81 3d da d1 00 be
       -0.34361267 0.03458838 0.06329784 -0.12580052
000130 88 b1 28 bd bd d8 88 bd bf ec 3e be 3f 58 c9 be
       -0.041184932 -0.066819645 -0.18644999 -0.3932514
000140 46 da b3 bd c5 76 15 be d0 1c 1f be 26 7a 9c bd
       -0.08781867 -0.14596088 -0.15538335 -0.076404855
000150 a5 a6 0d 3e 57 bd 2b be 5b 4e c6 bd 6b 0f ac 3d
       0.13833101 -0.16771446 -0.09682914 0.08401378
000160 6b 6c ce 3c d8 a2 ac 3d ea a8 65 3d 89 cf 2f be
       0.025198182 0.084294975 0.056069292 -0.17169012
000170 80 b6 94 be 13 73 de bc 81 e0 ee bc 58 58 e7 3d
       -0.29045486 -0.027154481 -0.029159786 0.11296147
000180 26 68 98 bd 14 a2 2e 3e 87 14 22 bd 30 70 6f 3d
       -0.0744174 0.17054015 -0.039570358 0.0584566
000190 5e ca 31 3e 44 b7 fb bd 47 bb 80 bc 80 87 e3 3d
       0.17362353 -0.122908145 -0.0157143 0.11109829
0001a0 50 7b 62 bd 27 e6 b6 3c aa 67 2e 3e 0b 64 c5 bb
       -0.05529338 0.022326542 0.17031732 -0.006023889
0001b0 4d ce 0c be 1f 67 25 be 39 fa b2 bc 8b 6b 69 be
       -0.13750573 -0.16152619 -0.021847831 -0.2279493
0001c0 3b ae 7d 3d 1f 84 c1 bc db 7f c2 bd fe 1a 46 3d
       0.061933737 -0.02362257 -0.09497043 0.048365586
0001d0 68 43 5f bc 24 82 0e be 16 f2 a0 bd e8 b1 b1 3d
       -0.013626911 -0.13916832 -0.07858674 0.08676511
0001e0 bb 1a 1c 3d 64 80 56 bd d2 75 4e 3d 8e d3 c0 bc
       0.03811143 -0.052368537 0.05040533 -0.023538377
0001f0 40 f1 5f 3d 24 2a 7f 3d e7 1c 18 bc d4 7e fa 3c
       0.054673433 0.062296048 -0.009284235 0.030578054
000200 e7 7b d6 3d 10 55 4b 3e f7 75 d2 3d 00 95 da bc
       0.10472851 0.19856668 0.10276406 -0.026682377
000210 3e 2c c0 bd bc 1e 0c be 12 58 b4 bd 32 b1 9a bc
       -0.093834385 -0.13683599 -0.088058606 -0.018883321
000220 89 8b cc 3c f4 d0 fa 3d cd 8f 7e 3d aa 91 38 3e
       0.02496888 0.12246886 0.062148858 0.18024316
000230 6d ac 45 bd 24 44 ba bd ef d1 51 bd b7 8a 2e be
       -0.04826014 -0.09095028 -0.0512256 -0.17045103
000240 32 5b 15 3e 52 c4 96 bd 5e 99 c9 bd 21 a3 a2 3d
       0.1458557 -0.07361664 -0.098437056 0.079412706
000250 d7 31 07 3e bd 1c 00 3d
       0.13202606 0.031277407

gru.weight_ih_l1 f4 [150, 50]
000000 6d d0 98 3d e1 b9 8e bd da 6e 02 be 20 ab a1 3d
       0.07461629 -0.06969047 -0.12737599 0.07893968
000010 80 0c 29 be 95 f0 4c be 6d ef 86 bd 81 d6 c5 3c
       -0.16508675 -0.2001365 -0.065886356 0.024150135
000020 a9 2d d3 3d 1c b5 7f 3d f7 ef 26 be dd 00 18 be
       0.10311443 0.06242858 -0.16302477 -0.1484408
000030 70 0d b3 3c e5 06 2e bd f1 91 26 3d 1e b7 d4 bc
       0.021856993 -0.042487044 0.040666524 -0.025966223
000040 18 12 2e 3e 74 83 29 bd b1 53 be 3b bb cc 11 3e
       0.1699909 -0.04138513 0.0058083166 0.14238255
000050 ad a9 f1 3d e9 77 e9 3d 07 f8 6e 3d 22 7b ad bd
       0.11799941 0.11399824 0.058342006 -0.08470751
000060 da b2 3f 3e b6 62 2d bd ec b8 3a 3e 08 cc 0b 3e
       0.1872057 -0.042330466 0.18234605 0.1365205
000070 5c 6e 15 bc 22 18 26 bd 1e fa b3 bc 7a 16 11 bd
       -0.00912055 -0.04055036 -0.021969851 -0.035421826
000080 da 88 53 3d 81 21 5a be e7 0f bc bd 6b 29 64 bd
       0.051644184 -0.21301843 -0.09182721 -0.05570356
000090 f9 11 3f be 61 b0 1d 3e 5f 18 b7 38 ad 62 e8 3b
       -0.186592 0.15399314 8.7306595e-05 0.007091841
0000a0 a8 23 30 3e 69 01 0a 3e 23 c7 72 bd c3 52 5c bd
       0.17201102 0.134771 -0.059271943 -0.053789865
0000b0 b8 b6 33 be e6 de a5 3d c5 be a8 bd 22 ba a7 3d
       -0.1755017 0.08099155 -0.082395114 0.08189799
0000c0 e6 6f a5 bd 09 da bc 3d db 0f 28 bc e7 b8 84 bd
       -0.080779836 0.092212744 -0.0102576865 -0.0648058
0000d0 7a 67 06 3d 9e 7e 4d bd 4f 10 9f 38 5a 22 06 be
       0.032813527 -0.05016958 7.5847485e-05 -0.13099042
0000e0 e1 2f 2e 3e a2 4f 05 bd dc 0f da 3d 09 fe bc bd
       0.17010452 -0.032546647 0.10647556 -0.09228141
0000f0 11 44 9f bd f7 e8 a9 bd 69 8a 2c 3e f6 e3 05 3c
       -0.077766545 -0.08296388 0.16849674 0.008172026
000100 98 54 26 3e 0e 11 17 3e 74 2a 26 bd 97 51 ec bc
       0.16243207 0.147526 -0.04056783 -0.028847499
000110 48 00 32 be b1 6d 85 3d b5 e5 17 be cb 23 35 bb
       -0.1738292 0.065150626 -0.1483372 -0.0027639742
000120 f2 5b 2a be ec 68 a3 3a 4a e6 19 3e 7b 44 0b bd
       -0.16636637 0.0012467182 0.15029255 -0.034000855
000130 f8 87 4e 3d cc e1 4b bb a5 64 f9 3d 30 b5 c3 3c
       0.05042264 -0.0031109927 0.121773995 0.023890108
000140 54 41 30 be 97 35 7f bd 75 71 06 bd 61 f8 1f be
       -0.1721242 -0.062306967 -0.032823045 -0.15622093
000150 f2 b7 f3 3b 05 61 2d be bf f8 72 3c 9a 32 6a 3d
       0.0074376995 -0.16931541 0.0148298135 0.057177164
000160 fa fe 53 be 6e 06 6e be 15 74 93 3d 35 29 d9 bd
       -0.20702735 -0.2324464 0.07199875 -0.10603563
000170 52 73 5c 3c 39 d5 6d bd e9 cf b4 3d 0c 4a 80 bc
       0.013455229 -0.058064673 0.08828718 -0.015660308
000180 0d f8 53 3d b5 67 42 3d 09 cb 8f 3d 9c 4d 2d 3e
       0.05175023 0.047462184 0.07021148 0.16924137
000190 8e 60 e7 ba a5 66 34 be 07 af 0a be 50 14 7d 3b
       -0.0017652677 -0.17617281 -0.1354333 0.0038616844
0001a0 86 06 53 be 3b ff 25 3e e5 4e 13 bd fc 1a 74 3e
       -0.20607957 0.16210644 -0.03596391 0.23838419
0001b0 1a a6 26 3e 48 94 e8 3c 16 dd 36 bc 7d cc 26 3d
       0.162743 0.028391019 -0.011161109 0.04072236
0001c0 02 a1 d5 3d ea da 05 be 68 dc 45 bc e0 a7 63 bd
       0.104311004 -0.1307179 -0.012076475 -0.05558002
0001d0 62 c6 17 bd d7 10 bb bd 6d b5 70 be 85 9c 5f 3e
       -0.037054427 -0.09134071 -0.23506708 0.21837051
0001e0 ca e8 b6 3a 51 93 1d bc 2c 20 ed 3c ba e4 db 3b
       0.0013954875 -0.0096176425 0.028946005 0.006710616
0001f0 5b 4b 0c 3e 40 aa e7 3c 8a fd 03 3e 5c 62 82 bc
       0.13700621 0.028279424 0.12889686 -0.015916042
000200 73 ab 97 3c 62 5a 8f 3d e9 85 a6 bd f0 b1 a4 bb
       0.01851437 0.06999661 -0.0813101 -0.0050260946
000210 1e af 9e 3c 37 30 fb bc 6b 0f 3a be 7e 8f 09 be
       0.019370612 -0.030662639 -0.18169944 -0.13433644
000220 f9 bf 1c be ac 89 45 3e 40 8a e2 bd 21 e2 ec bd
       -0.15307607 0.19290799 -0.11061525 -0.11566568
000230 bf e1 7d bc 51 3c be bd fa 89 9c bd a9 3c 4f be
       -0.015495717 -0.09288848 -0.076435044 -0.20237984
000240 e7 79 25 3e 0e cb c1 3d ba e6 11 bd ca 52 04 3e
       0.16159783 0.09462558 -0.03562043 0.12922207
000250 2e 81 1d 3e 53 45 6a 3e 28 64 fd bc cb 40 fc bd
       0.1538131 0.22878008 -0.030931547 -0.12317046
000260 bc 07 f4 bc fa 6f 85 bd 06 9d e8 3d fb ec 08 ba
       -0.029788844 -0.065154985 0.11358075 -0.0005223301
000270 ee ec a5 3d 51 69 50 bd 9f 4a e6 bd eb c2 ca 3d
       0.081018314 -0.050881688 -0.112447016 0.09900459
000280 b8 68 fa bd 98 a1 21 bd 80 81 a2 bc 2b 7c 74 3d
       -0.12227005 -0.03946075 -0.019837141 0.05968873
000290 2d 10 8e 3d 43 41 a6 bc 5c 8a 73 bd f9 2c 7b 3d
       0.06936679 -0.020294791 -0.05945812 0.061322186
0002a0 63 a0 fa 3c ea 7a ad 3d 24 36 85 bd 3f 64 0d bd
       0.030594056 0.084707096 -0.06504467 -0.03451943
0002b0 81 d0 ea 3b d4 7f 7a 3d 3f d6 1e be 8f 28 35 3e
       0.007165969 0.061157063 -0.15511416 0.17691253
0002c0 8c 99 e9 bd 87 63 6e 3d 08 71 22 bd 54 45 18 3d
       -0.1140624 0.058200385 -0.039658576 0.03717549
0002d0 93 5e 09 bd 51 e7 32 bd f7 a7 04 be cf 07 42 3c
       -0.03353746 -0.04367763 -0.12954699 0.011842682
0002e0 be 47 3a 3e 2f 11 8a 3d 6e 06 a7 bd a4 a1 00 be
       0.1819143 0.06741559 -0.08155523 -0.12561661
0002f0 02 de bc bd 53 90 02 be ae ca 0f 3e eb 42 86 3d
       -0.09222032 -0.12750368 0.1404216 0.06555732
000300 52 76 04 bd 8f 1f cc bb c9 15 d9 3b 3e 5c e9 bd
       -0.0323394 -0.006229348 0.0066249114 -0.11394547
000310 bf 21 4d bd d8 b5 a6 bb 1a d8 a3 bd d9 e1 9d 3d
       -0.05008101 -0.0050875954 -0.080002025 0.07709093
000320 71 91 2b 3e 3e b9 47 bd f6 45 79 bd 0b 5a 1a 3d
       0.167547 -0.048760645 -0.060857736 0.037683528
000330 74 86 a1 bd d2 fd 92 bc f6 68 62 3e 62 70 e5 bd
       -0.07886973 -0.017943297 0.22110352 -0.11203076
000340 a3 40 e5 bd fe 40 0c be a8 d9 86 3d ee f2 8d bc
       -0.11193969 -0.13696668 0.065844834 -0.017327752
000350 5b 74 2a bd c1 d9 e3 3c 16 91 2b 3c 17 98 ca bd
       -0.04161487 0.027813794 0.010471603 -0.0989229
000360 4d b7 15 bd c1 6d 6a bd 45 23 3b be 96 15 1c 3d
       -0.036551762 -0.057233576 -0.18275173 0.038106523
000370 aa 32 1c 3d 5c 9f 58 3d 01 f6 d2 bd 1d a2 2c 3d
       0.038134255 0.052886352 -0.10300828 0.04214679
000380 4a ad 0d bd ac b5 3b 3e 13 40 01 3d 20 7e 97 3d
       -0.03458909 0.18331021 0.031555247 0.07397103
000390 06 da 5a 3e 1f c6 02 3e ee 69 a9 3d be 12 24 3d
       0.21372232 0.1277089 0.082721576 0.040056936
0003a0 49 2f 0c bd 36 53 05 3b 1d cb ee 3c cd 09 aa bc
       -0.034224782 0.0020343787 0.029149586 -0.020756627
0003b0 d7 1d 5d 3e b5 76 d9 3b 57 df c1 3d 70 1e 81 bc
       0.21593414 0.0066364654 0.09466427 -0.015761584
0003c0 c6 2a 07 3d 73 34 6c bd 9f a7 1e be c6 8f 2c bd
       0.032999776 -0.057667207 -0.1549363 -0.0421293
0003d0 71 c4 19 bd 28 a0 0f 3c 95 59 69 3d 27 a3 ee 3d
       -0.037540857 0.008766212 0.056970198 0.116522126
0003e0 a4 04 06 be 60 b6 10 3e 25 95 66 bc 43 9c d2 bd
       -0.13087708 0.1413207 -0.014073645 -0.10283711
0003f0 06 d3 96 3d 0e 6e 00 3e 28 fa 01 3d b7 44 52 be
       0.07364468 0.12541983 0.03173271 -0.20534025

gru.weight_hh_l1 f4 [150, 50]
000000 8a 47 23 be d9 21 19 3c bf f4 a3 3d 2a 0b 3c bd
       -0.15945259 0.009346449 0.08005666 -0.045909084
000010 d1 58 9e bd 94 c1 1c 3e 95 88 ce bd e7 d3 da 3b
       -0.07731784 0.15308219 -0.10084645 0.0066780928
000020 9a cd ad 3c 71 ab 25 be e1 78 59 3d 3e 70 84 bd
       0.021216203 -0.16178681 0.053093795 -0.06466721
000030 5d f9 fa bd eb f7 9a 3c 2b 42 6c 3d 25 63 cd bc
       -0.122545935 0.018917045 0.05768029 -0.02507169
000040 fa 03 a3 3d 06 1e 95 bc 61 bc 07 bb 28 b4 74 bd
       0.07959743 -0.018202793 -0.0020711648 -0.059742123
000050 e3 fa 35 3e e5 ac bb 3d b1 da 5e 3d 59 07 83 3b
       0.17771487 0.091638364 0.05440778 0.0039986786
000060 fb d3 0e be 64 6a 0a bc 0f 77 91 bc a9 53 03 be
       -0.13948052 -0.008448217 -0.017756967 -0.12824883
000070 b2 86 87 3c 1d ef f0 3d 74 18 85 bd 0b b9 89 3c
       0.01654372 0.11764357 -0.06498805 0.016811868
000080 89 d4 18 bd f5 70 ba bd 97 dd 0f be 41 0a 2d bd
       -0.037312064 -0.09103576 -0.14049374 -0.042246107
000090 7b f5 00 3e af b8 6f 3e 4a fe 26 bd 63 dc 3c 3e
       0.12593643 0.23410295 -0.040769853 0.18443446
0000a0 87 fd 7f bd c8 21 10 bb a0 69 ba bd 6c 9b 02 3e
       -0.062497642 -0.0021992791 -0.091021776 0.12754601
0000b0 33 d9 f6 bd d5 23 03 3e b1 23 da 3d 82 d7 a6 bd
       -0.12053146 0.12806638 0.10651339 -0.081465736
0000c0 bc 37 8d 3d de 5b e1 3d fd e8 88 3d 1b 67 a6 bc
       0.06895396 0.110038504 0.06685064 -0.020312836
0000d0 23 42 c2 bd 34 60 8a bd 13 ec d8 3d 1c 72 06 bc
       -0.09485271 -0.067566305 0.105919026 -0.008205917
0000e0 1d f0 30 3e 62 b9 ef 3d bf 58 85 3d 9c 77 13 be
       0.17279096 0.11705281 0.065110676 -0.14401096
0000f0 0f f9 03 bd fb b4 1e 3e 38 63 b7 3d 91 10 8c 3d
       -0.032219943 0.15498726 0.08954471 0.06839097
000100 cc 26 be bd 94 31 10 be 97 61 cc bd 76 07 26 bd
       -0.09284744 -0.14081413 -0.09979551 -0.04053446
000110 b3 4c 6f bd d6 b5 dd bc 93 f1 7c ba c6 fe 54 3d
       -0.058422755 -0.027064245 -0.00096490345 0.052000783
000120 81 cc 85 3d 55 38 1c 3e f0 41 03 3d 9d c9 01 3e
       0.06533147 0.15255864 0.032045305 0.12674566
000130 40 66 0d 3d 12 f8 a7 3d 56 da 42 3e 42 55 8e 3d
       0.03452134 0.082016125 0.19028601 0.069498554
000140 61 3d c0 3d d1 ad 01 be ca 95 f5 bd 44 2f 49 be
       0.09386707 -0.12663962 -0.119914606 -0.19646937
000150 1f 9a 65 3c 8d 77 85 3d 9b 11 34 bd 8e aa 9e 3d
       0.014013796 0.06516943 -0.043962102 0.077473745
000160 22 0b c8 3d ba 0e 80 bc 5b 8e 9d 3d 23 5a d6 3d
       0.097677484 -0.015632022 0.07693168 0.10466411
000170 ca a6 06 bd 7f e6 a8 bd fc 51 1f be 4e 4d 5a bd
       -0.032873906 -0.08247089 -0.15558618 -0.05329638
000180 18 76 ee 3c a1 83 7c 3e ce 28 7b bc 2c ef a4 bc
       0.029109046 0.24659587 -0.015329553 -0.020133577
000190 14 23 15 bd e3 56 d2 bd 17 f3 80 bd 82 d3 99 3d
       -0.036410406 -0.102704786 -0.06296366 0.07511045
0001a0 7f 12 98 3d f6 1c 27 bd aa 92 54 3b 5d 19 52 bd
       0.07425403 -0.040799104 0.0032436051 -0.05129372
0001b0 d0 68 e7 3a a5 5d 7c bd 3c c7 2e 3c c2 3f 20 3e
       0.0017655138 -0.061612744 0.010667618 0.15649322
0001c0 7b f8 ba ba ee f5 1a 3e 03 5b f6 bd 76 c6 cf 3d
       -0.0014264727 0.15132877 -0.12029078 0.10145275
0001d0 fe d2 7f bd 57 10 58 bd d1 19 9b bc ce d4 09 bd
       -0.062457077 -0.052749958 -0.018933209 -0.033650212
0001e0 51 57 43 3d 02 1a fe bc 1d 0d 8f 3d 7e 80 70 3d
       0.047690693 -0.03101826 0.06984923 0.05871629
0001f0 28 36 fd bd bb 1f 26 3e 96 eb e6 3d 9f b9 2f be
       -0.12363845 0.16223042 0.11275403 -0.17160653
000200 08 b7 a4 3d 17 65 20 3e 6b f2 e6 bd 97 63 76 bd
       0.08042723 0.15663563 -0.11276706 -0.06015357
000210 06 91 81 be 92 0b dd 3c 10 7c 20 bd ce 47 52 3c
       -0.25305957 0.026983056 -0.039180815 0.012834502
000220 90 57 38 bc e8 32 41 3d 96 15 40 3d d5 81 18 bd
       -0.011251345 0.04716769 0.046895586 -0.037233192
000230 c5 6c 1b bd 7e d7 a1 3d cc 29 8c bd fe c6 94 3d
       -0.037945528 0.0790243 -0.068439096 0.07264517
000240 fa 32 17 bc b5 3c 0f bd e4 10 19 3e 67 7d ba 3d
       -0.009228462 -0.034970004 0.1494785 0.0910595
000250 a9 57 6c bd 7c d6 e2 3d 78 eb 88 3c 50 2e b5 3c
       -0.057700787 0.11076066 0.016713843 0.02211681
000260 73 7d de bb 00 9e 22 be 3d a2 92 bc ce cc 8e 3d
       -0.006789857 -0.15880585 -0.017899627 0.06972657
000270 6d d9 93 3b 3f d6 09 be c2 64 14 3d c5 62 29 be
       0.004512003 -0.13460635 0.036228903 -0.16541584
000280 91 bc a9 bd 99 6b 6f 3c 28 6a 1d 3c 59 d3 8a bd
       -0.08287919 0.014613056 0.009607829 -0.067785926
000290 45 cc f1 bd 34 1b 19 3e 92 40 20 3e 9e e0 34 3d
       -0.118065394 0.14951783 0.15649632 0.044159524
0002a0 e7 fd bb bd e1 85 87 3c a4 ce d7 3b c2 93 18 3d
       -0.091792874 0.01654333 0.006585913 0.037250288
0002b0 bf 8f a1 3d 7f c7 ac 3d e1 af 2f 3b e9 e3 cd 3c
       0.078887455 0.08436488 0.0026807713 0.02513309
0002c0 73 91 8c bd ad ca 9a bd 88 b4 d3 bb 16 31 12 be
       -0.0686368 -0.075581886 -0.00646073 -0.14276537
0002d0 ab 06 d1 bd 7e d6 48 3e 3d f6 ab bb e7 6a f9 bd
       -0.1020635 0.19613072 -0.0052478597 -0.12178593
0002e0 e2 dd af 3b 99 58 d5 bd 16 1f 76 bd fc d9 1e 3e
       0.0053670267 -0.10417289 -0.06008824 0.15512842
0002f0 d2 5c bb bd 3a ac e0 3d 94 fd bb bd e2 d8 68 bd
       -0.091485634 0.109703496 -0.091792256 -0.05684746
000300 be 48 f9 3d ce 41 92 bd 1d 2a 12 bd 0a 00 c2 bd
       0.121720776 -0.071414575 -0.035684694 -0.09472664
000310 bf 8a 65 3d 0f 2f 08 3e 70 82 2f bd 0b da 23 be
       0.05604052 0.13299201 -0.042849004 -0.16001146
000320 b6 7b 66 3d 20 16 a2 3d db fd 8c 3d 75 17 11 3c
       0.056270324 0.07914376 0.068843566 0.00885569
000330 ae da 4e bd 76 b5 0f 3e e4 5a a3 bb 6b 34 99 bd
       -0.050501518 0.14034066 -0.0049852002 -0.07480701
000340 0a e3 6e bd 60 0b 36 be 15 35 3f bd dc 05 08 3e
       -0.05832199 -0.17777777 -0.046681482 0.13283485
000350 3e 8c 81 bd 83 67 cb 3d 44 59 60 bd 71 af c2 bd
       -0.06325577 0.09931853 -0.05477263 -0.09506119
000360 34 ab a5 ba 8a ae fc bd 4e 26 54 be 25 23 c0 3d
       -0.0012639523 -0.12337978 -0.20717737 0.09381703
000370 a5 61 5e 3e 99 dc a5 bc 84 fc eb 3c c3 dc 57 3e
       0.21716936 -0.02024679 0.028806932 0.21080308
000380 9f 9c a1 bd 79 37 a7 3c 33 a9 e4 bd db b0 33 bd
       -0.07891201 0.020412194 -0.11165085 -0.043869834
000390 69 28 59 3e 59 7e c4 3d 14 37 09 3e 15 57 a0 bd
       0.21206822 0.095944114 0.13399917 -0.078291096
0003a0 54 fb d0 3d 00 d3 c5 bd ab 6a ae bd 21 d0 d4 3d
       0.10204187 -0.09659386 -0.08516439 0.1039126
0003b0 18 f5 38 3d d0 c5 40 3e 71 28 a7 bc 6a cf 11 bd
       0.045155615 0.1882546 -0.020405026 -0.035598196
0003c0 2d 5f a5 3d a1 36 46 bd 99 31 3b be be 60 8e bd
       0.08074794 -0.048391942 -0.18280639 -0.06952046
0003d0 b1 eb ff 3d 0c 85 0d bd 78 1f 3b bb 66 bc 46 3e
       0.124961264 -0.03455071 -0.0028552692 0.19407806
0003e0 e4 d4 11 be 11 fd ba 3d 05 1e 17 3d 8b 17 bb bd
       -0.14241368 0.091303 0.036893863 -0.0913535
0003f0 c6 d2 cd 3d fb 74 19 3d e1 e1 10 3d e7 42 ca bc
       0.100499675 0.037465077 0.035371665 -0.024690105

gru.bias_ih_l1 f4 [150]
000000 1a 83 5d 3e 16 eb 4f 3e 16 a2 11 3e 0c e2 3e 3e
       0.21632043 0.20304522 0.14221987 0.18640918
000010 19 c8 44 3e f8 86 01 3e fa ff b7 3b f0 ba 34 3d
       0.19216956 0.12649143 0.0056152316 0.04412359
000020 b5 f8 f7 3c 19 40 92 3c c5 58 e3 3d 76 b9 37 3e
       0.03026996 0.01785283 0.11100916 0.17941841
000030 cb 77 6f bc 19 ca 19 3c 7f 92 2f 3e 9d 6f 39 3e
       -0.014615963 0.009386563 0.17145728 0.18108983
000040 da dd ba 3d 8a 19 8f 3d 5c 52 46 bd ba 79 ca 3d
       0.09124346 0.06987293 -0.048418388 0.09886499
000050 c9 31 eb 3d 3a ac 1e 3e 4d 23 89 3d 0c 66 47 3d
       0.11484105 0.15495387 0.06696186 0.048681304
000060 c8 1b e4 3d c2 77 8a bd 76 c2 9b 3d 1e d4 04 3e
       0.11138111 -0.06761123 0.0760545 0.12971541
000070 99 10 48 3d 58 b5 8b 3d d4 b2 d6 3c bc 9d 51 3e
       0.048843954 0.06821698 0.026208319 0.20470327
000080 37 42 0a 3e 8f fc 81 bd a7 44 11 3e a2 b2 8e bd
       0.13501821 -0.06347 0.14186345 -0.06967665
000090 aa b3 f5 3d d7 85 3d 3e f8 f8 92 bd 65 1f 75 bd
       0.11997159 0.18508087 -0.07176393 -0.059844393
0000a0 b4 1a 5c 3d 19 2b 3e bc 6a d1 89 3d 59 ad bd 3d
       0.053736404 -0.011606955 0.06729396 0.09261579
0000b0 0f 04 37 3e 88 0b c7 3d 5d 09 2d 3e be 38 4b 3e
       0.17872642 0.09718996 0.16898103 0.19845864
0000c0 58 9c b7 bc f6 7c d6 bc 53 d9 68 bd ea 98 08 be
       -0.022413418 -0.026182633 -0.05684788 -0.13339582
0000d0 9c ff f8 bd d0 dd f7 bd 73 92 a1 bc 1d 38 41 be
       -0.121581286 -0.12102854 -0.019723153 -0.18869062
0000e0 09 66 01 3e 25 37 ee bc 10 f0 31 be ad 57 3b 3d
       0.1263658 -0.02907903 -0.17376733 0.04573791
0000f0 fe a3 8b be 97 5e 25 be d3 d1 e4 bd 8b 4e 31 be
       -0.27273554 -0.16149364 -0.11172833 -0.17315118
000100 76 57 13 be b5 5a 89 bc 25 e2 a1 bd 40 47 9a be
       -0.14388832 -0.016766885 -0.07904462 -0.30132484
000110 b0 e8 8f be 8d 18 3b bd db 47 b3 b9 95 ad 04 be
       -0.28107214 -0.04567771 -0.00034195077 -0.12956841
000120 83 85 8a be 1b 63 81 3d 11 5e 12 be b5 9d f5 bd
       -0.27054986 0.06317731 -0.14293696 -0.11992971
000130 2b 3b a0 be 64 12 45 be b9 6a 67 3b b1 f5 12 bd
       -0.31295142 -0.19245297 0.0035311414 -0.03587884
000140 ee 0b 80 bc ab 40 2a bc 1e 4d 80 be 42 2d 90 bd
       -0.015630689 -0.010391395 -0.25058836 -0.07039882
000150 da 35 36 be 5f ee 97 3b ed eb 70 be be 7a 32 bc
       -0.1779398 0.0046365703 -0.23527499 -0.010893522
000160 2d aa 9f 3c 8d b2 e1 bd 75 d1 d0 bd 23 ca 23 be
       0.019490326 -0.11020384 -0.10196201 -0.15995078
000170 01 8f 90 3c f6 39 74 be af 22 87 bc 17 99 10 3d
       0.017646315 -0.23850235 -0.01649603 0.035302248
000180 79 98 92 bd df 8a 0e bd 8e 75 2e be ce d7 f7 bb
       -0.07157988 -0.034800407 -0.17037031 -0.0075635677
000190 2e 21 36 bd 85 e8 81 bd 31 27 bb bd bc 89 42 bd
       -0.044465236 -0.06343178 -0.091383345 -0.047494635
0001a0 5a 8b b5 3d 29 7f 89 3b 18 d3 ef 3c f6 3e ae bd
       0.0886447 0.004196067 0.029275462 -0.085081026
0001b0 e3 11 02 3e d5 95 30 bd 03 2d 26 bb 5e 64 08 3e
       0.12702136 -0.04311164 -0.002535642 0.13319537
0001c0 2b e9 02 be 88 38 0d 3e 2b 1d af bd 81 a4 9e 3c
       -0.12784259 0.13791096 -0.08550485 0.019365551
0001d0 a9 4a 81 bd 63 0e 8b bd 80 24 93 3d 75 be 13 bc
       -0.063130684 -0.067898534 0.07184696 -0.009017576
0001e0 c1 d9 06 3e e7 6c 14 3e 84 f5 1f 3e 6b eb 4b 3d
       0.13169004 0.14494668 0.15621 0.04978506
0001f0 64 50 ec bd 5d 3e b8 3d bb 0c 91 3d 13 ad c8 bd
       -0.11538771 0.0899627 0.07082506 -0.09798636
000200 48 cf 0b 3c 23 d8 e4 3c 08 8f 3b 3c cd c6 08 be
       0.008533306 0.027935093 0.0114476755 -0.13357086
000210 8f 37 37 be 4d 2b ff bd 19 6b 31 3c ba 92 0e 3e
       -0.17892288 -0.12459431 0.010828757 0.13923159
000220 b9 72 62 3d ba fe 8b 3d 16 a2 2c 3d f3 f4 6e 3d
       0.05528519 0.068356946 0.042146765 0.05833907
000230 2e 6b 0a 3e 30 2e 45 bd 4e 12 3b bd fc 87 48 bd
       0.13517448 -0.04813975 -0.045671754 -0.04895781
000240 09 61 fe bd 60 a6 8e bd 07 c3 2c bd 79 89 1c be
       -0.12420852 -0.06965327 -0.04217818 -0.15286817
000250 62 07 6f bb 91 7d a5 3d
       -0.0036472906 0.080805905

gru.bias_hh_l1 f4 [150]
000000 fe 39 a4 3d 44 e9 59 3e dd c9 22 3e 2c 74 22 3e
       0.08018874 0.2128039 0.15897317 0.15864629
000010 f3 16 8a 3d 16 d0 54 3e 3a de 49 3e f5 a8 2f 3e
       0.067426585 0.20782503 0.19713679 0.17154296
000020 6d f3 71 3d a1 59 d9 3d a3 04 1a 3e c9 6c a6 3d
       0.05907004 0.106127985 0.15040831 0.08126218
000030 3b cd 86 bd e5 97 03 bd 60 d0 e0 3d be 89 25 3e
       -0.06582113 -0.03212728 0.109772444 0.16165826
000040 a2 23 c0 3d 14 27 b7 3d 6a 50 d4 3c 6b da 09 3e
       0.093817964 0.089430004 0.02591725 0.13462226
000050 b4 5a 59 bd 14 3d 20 3e 1e fa d5 bc 25 80 43 bd
       -0.053065017 0.156483 -0.026120242 -0.04772963
000060 04 19 e0 3c 10 4f 06 3e 09 25 11 3e e0 89 8a 3d
       0.027355678 0.13116097 0.14174284 0.06764579
000070 32 7d 12 3e b9 05 b4 3d 22 ce 3f bd 8f 78 e6 3d
       0.1430557 0.08790154 -0.046827443 0.112534635
000080 dd 93 1b bd e1 59 fb bc c1 71 73 3d f5 4c ba 3b
       -0.03798281 -0.030682506 0.059434656 0.0056854435
000090 3e 84 3c 3e fe ca 8b bd b2 be bb 3d 6b a6 95 3d
       0.18409821 -0.06825827 0.091672316 0.07307132
0000a0 a1 b5 0c 3c b1 e3 9c 3d 29 c1 2d 3d 37 a3 11 bd
       0.008588226 0.07660616 0.04242054 -0.035556044
0000b0 ff c3 6c bc ff b1 16 3e d8 55 b0 3a 48 b6 51 3d
       -0.014451026 0.14716338 0.0013453318 0.051199228
0000c0 12 6a 39 3e 2b 0e 0b bd 22 c0 7e bd 17 4e 86 bc
       0.18106869 -0.03394906 -0.06219495 -0.016394658
0000d0 eb 3e 11 be 50 ca 8c bd 09 f5 87 bb 41 11 90 be
       -0.14184158 -0.068745255 -0.0041490835 -0.28138164
0000e0 4f c9 a8 bd ce d9 90 3d ba ad 4c be 16 39 f8 bd
       -0.082415216 0.07072793 -0.19988146 -0.12120263
0000f0 23 f9 ba bd 67 f1 83 3d 3d d2 4e be 21 16 23 be
       -0.0912955 0.06442528 -0.20197387 -0.1592641
000100 f4 24 24 bd 88 e7 1b bd 58 10 7b bd 83 34 89 be
       -0.040074304 -0.038062602 -0.061294883 -0.26797876
000110 3d f2 3f be da bc 25 bd 42 1b fb bd 0a 6d 05 be
       -0.1874475 -0.040463306 -0.122610584 -0.13029876
000120 66 5b 01 be 67 49 3f 39 64 bb 93 bd b2 c1 ee 3b
       -0.12632522 0.00018242524 -0.07213476 0.007286274
000130 e0 28 a6 bd 9d d1 5e bd e5 f2 80 be 11 03 0b be
       -0.08113265 -0.05439912 -0.25185314 -0.13575388
000140 df 83 1b bd 62 22 28 be 44 d2 86 bd 0e d3 ee bc
       -0.03796756 -0.16419366 -0.06583074 -0.029153373
000150 ec f0 83 bd 76 e6 6a bd 92 d2 1b be 44 e9 2e bd
       -0.064424366 -0.05734869 -0.15217045 -0.04270293
000160 05 b0 87 bd 06 dd 37 be 0e 80 82 bd 6d 6b 8e bd
       -0.0662537 -0.17955408 -0.06372081 -0.069540836
000170 f0 f6 f4 3c 98 6e 99 be a7 33 19 be f3 b9 0a 3c
       0.029902905 -0.2996719 -0.1496111 0.008467185
000180 26 af ec bd a6 0c 4e be 8d d4 eb bd b3 2f 8a bd
       -0.115568444 -0.20122012 -0.1151515 -0.06747379
000190 35 4b c9 bd e0 ce 9f bc 12 ec a0 bd ea 17 2a be
       -0.09828798 -0.019507825 -0.07857527 -0.16610685
0001a0 6c bc 1e 3d 20 a4 86 bd 3a 7a 0e bd 5a c2 6f bc
       0.03875391 -0.06574273 -0.034784533 -0.014633739
0001b0 07 ff ba bc 3e 7e b1 bd bf 2a 04 3e 58 e1 a2 3d
       -0.022826685 -0.08666657 0.12906931 0.07953137
0001c0 44 92 f1 3d 3a 40 0d be d7 40 e6 bd 2c 80 f2 3d
       0.11795476 -0.13794032 -0.11242836 0.11840853
0001d0 b7 9b cb bd 15 fa de 3c 68 5b 13 be 2b 85 5a bd
       -0.099418096 0.027218858 -0.14390337 -0.053349655
0001e0 9b f9 08 bd 02 b0 5b 3c 68 60 22 be bf 72 8e 3d
       -0.033441167 0.013408663 -0.15857089 0.0695548
0001f0 1a f5 00 be 62 d3 1f 3d 05 1d 0a be 8f c2 39 be
       -0.12593499 0.03901995 -0.13487633 -0.18140624
000200 c5 ba 20 3e 4c ad e6 bd f3 e7 b8 3d 85 7c c9 bd
       0.15696247 -0.112635225 0.09028616 -0.09838203
000210 39 64 7b be 87 45 a5 3d b7 8a 71 bd ad b5 d7 3c
       -0.2454995 0.08069902 -0.05897018 0.026331747
000220 f6 e0 21 3c 31 f1 8e bd 1e c4 95 bc 23 b9 1f 3e
       0.009880295 -0.06979597 -0.018281993 0.15597968
000230 55 ea 8f 3d 80 70 ca bc 60 ee cd 3d 1a 96 eb 3d
       0.07027117 -0.024711847 0.10055232 0.11503239
000240 80 3a ed bd 3a e6 32 3e 25 ce 06 be 79 50 ad 3d
       -0.115834236 0.17470637 -0.13164575 0.084626146
000250 7d 6f a5 bd 72 68 9d bd
       -0.08077905 -0.07685937

dense.weight f4 [1, 50]
000000 13 8e 4d be 0d 93 6c be cf bf 40 bb 08 f6 ce bd
       -0.20073728 -0.2310297 -0.0029411202 -0.101055205
000010 8d b1 17 be a3 53 57 be e8 6d 48 be 74 60 ef bd
       -0.14813824 -0.21027999 -0.19573176 -0.11688319
000020 88 d9 30 3e 90 de 95 bd c5 34 5d be b2 2a 5a 3e
       0.17270482 -0.07317841 -0.21602161 0.2130535
000030 67 9b 30 3e 8e ba 52 be 95 62 66 be d7 7c 4a be
       0.17246781 -0.20578977 -0.22498544 -0.19774185
000040 50 91 e3 3d d3 dd 4c be f1 d4 12 be 7b 7f 0d 3e
       0.111117005 -0.20006494 -0.14339043 0.13818161
000050 17 c4 14 3e 17 e9 c5 3d ec e6 1a 3e 03 c4 85 3c
       0.14527927 0.09663599 0.15127152 0.016328817
000060 ec d0 c3 3d 11 a1 48 3e aa d5 39 be 9e 63 da 3d
       0.09561333 0.19592692 -0.18147913 0.10663532
000070 93 26 23 3e 87 ae 45 3e a7 f5 08 3e 6f 7f 6d 3e
       0.15932684 0.19304858 0.13374959 0.23193143
000080 78 6d 2e 3e 23 2a 5e bd ff 7f 0e 3e ce 0f 0e be
       0.17033947 -0.054239403 0.13916014 -0.13873217
000090 7e 45 61 be be 3a 1c 3e ff ba f8 3d bb 84 20 3e
       -0.21999165 0.15256783 0.12145042 0.15675633
0000a0 ed 3a 7e 3e 63 d6 e5 3d dc 42 1e be fb 0d 02 3e
       0.24827166 0.11222532 -0.15455192 0.12700646
0000b0 59 6b 45 3e af 6d 2e 3e 10 d2 ec 3d f1 aa 86 3d
       0.19279231 0.17034028 0.11563504 0.06575573
0000c0 bc 5e 03 be e0 19 ef bd
       -0.12829107 -0.11674857
