checkpoints_gp/generator_checkpoint20.pth.tar (torch_old, 298586 bytes, 54 tensors)

gru.weight_ih_l0 f4 [90, 10]
0	0x3d638c29	0.05555359
1	0xbde90e8f	-0.1137973
2	0x3def5f3b	0.11688086
3	0xbe385271	-0.18000199
4	0x3cfc0a9d	0.03076678
5	0xbdcc2073	-0.09967127
6	0xbe32923f	-0.17438601
7	0x3d0eb3e4	0.034839526
8	0x3dff3738	0.12461704
9	0x3e1139f9	0.14182271
10	0x3c1a51fe	0.0094189625
11	0x3e04a786	0.1295453
12	0xbc2f6239	-0.01070457
13	0x3e306ce7	0.17229043
14	0xbe0944da	-0.13405171
15	0xbd00e049	-0.031463895
16	0x3ce0311b	0.027367165
17	0xbe31d2fb	-0.17365639
18	0x3cf86001	0.030319216
19	0x3c35d9b2	0.011099266
20	0xbdb4c990	-0.088275075
21	0xbd9660a1	-0.07342649
22	0x3de395f3	0.11112585
23	0xbcf042fb	-0.029328814
24	0x3c9ab8a3	0.01888687
25	0xbd906065	-0.07049636
26	0xbdb1aca2	-0.08675505
27	0xbd4d7c4e	-0.050167374
28	0x3ccfb1b4	0.02535329
29	0x3dc00894	0.09376636
30	0x3da6ed43	0.08150723
31	0x3dda43ba	0.10657449
32	0xbc43f7c8	-0.011960931
33	0xbd9bf15d	-0.07614396
34	0x3ccac870	0.02475378
35	0x3c191055	0.009342273
36	0x3c3722d6	0.011177739
37	0xbd0213d7	-0.031757202
38	0xbdaf81a9	-0.085696526
39	0xbd48ed6c	-0.04905455
40	0xbe1390cb	-0.14410703
41	0x3dc3502a	0.095367745
42	0x3c5affc9	0.013366648
43	0x3d83a2c5	0.0642753
44	0x3d78b519	0.060719583
45	0xbe2ff0d6	-0.17181715
46	0x3e2ff852	0.1718457
47	0x3d996776	0.07490437
48	0xbcf11f70	-0.029433936
49	0xbd54dc96	-0.05196818
50	0xbde928ce	-0.11384736
51	0xbd94e081	-0.07269383
52	0xbde9614e	-0.113955125
53	0xbe1ca351	-0.15296675
54	0xbd9edfbf	-0.0775752
55	0x3d95589f	0.07292294
56	0xbaadaf02	-0.0013251009
57	0x3e28d9c6	0.16489324
58	0x3d656694	0.05600603
59	0xbe31e29b	-0.173716
60	0xbe0e1a6c	-0.13877267
61	0x3e266b49	0.16251864
62	0xbdcd07de	-0.10011266
63	0xbdc3ca19	-0.095600314
64	0xbd0dc536	-0.034611903
65	0x3df9ca5c	0.121968
66	0x3d3b6359	0.045749042
67	0xbe357fd9	-0.17724551
68	0x3e1c627b	0.15271942
69	0xbd3a38a2	-0.045464166
70	0x3d307fb3	0.043090533
71	0x3e02a156	0.12756857
72	0xbe200c69	-0.15629734
73	0x3dfe248d	0.12409315
74	0xbdc976b4	-0.09837094
75	0x3e197834	0.1498726
76	0xbe416c0f	-0.18888877
77	0xbdbc4576	-0.09192936
78	0xbd352a12	-0.044229575
79	0xbda9f4fc	-0.0829868
80	0x3d1c44ef	0.038151678
81	0xbdb97a63	-0.090565465
82	0xbd006317	-0.0313445
83	0x3db38ef3	0.087675
84	0xbe315b04	-0.17319876
85	0xbe239eee	-0.15978596
86	0x3d709c8b	0.05874304
87	0xbe223e4b	-0.15844075
88	0x3cd12168	0.025528625
89	0x3de88b8a	0.1135474
90	0xbe159468	-0.14607394
91	0x3b661c4f	0.0035112088
92	0xbdfa567b	-0.12223526
93	0x3de20706	0.11036496
94	0xbe16472f	-0.14675592
95	0xbdb1e743	-0.08686688
96	0x3d8ffbd7	0.070304565
97	0x3dfa9808	0.12236029
98	0xbdd4c57f	-0.10389232
99	0xbe20c3f2	-0.15699747
100	0x3e0098b7	0.12558256
101	0x3e241aa5	0.16025789
102	0x3c1c034f	0.009522273
103	0x3dee8ee5	0.11648349
104	0x3e32add8	0.17449129
105	0xbd942b97	-0.072348766
106	0xbe0ed833	-0.13949661
107	0xbe3903c7	-0.18067847
108	0xbc8d9fd1	-0.01728812
109	0xbc928458	-0.017885372
110	0x3d713dab	0.0588967
111	0x3d247a83	0.0401559
112	0x3e0fff78	0.14062297
113	0xbe2eb391	-0.17060687
114	0xbd2d3432	-0.042286105
115	0x3e2b626e	0.16736767
116	0xbdd52960	-0.10408282
117	0xbd096ed5	-0.033552963
118	0xbd7f0735	-0.062262733
119	0xbe2031f4	-0.15644056
120	0xbccede57	-0.025252504
121	0x3cb55661	0.022135915
122	0x3e2e77cf	0.17037891
123	0x3e1b34a5	0.15156801
124	0xbd3391a1	-0.043840054
125	0xbd737527	-0.059437897
126	0x3d93e7d3	0.07221951
127	0xbe00abdc	-0.12565559
128	0xbaffe2c0	-0.0019522533
129	0xbdf31043	-0.11868336
130	0xbd80e612	-0.062938824
131	0xbe162c14	-0.14665252
132	0x3dd1ca23	0.10243633
133	0xb7477530	-1.1888609e-05
134	0xbd850088	-0.06494242
135	0xbca3a1a3	-0.019974535
136	0x3e0bb3c9	0.13642801
137	0xbd962a79	-0.0733232
138	0xbe3e73dd	-0.18598886
139	0xbd6930fe	-0.05693149
140	0x3d166d66	0.036725424
141	0xbdb56281	-0.08856679
142	0x3b6d5d8e	0.0036219093
143	0x3da2ff02	0.07958795
144	0x3e14db75	0.14536841
145	0xbdcd39f3	-0.100208186
146	0x3e0ae358	0.13563287
147	0xbe068259	-0.13135661
148	0xbde86979	-0.11348242
149	0xbc45ec50	-0.012080267
150	0xbe2e6fce	-0.17034838
151	0x3e07d973	0.13266544
152	0x3d3fbfa7	0.046813633
153	0x3e20a2eb	0.15687148
154	0xbab06bd0	-0.0013459865
155	0x3ddaea90	0.106892705
156	0xbe1f09ad	-0.15531035
157	0xbddc183a	-0.10746808
158	0x3e013845	0.12619121
159	0xbdb9da53	-0.09074845
160	0x3d7a9c1b	0.06118403
161	0xbd90a451	-0.07062591
162	0xbbac032a	-0.0052494006
163	0x3e3d0d6e	0.18462154
164	0xbd16a7db	-0.036781173
165	0x3a8c6b1b	0.0010713072
166	0xbe2b9199	-0.1675476
167	0x3deec5d6	0.11658828
168	0x3e3ba33d	0.18323989
169	0xbd2056c8	-0.03914526
170	0x3dc33c8b	0.09533032
171	0x3dc2c12c	0.09509501
172	0x3dacfe55	0.084469475
173	0xbe0bfb77	-0.13670145
174	0xbdd3dcb8	-0.10344833
175	0x3d35c7df	0.044380065
176	0x3cc27bbf	0.023740647
177	0x3da89ce0	0.082330465
178	0xbd8b9671	-0.06815804
179	0x3e0833bc	0.13300985
180	0x3e18e218	0.14929998
181	0x3d4624ab	0.048374813
182	0x3e0a3fee	0.1350095
183	0x3d5c0f65	0.05372562
184	0xbdab5b9f	-0.08367085
185	0x397095ca	0.00022943984
186	0xbd981ecb	-0.07427748
187	0x3e052c2d	0.13005133
188	0xbe0c0d00	-0.13676834
189	0x3e3b4460	0.18287802
190	0xba4f8ef8	-0.00079177273
191	0x3e140a97	0.14457165
192	0x3d3e0644	0.046392694
193	0xbd8682f7	-0.06567948
194	0x3e3cf927	0.18454419
195	0x3d98b00b	0.074554525
196	0xbdc7b68d	-0.09751616
197	0x3e2707e4	0.16311604
198	0xbbebbcd7	-0.0071941423
199	0xbb1716e6	-0.002305442
200	0xbc2d935f	-0.010594218
201	0xbd15eed8	-0.036604732
202	0x3d9bc362	0.07605626
203	0x3e25cea9	0.16192116
204	0x3dadbd1a	0.08483334
205	0x3e166c33	0.14689712
206	0xbcebad5f	-0.028769193
207	0x3e1086ca	0.14113918
208	0xbd97a2e7	-0.07404118
209	0x3d0af6ff	0.03392696
210	0xbc928104	-0.017883785
211	0xbdc36acb	-0.095418535
212	0x3d8fab2d	0.07015071
213	0x3dcd5caa	0.1002744
214	0x3e2f31b1	0.171088
215	0xbe4a9d02	-0.19786456
216	0xbe3b6550	-0.18300366
217	0x3e42847c	0.18995851
218	0xbc97c9b9	-0.018528806
219	0x3e31ad61	0.17351295
220	0xbe21882a	-0.15774599
221	0x3d9024c1	0.0703826
222	0x3b5e384a	0.0033908063
223	0xbd5b0dc0	-0.05347991
224	0xbc37e129	-0.011223116
225	0x3e37a59a	0.17934266
226	0x3e31653c	0.17323774
227	0xbe05b947	-0.13058959
228	0x3d687516	0.056752287
229	0x3b39f201	0.0028373005
230	0x3dfc029e	0.12305187
231	0x3df70c03	0.12062838
232	0x3e119e2a	0.14220491
233	0xbdf2072f	-0.118177764
234	0x3cb18e0b	0.021674177
235	0x3df89ffc	0.121398896
236	0xbe4024e1	-0.18764068
237	0xbd02a7c9	-0.031898294
238	0xbcac90bb	-0.021065107
239	0xbde3e936	-0.11128466
240	0x3e40b056	0.18817267
241	0xbe123e71	-0.14281632
242	0xbdcb3d9e	-0.09923862
243	0x3dbea022	0.09307887
244	0x3dd37ec3	0.10326912
245	0x3e324875	0.17410453
246	0xbdfd08c6	-0.12355189
247	0xbde35cb6	-0.111016676
248	0x3db3747a	0.087624505
249	0x3dd9105f	0.10598826
250	0xbe0b8347	-0.13624297
251	0x3dc3680a	0.09541328
252	0x3e0fa82c	0.14028996
253	0xbd227bb8	-0.03966877
254	0x3d969c86	0.07354073
255	0x3d9eb0f8	0.07748598

gru.weight_hh_l0 f4 [90, 30]
0	0xbe272ccd	-0.16325684
1	0xbe083e71	-0.1330507
2	0x3ddad48d	0.10685072
3	0x3e397aa0	0.18113184
4	0xbdc4e12b	-0.0961326
5	0xbd7d7228	-0.061876446
6	0x3d93638e	0.07196723
7	0x3d050e1e	0.032484166
8	0xbddedb2c	-0.108816475
9	0x3abc0072	0.0014343394
10	0xbd114dc6	-0.03547456
11	0xbdebed5c	-0.11519882
12	0x3d63d482	0.055622585
13	0x3db6cdf0	0.08925998
14	0xbd217699	-0.039419744
15	0x3dbea840	0.09309435
16	0x3dad1954	0.084520966
17	0x3d576371	0.05258507
18	0x3d9ab9b6	0.07554953
19	0x3cd9c79f	0.026584445
20	0xbdc27e31	-0.09496725
21	0x3dce68c9	0.1007858
22	0x3d884ebb	0.06655642
23	0x3e1e8b54	0.15482837
24	0x3e0d5ff0	0.13806129
25	0xbdcca166	-0.09991722
26	0x3e3760fe	0.17908093
27	0x3da3ab08	0.07991606
28	0x3dd09f12	0.1018659
29	0x3e034b91	0.12821795
30	0x3d9c9732	0.07646026
31	0xbe353b18	-0.17698324
32	0x3e105df9	0.14098348
33	0xbdf4603f	-0.1193242
34	0xbe2eb636	-0.17061695
35	0xbe379f92	-0.17931965
36	0x3dea2351	0.11432517
37	0xbe4b1c7f	-0.19835089
38	0xbbc6aa4d	-0.006062782
39	0xbddcee2b	-0.107876144
40	0xbd3e8277	-0.04651114
41	0x3d08630e	0.03329759
42	0x3e118475	0.14210685
43	0xbda69a28	-0.08134872
44	0xbdba5aba	-0.09099336
45	0xbc039963	-0.008032176
46	0xbd7db870	-0.06194347
47	0x3dc127fc	0.094314545
48	0x3d173140	0.036912203
49	0xbe2760a8	-0.16345465
50	0x3d62b2e1	0.055346373
51	0xbd4ef917	-0.05053052
52	0x3bec4283	0.0072100773
53	0xbe3ec100	-0.18628311
54	0x3cc433f7	0.02395056
55	0xbc8f0d37	-0.017462356
56	0x3e05c6ba	0.1306409
57	0xbd3bdeeb	-0.045866888
58	0x3dc0af53	0.094084404
59	0x3c267d19	0.010161662
60	0x3db01a62	0.08598782
61	0x3e1b3c7f	0.15159796
62	0xbd3fc806	-0.046821617
63	0x3c37dd3c	0.01122218
64	0xbda08316	-0.07837503
65	0x3e1e03ea	0.1543118
66	0xbe1993a0	-0.1499772
67	0x3e0bf27a	0.13666716
68	0x3e36a20f	0.17835258
69	0xbd751a9c	-0.05983983
70	0x3d01c82a	0.031685032
71	0x3e298927	0.16556226
72	0x3dea69ed	0.11445985
73	0xbd7abdcb	-0.061216157
74	0x3de25f01	0.11053277
75	0xbe21367a	-0.15743437
76	0x3e1cfe49	0.15331377
77	0xbe207928	-0.15671217
78	0xbe04becb	-0.12963407
79	0xbda876f7	-0.08225816
80	0x3d34e6dd	0.04416548
81	0x3c842b79	0.01613401
82	0x3d5cf5a8	0.053945214
83	0xbd0c0e5b	-0.034193378
84	0x3dbf34bb	0.093362294
85	0xbddba7a1	-0.10725332
86	0xbc84a92e	-0.016193952
87	0x3dc95ef2	0.098325625
88	0x3e4645c7	0.19362555
89	0xbd94cd22	-0.072656885
90	0x3d7f1ff2	0.062286325
91	0x3dbed2d7	0.09317558
92	0x3e4a1356	0.19733939
93	0x3db5247b	0.08844849
94	0xbb45728f	-0.0030128097
95	0x3c83238a	0.016008157
96	0xbdcaa878	-0.09895414
97	0xbdd784cf	-0.10523378
98	0x3dd2a74d	0.10285816
99	0x3dea3a9a	0.114369586
100	0xbcc0e310	-0.023545772
101	0x3e1ae8fa	0.15127936
102	0xbd8de69b	-0.0692875
103	0xbdf0e581	-0.117625244
104	0x3e2ff2a7	0.17182408
105	0x3e1f99b6	0.1558598
106	0xbe156570	-0.14589477
107	0xbdd84906	-0.10560803
108	0x3d8f6843	0.07002308
109	0x3dccfe22	0.100094095
110	0x3e1cc6f9	0.15310277
111	0xbda61380	-0.08109188
112	0xbd8e1bb9	-0.069388814
113	0xbdecdc75	-0.11565486
114	0x3d58719c	0.05284272
115	0xbe3f23a1	-0.18665935
116	0x3de49d70	0.11162841
117	0x3e1b6b2b	0.151776
118	0xbca0561a	-0.019572306
119	0x3b34ec88	0.0027606804
120	0xbd9e31de	-0.07724355
121	0x3e0e730c	0.13911074
122	0x3e0dc0da	0.13843098
123	0x3d9efd82	0.077631965
124	0x3cf243e0	0.029573381
125	0xbd4ea626	-0.05045142
126	0x3e453700	0.19259262
127	0x3e146cf5	0.14494689
128	0xbd810486	-0.06299691
129	0x3e0e6ba0	0.13908243
130	0x3e3b8c8d	0.18315335
131	0xbc530442	-0.012879433
132	0x3d81ab0f	0.06331455
133	0x3d80944a	0.06278284
134	0x3e101e60	0.14074087
135	0x3d3d6b10	0.04624468
136	0xbdfa4658	-0.12220448
137	0x3e376ac8	0.17911828
138	0x3d9cfc5e	0.07665323
139	0xbaa9ab4f	-0.0012944731
140	0x3d91fe7d	0.07128618
141	0xbdc0f31c	-0.094213694
142	0x3e161237	0.14655386
143	0x3e0b4783	0.13601498
144	0xbd9662ba	-0.07343049
145	0x3e18fbfd	0.14939876
146	0x3e19aa14	0.15006286
147	0x3e0a4113	0.13501386
148	0xbdd57c0e	-0.10424052
149	0x3d4999d8	0.049218982
150	0xbe16a6f4	-0.14712125
151	0xbd98daba	-0.07463594
152	0xbe2cb02a	-0.16864076
153	0xbe46500d	-0.19366474
154	0x3e0e8c9d	0.13920827
155	0xbe3dfed6	-0.18554243
156	0xbe23c83a	-0.15994349
157	0x3d36eeb1	0.044661228
158	0x3b11c15a	0.002224049
159	0x3cc5cfd6	0.024146955
160	0xbd312ef7	-0.04325768
161	0xbe264855	-0.1623853
162	0xbc933c9a	-0.017973233
163	0x3c632b30	0.013865277
164	0x3d06e70c	0.032935187
165	0xbdad66b3	-0.08466854
166	0xbd3fcab7	-0.046824183
167	0x3e21945d	0.15779252
168	0x3db6e940	0.08931208
169	0xbdc2b44d	-0.09507046
170	0xbdf1450b	-0.11780747
171	0xbe0b1762	-0.13583139
172	0x3d50f730	0.051016986
173	0x3dff380e	0.124618635
174	0x3d5ac03f	0.053405996
175	0x3e41bcf2	0.18919733
176	0x3d5d5a81	0.05404139
177	0xbcfd72db	-0.030938556
178	0xbd97f9ea	-0.07420714
179	0x3d4d49b2	0.05011911
180	0xbdb5a0b5	-0.08868543
181	0xbd94fb01	-0.07274438
182	0x3e4dd592	0.20101002
183	0xbd81e055	-0.06341616
184	0x3dc1797f	0.09447002
185	0x3d25459a	0.04034958
186	0x3d8c87a1	0.06861807
187	0xbd18a4a7	-0.0372664
188	0x3d3f17d4	0.046653584
189	0xbe3866bd	-0.18007942
190	0xbda221f8	-0.07916635
191	0x3e039df7	0.12853228
192	0x3ce894c0	0.028391242
193	0xbd887347	-0.066626124
194	0xbd09f09c	-0.03367673
195	0x3d943d83	0.07238295
196	0xbe48033d	-0.19532485
197	0x3e46d7ce	0.1941826
198	0x3d4fdcea	0.05074779
199	0xbd3343e6	-0.043765925
200	0xbe0864dd	-0.13319726
201	0x3d9e616b	0.07733425
202	0x3e26b2c7	0.16279136
203	0xbe033c68	-0.12816012
204	0xbcc683a4	-0.024232693
205	0xbda879ec	-0.0822638
206	0x3d38f0bc	0.045151457
207	0x3ce67d07	0.02813579
208	0x3e2406cf	0.16018222
209	0xbcd60bc6	-0.02612866
210	0x3ddeca35	0.10878412
211	0xbe2b4910	-0.1672709
212	0x3de0b7b1	0.10972536
213	0x3ca43a20	0.020047247
214	0x3e152bb8	0.14567459
215	0xbc770146	-0.015075987
216	0xbd68ebee	-0.056865625
217	0x3d80ace0	0.06282973
218	0x3ddbe8bd	0.10737751
219	0x3e24f0a9	0.1610743
220	0xbde1845b	-0.11011573
221	0x3c8e51b1	0.017372938
222	0x3d90bcc4	0.07067254
223	0x3df09930	0.11747968
224	0xbd2778fc	-0.040886864
225	0xbda65015	-0.08120743
226	0x3e3f6632	0.18691328
227	0x3e0d497d	0.13797565
228	0x3ad5e87b	0.0016319895
229	0xbe07a96f	-0.13248228
230	0x3e08bf18	0.13354146
231	0x3d1f59c4	0.038903967
232	0xbde4624b	-0.111515604
233	0x3d357af6	0.044306718
234	0x3e19675e	0.14980838
235	0xbb88e67e	-0.0041778674
236	0xbe34249d	-0.17592092
237	0x3dac211e	0.08404754
238	0xbdf905e3	-0.12159326
239	0xbdae9c57	-0.08525913
240	0x3ddba662	0.107250944
241	0x3d0a6c56	0.033794723
242	0x3e36da78	0.17856777
243	0x3dacb7ee	0.08433519
244	0x3dc6d4cd	0.09708557
245	0x3d4378e8	0.047722727
246	0xbd8bada3	-0.06820228
247	0xbe5564fc	-0.20839304
248	0x3e2b5650	0.16732144
249	0xbdc010eb	-0.09378227
250	0xbdbd20a7	-0.092347436
251	0x3ca988b0	0.02069506
252	0x3e037dec	0.12841004
253	0xbdd5c31b	-0.10437604
254	0x3e1067fc	0.14102167
255	0xbd8ed855	-0.06974856

gru.bias_ih_l0 f4 [90]
0	0x3ce43f11	0.027862104
1	0x3d1f260a	0.038854636
2	0xbb325d88	-0.0027216394
3	0x3d7b45ae	0.06134575
4	0x3d63dd0f	0.05563074
5	0x3e1307c7	0.14358436
6	0x3e243514	0.16035873
7	0x3dfa2384	0.12213805
8	0xbdb2d723	-0.0873244
9	0xbbe7f449	-0.0070786816
10	0x3dc2e972	0.095171824
11	0x3e3e57d9	0.18588199
12	0xbdcb7c6b	-0.0993584
13	0x3e2eec41	0.17082311
14	0x3c98508c	0.018593095
15	0x3e247c9b	0.16063158
16	0x3e398823	0.18118338
17	0xbb9052a7	-0.004404384
18	0x3e148160	0.14502478
19	0x3e3b23fd	0.18275447
20	0xbd54357a	-0.05180881
21	0x3e00bc84	0.12571913
22	0xbdf9b95e	-0.12193559
23	0xbe238a46	-0.15970716
24	0x3e24bf64	0.16088635
25	0xbe062ea1	-0.13103725
26	0xbd7b887e	-0.061409466
27	0x3e2bbc51	0.16771056
28	0x3e32fef5	0.17480071
29	0xbe0b2ac5	-0.13590534
30	0xbe028444	-0.12745768
31	0x3e44daf1	0.19224145
32	0x3e030ad1	0.12797095
33	0xbdf8a4ed	-0.12140832
34	0x3e1bef79	0.1522807
35	0xbd9c68a8	-0.07637149
36	0x3e0f1c30	0.13975596
37	0xbe150997	-0.1455444
38	0xbc9c9b55	-0.019117037
39	0x3de5a6d4	0.112134606
40	0xbd0a85ee	-0.03381913
41	0xbda270fa	-0.07931705
42	0xbe278e76	-0.16362938
43	0x3d9b07e9	0.07569868
44	0xbd708f1b	-0.058730226
45	0xbe16dcf7	-0.14732729
46	0xbe0c5a8a	-0.13706413
47	0x3dc529fd	0.09627149
48	0x3dad88f9	0.08473391
49	0xbdd1ff4f	-0.102537744
50	0x3e0a8afc	0.13529581
51	0x3e36e7d1	0.17861868
52	0x3c551cb1	0.013007329
53	0x3e21b2d8	0.1579088
54	0x3d41e498	0.047337145
55	0xbdb14002	-0.08654787
56	0xbe081c41	-0.13292028
57	0xbd9117b3	-0.070845984
58	0xbcb19f20	-0.021682322
59	0xbd23da6b	-0.04000322
60	0xbe04d8f1	-0.12973382
61	0xbe0a799a	-0.1352295
62	0x3c291a42	0.010321202
63	0xbdc4093a	-0.09572072
64	0x3d2f9133	0.042863082
65	0x3d28e44d	0.04123335
66	0x3d71b46a	0.059009947
67	0xbadac5b6	-0.0016691003
68	0x3d69b548	0.05705765
69	0xbe1d5551	-0.15364577
70	0x3dc8c0a9	0.09802372
71	0xbd973c6a	-0.0738457
72	0xbd8c03ef	-0.06836688
73	0xbd90ea02	-0.070758834
74	0xbe1b76e6	-0.15182075
75	0xbe268196	-0.1626037
76	0x3da09bad	0.07842193
77	0x3cc6c723	0.024264878
78	0xbcaa4d0d	-0.020788694
79	0x3c8fb3be	0.017541762
80	0xbbeb9db6	-0.0071904315
81	0x3d716bfe	0.05894088
82	0x3bc8de99	0.0061300513
83	0xbd36b0aa	-0.044602074
84	0x3d632727	0.05545726
85	0xbe1a4ef7	-0.15069185
86	0xbe03b77f	-0.12862967
87	0xbde0c0be	-0.10974263
88	0x3e035469	0.12825169
89	0xbe2c80d7	-0.16846023

gru.bias_hh_l0 f4 [90]
0	0xbe242964	-0.16031414
1	0x3df114a3	0.11771514
2	0xbe11d861	-0.14242698
3	0xbc16e47d	-0.009209749
4	0x3b77d928	0.0037818644
5	0xbdcf9abc	-0.10136935
6	0x3c53cbce	0.012927009
7	0xbe25e9ba	-0.16202441
8	0xbd9b5a41	-0.07585574
9	0x3c629af6	0.013830891
10	0xbe18fb78	-0.14939678
11	0xbddb4f0c	-0.10708436
12	0xbd54686e	-0.051857404
13	0x3dba89c9	0.09108312
14	0xbe0c7ccd	-0.13719483
15	0xbd002e97	-0.03129443
16	0xbbed80d4	-0.0072480235
17	0x3e1c054c	0.15236396
18	0x3e3df2f9	0.18549718
19	0xbd4467bd	-0.047950495
20	0xbd81193d	-0.06303642
21	0xbdd9bd2a	-0.10631783
22	0x3c018aae	0.007906599
23	0x3c15f288	0.009152062
24	0x3d63552d	0.05550115
25	0x3e026475	0.12733634
26	0x3ceb2d2a	0.02870806
27	0x3d016270	0.031588018
28	0xbdf1190a	-0.11772354
29	0x3dd94147	0.10608154
30	0x3e28f955	0.16501363
31	0xbd4811e1	-0.048845176
32	0xbcc94cbe	-0.024572726
33	0x3c47eab0	0.01220195
34	0x3d0c202a	0.03421036
35	0x3d84ebb8	0.06490272
36	0xbdf30ef0	-0.118680835
37	0xbc8b75e8	-0.017023996
38	0xbd91bd43	-0.07116177
39	0x3cd139f2	0.025540326
40	0xbdd91697	-0.10600012
41	0x3da3bdc8	0.07995182
42	0xbdc2221e	-0.094791636
43	0xbc3c01e0	-0.011475056
44	0xbd04520e	-0.032304816
45	0x3d8d052d	0.06885753
46	0x3dddaf8c	0.108244985
47	0x3db05b41	0.08611155
48	0xbb558475	-0.0032580171
49	0xbc331447	-0.010930127
50	0xbdce2dc8	-0.10067326
51	0xbc07a28f	-0.008278503
52	0x3cc9695a	0.024586368
53	0x3d4e9225	0.050432343
54	0x3e008429	0.12550415
55	0x3e162d79	0.14665784
56	0x3e40e71b	0.1883816
57	0xbdbfb529	-0.093607254
58	0xba385292	-0.0007031347
59	0x3e22598f	0.15854476
60	0x3dc699c2	0.09697296
61	0xbcb8b353	-0.022546446
62	0xbd40992a	-0.04702107
63	0x3e22deac	0.15905255
64	0xbdf29a47	-0.11845832
65	0xbac36ae4	-0.0014909175
66	0xbe488f77	-0.19585977
67	0xbe0e1bd2	-0.138778
68	0xbc517116	-0.012783309
69	0x3d0f40fe	0.03497409
70	0xbd75a933	-0.059975814
71	0x3d938ec1	0.072049625
72	0xbdf213e4	-0.118202
73	0xbd9d86c8	-0.07691723
74	0xbe180a1b	-0.14847605
75	0xbe0fafd6	-0.1403192
76	0x3e13378c	0.14376658
77	0x3da5da9c	0.08098337
78	0x3e3c04f3	0.18361263
79	0x3d984815	0.074356236
80	0x3d3639a6	0.04448857
81	0x3d98520f	0.074375264
82	0x3e0cf5f3	0.13765697
83	0x3d9749bf	0.07387113
84	0xbe2ff87b	-0.17184632
85	0x3e1a5e49	0.1507503
86	0x3d6d85fd	0.05798911
87	0xbde3c532	-0.111215964
88	0xbe0155a7	-0.1263033
89	0x3dde7399	0.10861892

gru.weight_ih_l0_reverse f4 [90, 10]
0	0xbd2cb560	-0.04216516
1	0xbe0c007f	-0.13672064
2	0xbd6a0c7c	-0.057140812
3	0xbd2fa6b4	-0.04288359
4	0xbdc6f558	-0.09714764
5	0x3ca1991e	0.019726332
6	0xbcfe82d1	-0.031068237
7	0x3df511ff	0.11966323
8	0xbc2aaba1	-0.010416896
9	0xbd031222	-0.031999715
10	0x3e059587	0.13045321
11	0x3df26c88	0.11837107
12	0x3d4c2c86	0.04984715
13	0x3da85936	0.08220141
14	0x3e180ba3	0.14848189
15	0xbdc330b0	-0.09530771
16	0x3df2c42a	0.118538216
17	0xbdfbfdb0	-0.123042464
18	0xbe2495db	-0.1607279
19	0x3d3ac066	0.04559364
20	0xbb14460a	-0.0022624754
21	0x3e4a7933	0.19772796
22	0x3d886f45	0.06661848
23	0x3db0ccc7	0.08632808
24	0x3ca50500	0.020143986
25	0xbe4b5853	-0.19857912
26	0xbcfe391c	-0.031033091
27	0xbd38d19c	-0.045121774
28	0x3d886af4	0.06661025
29	0x3db5d131	0.08877791
30	0x3c5ed980	0.013601661
31	0xbb2cc753	-0.0026363924
32	0x3e7a2f99	0.2443222
33	0x3d2126e8	0.039343745
34	0x3d5f51da	0.05452142
35	0x3e15970e	0.14608404
36	0xbe01f15f	-0.12689732
37	0xbd2f4cbe	-0.042797796
38	0x3cc93f5f	0.02456635
39	0x3d84dbdb	0.064872466
40	0x3e1e659a	0.15468445
41	0xbc2ab20a	-0.010418424
42	0x3e2f422a	0.17115083
43	0x3da61903	0.08110239
44	0xbe102658	-0.14077127
45	0x3d5af5a8	0.053456932
46	0x3cad29af	0.02113804
47	0xbe11c8df	-0.14236782
48	0xbdfb1df0	-0.122615695
49	0x3df90116	0.1215841
50	0x3e0f416a	0.13989797
51	0x3beee450	0.0072904006
52	0xbd808bde	-0.062766775
53	0x3cb2b60f	0.021815328
54	0xbe2baa17	-0.16764103
55	0xbdc19252	-0.094517365
56	0xbd6c4146	-0.057679437
57	0xbdc5cb72	-0.09657945
58	0x3df8234b	0.121161066
59	0xbd86b44b	-0.06577357
60	0xbe07b5d7	-0.1325296
61	0x3c02fabe	0.007994352
62	0xbdc4c99c	-0.096087664
63	0x3e1f4317	0.15552936
64	0x3d82483b	0.06361433
65	0xbe0d038c	-0.13770884
66	0xbd93e82c	-0.07222018
67	0xbd0f917f	-0.035050865
68	0x3cd8c060	0.026458919
69	0x3dbd50de	0.0924394
70	0x3d9fa79b	0.0779564
71	0xbdff01c9	-0.12451512
72	0x3dddf465	0.1083763
73	0x3ce55dd2	0.027998839
74	0xbddef1b6	-0.108859465
75	0x3e0c2974	0.13687688
76	0x3daf00cc	0.08545074
77	0xbdadf502	-0.08493997
78	0x3c71dfdc	0.014762845
79	0xbc920ed9	-0.017829346
80	0x3e36d461	0.17854454
81	0xbdba21d9	-0.09088487
82	0x3e278d9b	0.16362612
83	0x3c21db90	0.009879008
84	0x3dd519a3	0.104052804
85	0x3d88e6dd	0.06684659
86	0x3d377b04	0.04479505
87	0xbd1fd926	-0.03902545
88	0x3ddeba89	0.108754225
89	0xbdac5d1e	-0.08416198
90	0x3d057e61	0.032591227
91	0x3dcaefac	0.09908995
92	0x3d9659a9	0.0734132
93	0xbdde3479	-0.10849852
94	0xbdca4fa0	-0.098784685
95	0x3e41b886	0.18918046
96	0xbe1cee93	-0.15325384
97	0x3d780234	0.060548976
98	0x3dfc9eca	0.12334974
99	0xbca13686	-0.01967932
100	0xbde464aa	-0.11152013
101	0xbcea338a	-0.028589029
102	0x3d3f6524	0.046727315
103	0x3cbc4ca7	0.02298577
104	0xbd86b456	-0.06577365
105	0xbdc4962e	-0.09598957
106	0x3d58f62d	0.052969147
107	0x3e0971f0	0.1342237
108	0x3db70f41	0.08938456
109	0xbd17fd47	-0.03710678
110	0x3c04538f	0.008076563
111	0xbe28f059	-0.16497935
112	0xb925f2f4	-0.00015826133
113	0x3dd9409b	0.10608026
114	0x3c68565b	0.014180745
115	0xbdea50b5	-0.11441175
116	0x3d6b1951	0.05739719
117	0x3df3ebfd	0.119102456
118	0xbdde6404	-0.1085892
119	0xbe057b31	-0.13035275
120	0x3e1a8d72	0.1509302
121	0xbd9ac8e0	-0.07557845
122	0xbdeba7df	-0.11506628
123	0x3e144947	0.14481078
124	0x3e214a72	0.15751055
125	0x3cbb27fb	0.022846213
126	0xbc18f8d0	-0.009336665
127	0xbc369e24	-0.011146102
128	0xbe2b8255	-0.16748936
129	0x3db4042a	0.08789857
130	0x3dea6cf0	0.114465594
131	0xbdf0f45d	-0.117653586
132	0x3ccec472	0.025240157
133	0xbdeb6dd9	-0.11495561
134	0x3de6c70f	0.11268436
135	0xbce8fa72	-0.028439734
136	0x3dbbed09	0.0917607
137	0x3daba727	0.08381491
138	0xbd3d37b5	-0.046195704
139	0xbe0141a3	-0.12622695
140	0x3d350300	0.044192314
141	0x3e2e2ab0	0.17008471
142	0xbdae5b3e	-0.08513497
143	0xbe1ee7d3	-0.15518121
144	0xbb27ed19	-0.00256235
145	0x3dc4f6da	0.09617396
146	0xbd828cb5	-0.06374494
147	0x3dbdc74a	0.09266527
148	0xbdae418b	-0.08508595
149	0xbd82fc7f	-0.06395816
150	0x3e150b1f	0.14555024
151	0xbdcbceca	-0.09951551
152	0x3dbc539b	0.09195634
153	0xbdff1514	-0.12455192
154	0x3dfdfde0	0.124019384
155	0x3e32ab4f	0.17448162
156	0x3e0dd274	0.13849813
157	0x3e1a7d3f	0.1508684
158	0x3e56125d	0.20905443
159	0xbde82b6b	-0.11336406
160	0x3d80ab90	0.06282723
161	0xbd603e9a	-0.0547472
162	0x3c8a7cc1	0.01690519
163	0x3e63abec	0.22233552
164	0x3cb16111	0.02165273
165	0x3df92757	0.121657066
166	0xbb4af2e1	-0.003096752
167	0x3d1b451f	0.037907716
168	0x3e00e908	0.12588894
169	0x3e0aedaf	0.13567232
170	0x3e1f77b9	0.15573014
171	0x3e038160	0.12842321
172	0xbd0a9246	-0.033830903
173	0x3dd514a1	0.10404325
174	0xbd1d3edb	-0.03839002
175	0xbd058f89	-0.03260759
176	0x3df7bc39	0.120964475
177	0xbdb2aba7	-0.08724146
178	0xbe51fa23	-0.20505576
179	0x3e0091bd	0.12555595
180	0x3e3fbbc9	0.18723978
181	0xbb5c7867	-0.0033641101
182	0xba1d8589	-0.0006008973
183	0x3d14d2a9	0.036333714
184	0x3daec9c0	0.085345745
185	0x3d71f9f3	0.05907626
186	0x3de390be	0.11111592
187	0x3cdd98f8	0.02705048
188	0xbd497df6	-0.04919239
189	0xbdbd9632	-0.09257163
190	0xbde29dbf	-0.11065244
191	0x3e216480	0.15760994
192	0x3e26844c	0.16261405
193	0xbd0cdf3f	-0.03439259
194	0xbcfd4aac	-0.030919395
195	0x3d8be1a3	0.06830146
196	0xbcedd0ef	-0.029030291
197	0xbdf0af1c	-0.117521495
198	0xbba86807	-0.005139354
199	0xbdca5d63	-0.09881093
200	0xbd968254	-0.07349077
201	0x3dfbe513	0.12299552
202	0xbc5b2f88	-0.013378032
203	0xbda4c658	-0.080456436
204	0x3d24814b	0.040162366
205	0x3c893de1	0.016753139
206	0x3d6fa2cc	0.058504865
207	0xbe04d9f2	-0.12973765
208	0x3db3b343	0.08774426
209	0x3e2073d2	0.15669182
210	0x3c650959	0.013979279
211	0x3daf88db	0.08571025
212	0xbc8b84ce	-0.0170311
213	0xbc200f32	-0.009769248
214	0x3e3875db	0.18013708
215	0xbd07105c	-0.032974586
216	0x3dec7560	0.11545825
217	0xbd3fb865	-0.04680671
218	0xbd175316	-0.03694447
219	0x3dea9e43	0.11455967
220	0xbd9f940b	-0.07791909
221	0xbd31f970	-0.043450773
222	0xbd5f4f6b	-0.0545191
223	0x3d0b5ba5	0.034022946
224	0xbd30582b	-0.043052834
225	0x3e031916	0.12802538
226	0x3d00b77a	0.031424977
227	0x3cb9345a	0.022607971
228	0xbdf1246a	-0.117745236
229	0xbd7d476f	-0.061835703
230	0xbe1eb4af	-0.15498613
231	0x3c8d4826	0.017246317
232	0x3d8d8402	0.06909944
233	0x3e03edd9	0.128837
234	0x3e03291a	0.12808648
235	0xbd3ba507	-0.04581168
236	0x3cbdea58	0.023183033
237	0x3bae41e1	0.005317912
238	0xbe3fbf27	-0.18725263
239	0x3e044508	0.12916958
240	0x3e44668e	0.19179747
241	0x3e34dbce	0.17661974
242	0x3e1a1dd0	0.15050435
243	0x3e36a25f	0.17835377
244	0xbe241781	-0.16024591
245	0x3e0a7a7f	0.13523291
246	0xbe449159	-0.1919607
247	0xbe0a4e07	-0.13506328
248	0xbdf8c350	-0.12146628
249	0x3dbe1c52	0.092827454
250	0x3e3cb542	0.1842852
251	0x3d3401d1	0.043947045
252	0x3d1e7a2d	0.038690735
253	0x3e5a40b9	0.21313752
254	0x3bc7d646	0.0060985414
255	0xbdac1345	-0.08402113

gru.weight_hh_l0_reverse f4 [90, 30]
0	0x3da50136	0.080568716
1	0xb89edf8c	-7.575666e-05
2	0x3bca780c	0.0061788615
3	0x3d6614fe	0.056172363
4	0xbdd4c872	-0.103897944
5	0xbd929e09	-0.07159049
6	0xbb3cecb7	-0.0028827616
7	0x3df9163b	0.12162443
8	0xbd22ef31	-0.039778892
9	0xbd32491a	-0.043526746
10	0x3dfa15b2	0.12211169
11	0x3c8211b7	0.015877588
12	0xbdccacaf	-0.09993874
13	0xbd19f332	-0.037585445
14	0xbdbffc0d	-0.09374247
15	0x3df3813e	0.11889885
16	0x3d52a38e	0.05142551
17	0xbcccc719	-0.02499728
18	0x3e2b6e8b	0.16741388
19	0x3dfd4496	0.12366597
20	0x3e508076	0.20361504
21	0xbe1d30a0	-0.1535058
22	0xbe47dcb8	-0.19517791
23	0xbdce8d3e	-0.100855336
24	0x3e71de4b	0.23619954
25	0xbe6d14e2	-0.23152497
26	0xbdd75c76	-0.105156824
27	0xbd9a5937	-0.07536548
28	0x3da54a22	0.0807078
29	0xbc9d8fb9	-0.019233571
30	0x3d9d73d3	0.07688107
31	0xbd4004e6	-0.04687967
32	0xbe344de0	-0.17607832
33	0x3e2af51f	0.16695069
34	0x3dd0976e	0.10185133
35	0xbdd1ce07	-0.10244375
36	0x3be57479	0.00700241
37	0x3e23ca68	0.1599518
38	0x3e356e9d	0.17717977
39	0x3bedfbca	0.0072626816
40	0x3e340550	0.17580152
41	0xbe152e4f	-0.14568447
42	0xbde0b6e6	-0.10972385
43	0xbe01cd0c	-0.12675875
44	0x3e37e597	0.17958675
45	0x3d4cb51f	0.049977418
46	0x3c274584	0.010209445
47	0x3e65dab5	0.22446711
48	0x3d50ae3a	0.050947405
49	0x3d3e086d	0.046394754
50	0xbb718523	-0.0036853037
51	0xbcfe33f1	-0.031030627
52	0xbe5935f2	-0.21211985
53	0x3df306b5	0.11866514
54	0xbd915f44	-0.070982486
55	0xbd4afcb1	-0.04955739
56	0xbe2630b7	-0.1622952
57	0x3e2ebdcf	0.17064594
58	0x3df98287	0.12183099
59	0x3d126d30	0.03574866
60	0xbd25b6c4	-0.040457502
61	0x3e433daf	0.19066499
62	0xbe38d814	-0.18051177
63	0xbd57b694	-0.052664354
64	0x3dc98e93	0.09841647
65	0x3e0a6af4	0.13517362
66	0xbd6930a6	-0.05693116
67	0xbcc19cf0	-0.023634404
68	0xbe0ebda2	-0.13939527
69	0x3d205790	0.039146006
70	0xbddfe73e	-0.10932778
71	0xbe0585f4	-0.1303938
72	0x3df2a948	0.11848694
73	0x3c67d3c5	0.014149611
74	0xbd91c210	-0.071170926
75	0xbda989dd	-0.082782485
76	0x3df9c966	0.12196617
77	0x3c81e9c0	0.015858531
78	0x3e25e4dd	0.16200586
79	0xbdbba60b	-0.091625296
80	0x3d7fc27d	0.062441338
81	0x3dfa4f70	0.12222183
82	0xbdffc1b0	-0.12488115
83	0xbd4989aa	-0.049203552
84	0xbd88e5d5	-0.06684462
85	0x3de9d9d6	0.11418502
86	0xbd09be55	-0.03362878
87	0xbc6eb6dc	-0.014569964
88	0xbd544486	-0.05182316
89	0x3e16be38	0.14721
90	0xbdecd365	-0.11563758
91	0xbc592c3a	-0.013255173
92	0xbe833c5e	-0.25631994
93	0x3da9362f	0.08262288
94	0xbc442dc0	-0.011973798
95	0x3de1afcd	0.110198595
96	0xbda90cb2	-0.082543746
97	0xbc557eee	-0.013030751
98	0x3d97bcae	0.07409035
99	0xbdb9825d	-0.09058068
100	0x3e79ec0d	0.24406452
101	0xbd1557f0	-0.036460817
102	0xbdca53e4	-0.09879282
103	0xbd2e3aa8	-0.042536408
104	0x3e639a4c	0.22226828
105	0x3e4b660b	0.19863145
106	0x3d83aa80	0.06429005
107	0x3c8367d8	0.016040727
108	0x3b95e300	0.0045741796
109	0xbe77beb6	-0.24193844
110	0x3d46dd41	0.048550848
111	0xbd1a4f6e	-0.037673406
112	0xba421799	-0.0007404029
113	0x3da32759	0.07966489
114	0x3cf202fe	0.029542442
115	0xbe574de1	-0.21025802
116	0xbe0300c7	-0.12793265
117	0x3e5b6f6d	0.21429224
118	0x3e3a3b2a	0.18186632
119	0x3e198c1b	0.14994852
120	0x3c771b7e	0.015082238
121	0x3e5c39fe	0.21506497
122	0x3dceff16	0.101072475
123	0x3e0a9a25	0.13535364
124	0x3c4709d1	0.0121483365
125	0x3d175209	0.03694347
126	0x3e5869ab	0.21134059
127	0x3b836de4	0.0040109027
128	0x3e105d8f	0.1409819
129	0xbe103b7c	-0.14085191
130	0x3e609ede	0.21935603
131	0xbdb52a59	-0.08845968
132	0xbd839c08	-0.06426245
133	0x3e52eff0	0.20599341
134	0xbdd5f96d	-0.10447965
135	0xbdcd00a5	-0.100098886
136	0x3d7f8c18	0.062389463
137	0x3cc3a89f	0.023884116
138	0xbb91dfee	-0.0044517433
139	0xbe46e50c	-0.19423312
140	0x3de6b2a2	0.1126454
141	0x3e00b8c1	0.12570478
142	0x3d456963	0.048196208
143	0xbddf47e6	-0.109023854
144	0x3dedaffa	0.116058305
145	0xbe5066bf	-0.20351695
146	0xbdb9c03c	-0.09069869
147	0x3dc7a95c	0.097490996
148	0x3e67cf25	0.22637613
149	0x3e1704cb	0.14747922
150	0xbdc19575	-0.09452335
151	0x3e396e1c	0.1810841
152	0xbd8aa201	-0.06769181
153	0x3e196929	0.14981522
154	0x3ddc86e1	0.107679136
155	0xbce60290	-0.028077394
156	0xbd830b60	-0.06398654
157	0xbdc5bbfa	-0.09654994
158	0x3defb633	0.117046736
159	0xbe13250c	-0.14369601
160	0x3e0c53c0	0.13703823
161	0xbbc50c1e	-0.0060134074
162	0xbe1c0a87	-0.15238391
163	0x3e576ba5	0.21037157
164	0x3d866a23	0.06563213
165	0xbd929789	-0.07157809
166	0xbda7b38d	-0.081885435
167	0x3c87f9aa	0.016598541
168	0x3e803476	0.25040025
169	0xbd992f78	-0.07479757
170	0xbc64430c	-0.013932001
171	0xbe230b90	-0.1592238
172	0xbdb1f8a1	-0.0869
173	0x3db0ed71	0.08639038
174	0xbca62f24	-0.02028615
175	0x3dc9a59e	0.09846042
176	0x3cbdfd68	0.023192123
177	0x3e1a8564	0.15089947
178	0x3cefb5ed	0.029261554
179	0x3d3816e1	0.044943694
180	0xbcf4aad3	-0.029866612
181	0xbd052a26	-0.0325109
182	0xbddf437a	-0.10901542
183	0x3e6389f8	0.222206
184	0x3d9bf8aa	0.07615788
185	0xbe23e376	-0.16004738
186	0x3ddf5e2a	0.10906632
187	0xbde57c28	-0.112053216
188	0xbe0f719a	-0.1400818
189	0x3d1d8401	0.038455967
190	0x3e472761	0.19448616
191	0x3e367ad4	0.17820293
192	0xbdcec9a6	-0.10097055
193	0xbd81bcf6	-0.063348696
194	0x3e3c0a48	0.18363297
195	0x3e5b2986	0.21402559
196	0xbdfe0d1d	-0.12404845
197	0xbe01a5a1	-0.12660839
198	0x3d4f79ca	0.050653256
199	0x3d3c44b3	0.045963954
200	0x3e076625	0.13222559
201	0xbe13e3e4	-0.14442402
202	0xbdd72d6e	-0.10506712
203	0x3cdc7b6b	0.026914319
204	0xbd00990a	-0.03139595
205	0xbe29319c	-0.1652283
206	0xbd087348	-0.033313066
207	0xbe0637b6	-0.1310719
208	0xbd6b30d5	-0.057419617
209	0x3d5090fa	0.05091951
210	0x3e18caa4	0.14921051
211	0x3dc6e403	0.097114585
212	0x3d81aa19	0.06331272
213	0x3d9ce6a1	0.076611765
214	0xbd4ff572	-0.050771184
215	0xbe184697	-0.14870678
216	0xbdc305c4	-0.09522584
217	0x3ccf1d40	0.025282502
218	0xbcd4e5a1	-0.025988402
219	0xbdb3fb7c	-0.08788201
220	0x3db39107	0.08767896
221	0xbde16e76	-0.11007397
222	0xbd86d0e6	-0.06582813
223	0xbcf49575	-0.029856423
224	0xbd8c9fe1	-0.06866432
225	0x3e1fae98	0.15593946
226	0x3cc5afb0	0.024131626
227	0x3cf3dfe3	0.029769843
228	0x3dce292a	0.10066445
229	0x3e1f19da	0.15537205
230	0xbdebb4ed	-0.11509118
231	0x3dde6203	0.10858538
232	0xbdf39b16	-0.11894815
233	0xbddd1c0c	-0.10796365
234	0x3e2c54de	0.1682925
235	0x3d291ebb	0.041289072
236	0xbbb6fd0b	-0.0055843643
237	0x3dde7a3d	0.10863159
238	0xbc6b554f	-0.014363601
239	0xbaa51a0d	-0.0012596265
240	0xbe4aa2d0	-0.1978867
241	0x3df6ae06	0.12044911
242	0xbe2f53d8	-0.17121828
243	0xbd2f3ba0	-0.042781472
244	0xbcbfc7e9	-0.023410754
245	0xbc5088d8	-0.012727939
246	0x3e767439	0.24067773
247	0xbd71dc53	-0.05904801
248	0xbccd228c	-0.025040887
249	0x3b1afb03	0.002364815
250	0x3e24ce4a	0.16094318
251	0xbcea35c0	-0.028590083
252	0xbde7c23d	-0.11316345
253	0x3e4189ac	0.18900174
254	0xbcb70275	-0.022340039
255	0x3d9b440e	0.0758134

gru.bias_ih_l0_reverse f4 [90]
0	0xbdc70157	-0.097170524
1	0x3d4fc031	0.050720397
2	0xbd9a4e8d	-0.075345136
3	0x3deca189	0.11554248
4	0x3deb3ccf	0.11486208
5	0xbd9e812e	-0.07739483
6	0x3df34e82	0.118802086
7	0x3b09bf6a	0.0021018633
8	0x3e367af1	0.17820336
9	0xbc4248d1	-0.011858181
10	0x3dd5b1d8	0.10434312
11	0x3e423299	0.18964614
12	0x3e0fb5f1	0.14034249
13	0x3e0d69e2	0.13809922
14	0x3d0ae80b	0.0339127
15	0x3e3f322a	0.1867148
16	0x3c04e4e1	0.00811121
17	0x3c0f6483	0.008751991
18	0x3e7a175b	0.24422972
19	0x3d4c2669	0.04984132
20	0x3e502e8c	0.20330256
21	0x3d95c61c	0.07313177
22	0xbde8bfef	-0.113647334
23	0x3d86b65f	0.06577753
24	0xbce81479	-0.028330075
25	0x3e384cea	0.1799809
26	0xbd74cc7c	-0.059765324
27	0xbd2048d0	-0.03913194
28	0xbc4e0eb5	-0.012576749
29	0x3e59d953	0.21274309
30	0x3dad26d9	0.08454675
31	0x3e25990e	0.16171667
32	0x3d15c20e	0.036562018
33	0xbda69fc8	-0.081359446
34	0xbe20baa5	-0.15696199
35	0xbdd4e3b7	-0.10394996
36	0x3d5ccd6e	0.05390685
37	0x3c0a783a	0.008451516
38	0xbd749890	-0.059715807
39	0x3e2b5dc1	0.16734983
40	0xbe17845f	-0.1479659
41	0x3e0bda3f	0.13657473
42	0xbe4aad24	-0.1979261
43	0xbde4c993	-0.1117126
44	0xbd0e93e6	-0.034809016
45	0x3e2b2135	0.16711886
46	0x3d7ff71f	0.062491532
47	0x3e164a3f	0.1467676
48	0xbd857f68	-0.065184414
49	0x3e18b359	0.14912166
50	0xbdec6cf2	-0.11544217
51	0xbdc310a8	-0.09524661
52	0x3cde1734	0.027110673
53	0xbde57a4d	-0.11204968
54	0xbcab9559	-0.020945238
55	0x3dacc186	0.08435349
56	0xbd581796	-0.05275687
57	0x3e0e67c8	0.13906777
58	0xbd2978cc	-0.041374967
59	0xbe2b1c30	-0.16709971
60	0xbc676aa0	-0.0141245425
61	0x3e2f4af2	0.17118433
62	0x3d9d3f64	0.076781064
63	0x3e3734be	0.17891213
64	0xbb91c7f3	-0.0044488846
65	0x3de7368c	0.11289701
66	0x3e4ba790	0.19888139
67	0x3dd0ce7a	0.10195632
68	0xbdfa0d00	-0.12209511
69	0xbd5fb4a7	-0.054615643
70	0x3d9de10c	0.0770894
71	0x3df09b2c	0.11748347
72	0xbdf8851c	-0.121347636
73	0x3dda20dd	0.106507994
74	0x3ba3408d	0.0049820603
75	0xbc988551	-0.018618258
76	0x3e3c74d0	0.18403935
77	0x3e438057	0.19091927
78	0x3ddace40	0.1068387
79	0xbd7183cf	-0.058963593
80	0x3e3e8173	0.18604068
81	0x3d2b7494	0.041859224
82	0xbdb0a20f	-0.0862466
83	0xbe034f0a	-0.1282312
84	0x3e396e5d	0.18108507
85	0xbb9c66e5	-0.004773008
86	0xbdbc8056	-0.09204166
87	0x3da31698	0.07963294
88	0x3e54edc8	0.20793831
89	0x3e1ab188	0.15106785

gru.bias_hh_l0_reverse f4 [90]
0	0xbd318806	-0.043342613
1	0xbd81460e	-0.0631219
2	0xbda46ead	-0.08028922
3	0xbd15cd57	-0.03657278
4	0x3e0d28e1	0.13785125
5	0xbca68fe5	-0.020332286
6	0xbdccb3c4	-0.09995225
7	0xbcf6324f	-0.030053286
8	0xbd2b886c	-0.04187815
9	0x3e1f7a80	0.15574074
10	0x3e02060f	0.12697624
11	0xbdf49004	-0.11941531
12	0x3dbb9c30	0.0916065
13	0xbdea8cd7	-0.11452644
14	0x3d8612c0	0.06546545
15	0xbdfcb409	-0.123390265
16	0xbce5ca55	-0.028050581
17	0x3e61689e	0.22012565
18	0x3e74ec95	0.23918374
19	0xbe266f59	-0.16253413
20	0xbd05a85b	-0.03263126
21	0x3e5ee0ea	0.21765485
22	0x3bf1688b	0.007367199
23	0x3b950b32	0.0045484537
24	0x3c8bb921	0.01705605
25	0x3e45fdc4	0.19335085
26	0xbd9cae19	-0.07650394
27	0x3cfab661	0.030604543
28	0x3e6adb6c	0.22935265
29	0xbd874930	-0.06605756
30	0x3d861297	0.065465145
31	0xbb17ff9c	-0.0023193127
32	0x3cb24c9e	0.02176505
33	0xbe3ce489	-0.18446554
34	0xbe069994	-0.13144523
35	0x3e22870c	0.15871829
36	0x3db58725	0.088636674
37	0xbc99f427	-0.018793179
38	0x3e002751	0.12514998
39	0x3a9ed968	0.0012119235
40	0x3bd2b251	0.0064299484
41	0x3d43b402	0.04777909
42	0x3dc65f71	0.09686173
43	0xbdef99ea	-0.11699279
44	0xbde2b943	-0.11070492
45	0x3dc4eabb	0.09615084
46	0x3daac7b1	0.08338869
47	0xbdc0ac9f	-0.09407925
48	0x3bd0a0b7	0.006366815
49	0xbdcd331f	-0.10019516
50	0xbe015468	-0.12629855
51	0xbc3eac9c	-0.011637833
52	0x3e1e09bc	0.15433401
53	0x3cf79991	0.030224593
54	0xbe370c86	-0.17875871
55	0x3d397a4c	0.045282647
56	0xbd2430a9	-0.04008547
57	0xbe239de2	-0.15978196
58	0xbe3b4ce8	-0.18291056
59	0x3d9aa787	0.075514846
60	0xbe1c9a85	-0.1529332
61	0xbd564ad9	-0.052317474
62	0xbdfabd14	-0.12243095
63	0x3dc311c9	0.095248766
64	0xbe0513bd	-0.12995811
65	0xbe2534b7	-0.1613339
66	0x3d64d1d7	0.05586418
67	0xbe0f3aee	-0.13987324
68	0x3e033e54	0.12816745
69	0xbe4d6e01	-0.20061494
70	0xbd48b68f	-0.049002226
71	0xbbe1cf3a	-0.0068911584
72	0x3df3d0ea	0.119050816
73	0xbe0a30f5	-0.13495238
74	0x3e10db73	0.14146213
75	0xbd9c698c	-0.07637319
76	0xbdefb004	-0.11703494
77	0x3dfbd561	0.12296558
78	0x3de2bb9b	0.11070939
79	0xbe3dc213	-0.18531065
80	0xbd012de6	-0.031537913
81	0xbd7e8d29	-0.06214634
82	0xbe104a61	-0.14090873
83	0x3d58f424	0.052967206
84	0x3dc93a97	0.09825628
85	0x3b3664db	0.002783111
86	0xbdef8289	-0.116948195
87	0x3e111e59	0.14171733
88	0x3e51ff36	0.20507511
89	0xbe4563c7	-0.19276343

gru.weight_ih_l1 f4 [90, 60]
0	0x3e189176	0.14899239
1	0xbdc043e8	-0.09387952
2	0xbd365e1e	-0.04452335
3	0x3dc57fd3	0.09643521
4	0x3de23fd0	0.110473275
5	0x3df72898	0.120682895
6	0x3e228b56	0.15873465
7	0x3df8e545	0.12153105
8	0xbe0d0ed4	-0.13775188
9	0xbd20419d	-0.039125074
10	0x3e154c31	0.14579846
11	0xbd8ebd1b	-0.06969663
12	0x3e3f75c7	0.18697272
13	0xbe1acea1	-0.15117885
14	0x3db7ed9e	0.08980869
15	0x3df6eeda	0.12057276
16	0x3d55692e	0.05210226
17	0x39c1c3ac	0.00036957616
18	0x3d107f59	0.0352777
19	0x3d0f7692	0.035025187
20	0xbe01798d	-0.12644024
21	0x3cb1b148	0.02169098
22	0xbbdf6b99	-0.0068182466
23	0xbe0a1fb7	-0.13488661
24	0xbe0d9ac7	-0.13828574
25	0x3dd545db	0.104137145
26	0xbd738aaf	-0.05945843
27	0x3e385cd1	0.18004157
28	0xbde10f9d	-0.10989306
29	0x3db0d582	0.086344734
30	0xba97bb2e	-0.001157617
31	0xbe2646b5	-0.1623791
32	0x3d955f4c	0.07293567
33	0x3e03729d	0.1283669
34	0xbddb5991	-0.10710443
35	0x3d238df0	0.039930284
36	0xbdec4b16	-0.11537759
37	0xbba2e593	-0.004971215
38	0xbdba7ec7	-0.09106212
39	0x3da2c78e	0.07948218
40	0x3c3e3128	0.011608399
41	0x3e253c38	0.16136253
42	0xbd64b7ad	-0.05583923
43	0xbe029455	-0.12751897
44	0x3c9a009e	0.018799122
45	0xbe24a7ea	-0.16079679
46	0xbe49b90e	-0.19699499
47	0x3e0a3326	0.13496074
48	0xbb0b27bd	-0.0021233403
49	0x3c97edd5	0.018546024
50	0x3de58c89	0.112084456
51	0x3ddf4e7a	0.1090364
52	0xbdbe2177	-0.09283727
53	0x3da2c8dc	0.07948467
54	0xbe2ee56e	-0.17079708
55	0x3a9049ef	0.0011008362
56	0xbe105974	-0.14096624
57	0xbd80a9e0	-0.06282401
58	0xbdb9b312	-0.09067358
59	0x3c94391e	0.018093642
60	0xbe32fd40	-0.1747942
61	0x3d6b5e66	0.057463072
62	0xbd1daa59	-0.038492534
63	0xbe0f5d69	-0.14000477
64	0xbe3028f3	-0.17203121
65	0x3dbf69c2	0.093463436
66	0x3c50d410	0.012745872
67	0x3df0e7d8	0.11762971
68	0x3c82229d	0.015885646
69	0x3da9fe52	0.08300461
70	0xbd886bed	-0.0666121
71	0xbbdad289	-0.00667793
72	0xbe4ef6ad	-0.20211287
73	0x3dbb27a5	0.09138421
74	0xbe01d1ea	-0.12677732
75	0x3d96e3c0	0.073676586
76	0xbe0153c7	-0.12629615
77	0xbd548cbc	-0.051892027
78	0x3d054100	0.032532692
79	0x3e45ee40	0.19329166
80	0xbe08e193	-0.133673
81	0xbd8b06d1	-0.067884095
82	0x3d448321	0.047976617
83	0x3d0ba240	0.03409028
84	0xbe671ac0	-0.22568798
85	0xbdf08d21	-0.11745668
86	0x3dac93e3	0.08426645
87	0x3befedee	0.0073220646
88	0xbdd0d2be	-0.10196446
89	0xbdba6c39	-0.09102673
90	0xbc7482f6	-0.014923802
91	0x3d0d27cd	0.034461785
92	0xbe12a684	-0.14321333
93	0xbe01bc50	-0.12669492
94	0xbe1f1a2b	-0.15537326
95	0x39568b83	0.00020460603
96	0x3e2eebf5	0.17082198
97	0x3da4e4af	0.080514304
98	0x3d7f34fc	0.06230639
99	0x3c692da7	0.014232076
100	0x3e09ce41	0.13457586
101	0x3db2d95a	0.08732863
102	0xbcb1876a	-0.021671016
103	0xbde57b94	-0.11205211
104	0xbbeb75f7	-0.0071856934
105	0x3e31329e	0.17304465
106	0x3e028949	0.12747683
107	0xbdec72dd	-0.11545346
108	0x3e04dae2	0.12974122
109	0xbda197b1	-0.07890261
110	0xbdd857ea	-0.10563643
111	0xbccd559b	-0.025065234
112	0xbe48da0c	-0.19614428
113	0xbc8bca71	-0.017064305
114	0xbe084a82	-0.13309672
115	0xbc3d73f9	-0.011563295
116	0x3e099df6	0.13439164
117	0x3cfc08a5	0.03076584
118	0x3d1a493f	0.03766751
119	0xbd35331d	-0.0442382
120	0x3c3a7e97	0.01138272
121	0xbe2a8a60	-0.16654348
122	0x3dbe6aa6	0.09297685
123	0x3e20b994	0.15695792
124	0x3e1d52c2	0.15363601
125	0x3db575d8	0.088603675
126	0x3d95508c	0.07290754
127	0xbe2c7b34	-0.16843873
128	0x3e3adcfa	0.18248358
129	0xbe08089d	-0.13284536
130	0xbdd72b94	-0.10506359
131	0xbc9775b6	-0.018488746
132	0x3c448bc5	0.011996214
133	0xbd81601a	-0.06317158
134	0xbd4ab9fc	-0.049493775
135	0x3d7beaf4	0.061503366
136	0xbdc61027	-0.096710496
137	0xbe1015cc	-0.14070815
138	0x3dab21d2	0.0835606
139	0x3e0039b1	0.12522008
140	0xbe099048	-0.13433945
141	0x3ce7b365	0.028283784
142	0xbda8dc8f	-0.08245193
143	0x3d24c7f1	0.04022974
144	0xbdcd7261	-0.10031582
145	0x3ca91926	0.020641875
146	0xbd0b3fd7	-0.03399643
147	0x3e08e0f9	0.1336707
148	0xbe035bed	-0.12828036
149	0xbe1f12ae	-0.1553447
150	0xbdacb1dc	-0.084323615
151	0xbd88d5ab	-0.06681379
152	0xbdac3729	-0.084089585
153	0xbbd05abf	-0.006358474
154	0xbe4c3b68	-0.19944537
155	0xbde068c8	-0.109574854
156	0xbe108002	-0.14111331
157	0xbe065beb	-0.13121001
158	0xbdb178c9	-0.08665616
159	0xbe0ca60e	-0.1373522
160	0x3d459162	0.04823435
161	0xbe316c4a	-0.17326465
162	0x3db5d825	0.08879117
163	0xbd352268	-0.044222265
164	0x3d90dc08	0.07073218
165	0xbd4aa92d	-0.049477745
166	0xbe2ba45d	-0.16761918
167	0xbde4fba9	-0.11180813
168	0x3bcc3a3d	0.0062325285
169	0x3c7eecdb	0.0155594
170	0xbb9f1f71	-0.004856043
171	0x3e17aed7	0.1481279
172	0x3e080efe	0.13286969
173	0x3d6c87ee	0.05774682
174	0x3d504103	0.05084325
175	0xbdfe9fab	-0.12432798
176	0x3bcb96e7	0.0062130573
177	0xbe09ca7a	-0.13456145
178	0xbd892a98	-0.06697577
179	0x3e24d8f8	0.16098392
180	0xbc99df6f	-0.0187833
181	0x3dac23c9	0.08405263
182	0x3de7a9fa	0.11311717
183	0x3db5532b	0.08853754
184	0xbba188d8	-0.004929643
185	0xbdf9fa95	-0.12205998
186	0x3bedd7ef	0.0072584073
187	0xbb83154f	-0.004000343
188	0xbe35b757	-0.1774572
189	0x3dbbb926	0.09166174
190	0x3da3c84a	0.079971865
191	0x3d4f03db	0.050540786
192	0x3e17a581	0.14809228
193	0x3e007b2c	0.12546986
194	0xbe207a3b	-0.15671627
195	0xbdde1dda	-0.108455375
196	0x3cdec856	0.027195137
197	0x3d7d7f91	0.061889235
198	0xbe291105	-0.16510399
199	0xbd3272d2	-0.043566532
200	0xbe2ef782	-0.17086604
201	0xbbaed8c3	-0.0053358986
202	0xbe0dafb8	-0.13836563
203	0xbdbd85f1	-0.09254063
204	0x3d1a0c72	0.037609525
205	0x3d332bc3	0.043742906
206	0xbdeefc3c	-0.11669204
207	0x3d06108f	0.032730635
208	0xbe031cb5	-0.1280392
209	0xbe19ed3f	-0.15031908
210	0x3e16aaa2	0.14713529
211	0x3e0eeb60	0.13956976
212	0x3c49235c	0.012276497
213	0x3cadf52a	0.021235067
214	0xbcc1fda0	-0.023680508
215	0x3d284708	0.041083366
216	0xbcdc5803	-0.026897436
217	0x3d093360	0.03349626
218	0x3de1ee7e	0.11031817
219	0x3e330b43	0.17484765
220	0x3cea0009	0.02856447
221	0xbd23a316	-0.039950453
222	0x3d3f7e14	0.046751097
223	0x3e1820a6	0.14856204
224	0xbde19956	-0.11015575
225	0x3e06e813	0.13174467
226	0x3ca912ee	0.02063891
227	0x3dd5a182	0.10431196
228	0xbde822df	-0.11334776
229	0x3daaaba9	0.08333523
230	0xbdd54e41	-0.104153164
231	0x3e078c86	0.13237199
232	0xbe3f10cf	-0.18658756
233	0x3e170b7d	0.14750476
234	0xbd669966	-0.056298636
235	0x3e2ed9b6	0.17075238
236	0x3dbcfd1e	0.09227966
237	0x3d053d83	0.032529365
238	0x3da24575	0.07923404
239	0x3dcb96d7	0.0994088
240	0xbd6aae0b	-0.057294887
241	0xbe02f455	-0.12788518
242	0x3d57c7d1	0.052680794
243	0x3d869d60	0.06572986
244	0x3cfaeebf	0.030631421
245	0x3d76f621	0.06029332
246	0xbdae2f83	-0.08505156
247	0xbe19734a	-0.14985386
248	0xbdc2b9ad	-0.09508071
249	0xbc574669	-0.013139346
250	0x3e49b0a1	0.19696285
251	0x3dc25602	0.09489061
252	0xbd5800d1	-0.052735154
253	0xbd63cf87	-0.055617835
254	0xbe058dd7	-0.13042389
255	0xbe0da45b	-0.13832228

gru.weight_hh_l1 f4 [90, 30]
0	0x3d90b603	0.07065966
1	0xbe4995c7	-0.19686042
2	0xbdf945f3	-0.12171545
3	0x3d971a50	0.073780656
4	0x3e2670c1	0.1625395
5	0xbc200ed4	-0.00976916
6	0x3e43f2a6	0.19135532
7	0x3cd8604a	0.026413102
8	0x3deb9d13	0.11504569
9	0x3dd1da16	0.10246675
10	0xbc1ffc8d	-0.009764803
11	0xbde7b232	-0.11313285
12	0xbd8469d8	-0.064655006
13	0xbe06c4a1	-0.13160945
14	0xbd4d5b97	-0.050136175
15	0xbdaf5515	-0.0856115
16	0xbb14c2ee	-0.0022699195
17	0x3d3e7bdc	0.04650484
18	0xbd451bb8	-0.048122138
19	0x3ddb4e13	0.10708251
20	0xbe522012	-0.20520046
21	0xbdf37b1b	-0.11888715
22	0xbdf0bf12	-0.11755194
23	0xbd8cff21	-0.068845995
24	0xbd9fd0b8	-0.07803482
25	0xbd87b7ba	-0.0662684
26	0xbbf9a850	-0.0076189414
27	0xbdd5efe3	-0.104461454
28	0xbd24996d	-0.04018538
29	0x3d8283df	0.06372809
30	0x3e5a8ba1	0.21342327
31	0xbd9bf4ef	-0.07615077
32	0x3dd5e3e2	0.10443856
33	0x3bc06f09	0.0058726114
34	0xbe5f5d50	-0.2181294
35	0xbd908e08	-0.0705834
36	0xbe4141de	-0.18872783
37	0x3e4255de	0.18978068
38	0x3e1b07dc	0.15139717
39	0x3ddd603a	0.108093694
40	0xbe1a6db4	-0.15080911
41	0x3e18900b	0.14898698
42	0x3e159cb8	0.14610565
43	0x3d567b72	0.05236382
44	0x3e32dd06	0.17467126
45	0x3dcc4878	0.0997476
46	0x3cd635df	0.026148735
47	0x3e2e5abc	0.170268
48	0x3cc8d4f2	0.024515603
49	0x3dcf5880	0.10124302
50	0xbdb20afa	-0.086935
51	0xbdebaffc	-0.11508176
52	0x3c96b5fd	0.018397326
53	0x3d76d0c7	0.0602577
54	0xbddd26a2	-0.10798384
55	0xbd6cb58d	-0.057790328
56	0x3d8de072	0.06927575
57	0x3e1e052d	0.15431662
58	0xbd8977bb	-0.0671229
59	0x3d972096	0.07379262
60	0x3dc523c8	0.09625965
61	0xbc5bf103	-0.013424161
62	0x3e103b94	0.14085227
63	0x3dbef9e2	0.09325005
64	0x3e0d4814	0.13797027
65	0xbddcb636	-0.107769415
66	0xbdfa6530	-0.12226331
67	0xbd0cdab6	-0.034388267
68	0x3e1017ea	0.14071622
69	0x3da5aac4	0.080892116
70	0x3b79304d	0.0038023174
71	0xbdea9c8a	-0.11455639
72	0x3ba0e42b	0.0049100122
73	0x3d05fe12	0.032713003
74	0x3cdbeb44	0.026845582
75	0xbe32bd5b	-0.17455046
76	0x3da8f3de	0.08249639
77	0x3da7a577	0.08185857
78	0xbdb4b2b9	-0.08823151
79	0xbe09d2da	-0.1345934
80	0xbc9a1fb9	-0.018813955
81	0xbda787ef	-0.08180224
82	0xbde2c6ff	-0.11073112
83	0x3dce7397	0.10080641
84	0x3e11d647	0.14241897
85	0x3d93276e	0.07185255
86	0xbe0d7ffe	-0.13818356
87	0xbe4a153b	-0.19734661
88	0xbccc6ecc	-0.024955176
89	0xbd75d103	-0.060013782
90	0x3dcb96ac	0.09940848
91	0xbdcda9d1	-0.100421555
92	0x3e07abd0	0.13249135
93	0x3e10ae9c	0.14129108
94	0xbdec67e2	-0.115432516
95	0xbdf3974e	-0.118940935
96	0x3db8a186	0.09015183
97	0xbd9ab4d7	-0.07554024
98	0x3c8a1eaa	0.016860325
99	0xbde06a1c	-0.10957739
100	0x3ca95490	0.020670205
101	0x3e2d6286	0.16932115
102	0x3cde42a3	0.027131384
103	0xbe14a4a2	-0.14515927
104	0x3e1f80b9	0.15576448
105	0xbca3c18c	-0.019989751
106	0x3c8e44b4	0.017366745
107	0xbe2e5b08	-0.17026913
108	0xbdb70407	-0.08936315
109	0x3e08b39c	0.13349766
110	0x3d8b2c24	0.067955285
111	0xbcb2e7db	-0.021839073
112	0xbe3b5f61	-0.18298103
113	0x3d10932b	0.0352966
114	0xbc8818d1	-0.016613396
115	0xbe352af5	-0.17692168
116	0x3aa986a8	0.0012933807
117	0x3c9ff535	0.019526104
118	0xbad3a882	-0.0016148242
119	0xbd942d70	-0.07235229
120	0xbdc66a0a	-0.09688194
121	0xbdedd6e0	-0.1161325
122	0xbe175fce	-0.1478264
123	0xbd1c9007	-0.038223293
124	0xbe4dc75e	-0.20095584
125	0xbdc77122	-0.09738375
126	0xbc41f1e6	-0.011837458
127	0x3ccbbe6b	0.024871072
128	0x3d852178	0.06500524
129	0x3d08917d	0.033341873
130	0xbdfa59d0	-0.122241616
131	0xbde438e5	-0.11143664
132	0x3e08a6f2	0.13344935
133	0x3dabaa63	0.08382108
134	0xbc5cfbde	-0.013487784
135	0xbdd766c7	-0.1051765
136	0xbca7a8ba	-0.020466197
137	0xbd35884b	-0.044319432
138	0xbd2a9a3c	-0.041650996
139	0xbc8ed9fd	-0.01743793
140	0x3e322db2	0.17400244
141	0xbdef6107	-0.11688428
142	0xbdb4b13a	-0.08822866
143	0x3cc6a722	0.024249617
144	0x3dd0b62d	0.10190997
145	0x3c08ce9a	0.008350039
146	0xbdcc6cb9	-0.09981675
147	0xbcfb0bb2	-0.030645225
148	0xbe125cdf	-0.1429324
149	0xbc24491e	-0.010027198
150	0xbd60fa73	-0.054926347
151	0x3e0e5327	0.13898908
152	0xbdd23e2d	-0.10265765
153	0xbd818233	-0.06323662
154	0xbce8d57f	-0.028422115
155	0xbc877ed5	-0.01653997
156	0xbd589f53	-0.05288632
157	0xba37371d	-0.00069891085
158	0x3d8f766e	0.070050105
159	0xbd73c07c	-0.05950974
160	0xbe484677	-0.1955813
161	0xbd94df9d	-0.07269213
162	0xbde6a511	-0.11261953
163	0xbe0bf21a	-0.13666573
164	0x3e05c9d4	0.13065273
165	0xbdddd523	-0.10831668
166	0x3d8b2c1a	0.06795521
167	0x3e54ced1	0.20782019
168	0x3c299c65	0.010352229
169	0x3e1b0c0b	0.15141313
170	0x3e33e58f	0.17568038
171	0x3e1f77a8	0.15572989
172	0x3dfbcccd	0.12294922
173	0xbd34b2c8	-0.04411581
174	0xbd5e42ca	-0.054262914
175	0x3d910f26	0.070829675
176	0xbdff082f	-0.12452733
177	0x3e36a9c0	0.17838192
178	0x3e135cb0	0.14390826
179	0x3b5624c9	0.0032675734
180	0xbe090fc2	-0.13384917
181	0xbe179ed8	-0.14806688
182	0x3dfa89c6	0.122333094
183	0xbcab6612	-0.020922694
184	0x3dde236b	0.10846599
185	0xbdafc7a9	-0.08583004
186	0xbdbb482e	-0.091446266
187	0x3dcb5970	0.09929168
188	0x3d1a3c33	0.037655067
189	0xbd4b8803	-0.049690258
190	0xbd75bce0	-0.05999458
191	0x3d7c31aa	0.0615708
192	0x3e3cf8e7	0.18454324
193	0xbe24c705	-0.16091545
194	0xbe04860f	-0.12941764
195	0xbc55ac3b	-0.013041551
196	0x3e283141	0.16425039
197	0x3d094e2e	0.033521824
198	0x3ccefcb6	0.025266986
199	0x3ba1fbc3	0.0049433424
200	0x3d108583	0.035283577
201	0xbd99df7e	-0.07513331
202	0x3de357f6	0.111007616
203	0x3ca05cc4	0.019575484
204	0xbcceeab1	-0.025258394
205	0x3bf55b7e	0.0074877134
206	0xbe21f914	-0.15817672
207	0xbdfee4c9	-0.12445981
208	0xbda582f7	-0.0808162
209	0xbd001fd6	-0.03128036
210	0xbc89c696	-0.016818326
211	0x3dfc9df7	0.12334817
212	0x3d67da07	0.05660441
213	0xbe42b334	-0.19013673
214	0xbd3fbb7c	-0.04680966
215	0xbe0ae668	-0.13564456
216	0x3c968174	0.018372275
217	0x3df650f0	0.12027156
218	0xbc93b6a5	-0.018031428
219	0x3d3ee5f3	0.046606015
220	0xbd12f3cd	-0.035877038
221	0x3d715026	0.058914326
222	0xbe1f1f24	-0.15539223
223	0x3cc048b9	0.023472177
224	0x3cc8452c	0.024447046
225	0xbe14824d	-0.14502831
226	0x3c02f9c2	0.007994117
227	0xbde071a9	-0.10959179
228	0x3dc00ef5	0.09377853
229	0xbdd81542	-0.105509296
230	0xbd4e32b9	-0.05034134
231	0x3d9e6294	0.07733646
232	0x3e31d272	0.17365435
233	0x3e01401c	0.12622112
234	0x3e3a34b2	0.18184164
235	0xbe3ef2be	-0.18647286
236	0x3d05d469	0.032673273
237	0xbccebd70	-0.025236815
238	0xbdf34707	-0.11878782
239	0xbdf370ed	-0.11886773
240	0x3e1e3237	0.15448843
241	0x3d9ca778	0.0764913
242	0xbaaa2627	-0.0012981341
243	0xbd7d32d4	-0.06181605
244	0xbb90c7cc	-0.004418349
245	0xbde7b8c3	-0.113145374
246	0xbbf63a8e	-0.0075143045
247	0x3dbd3be9	0.092399426
248	0x3e59ab7b	0.21256821
249	0x3d85ed3f	0.06539392
250	0xbd80fff1	-0.06298817
251	0x3dda1e47	0.10650306
252	0x3deec224	0.11658123
253	0x3da4e033	0.08050575
254	0x3e33e369	0.17567219
255	0xbd01acaa	-0.031658806
