checkpoints_gp/generator_checkpoint60.pth.tar (torch_old, 298586 bytes, 54 tensors)

gru.weight_ih_l0 f4 [90, 10]
0.025982272 -0.068844214 0.092337415 -0.14175022 -0.11199473 0.03998432 -0.061979022 0.15198244
0.26172426 0.20463057 0.02541727 0.14543878 0.002398655 0.1883936 -0.0881945 -0.020018585
0.05498348 -0.1497254 -0.015331613 0.0005734617 -0.031720493 -0.004386168 0.16165374 0.03828862
0.050087117 -0.14879997 -0.08941927 -0.013608974 0.013874675 0.080741726 0.08239874 0.08598005
-0.012504385 -0.09266945 -0.13453521 0.20079975 0.18362868 0.15188822 0.08700147 0.043737486
-0.08655269 0.14849801 0.06861864 0.117429115 0.108907714 -0.09890234 0.11877504 0.12338178
0.022015598 -0.10806665 -0.14214955 -0.04597018 -0.1463419 -0.13143094 -0.1620769 0.17643374
0.13983577 0.28185773 0.18666878 -0.08664464 -0.18757132 0.12441051 -0.14728908 -0.1370174
0.07408217 0.010583714 -0.08629597 -0.29033464 0.033762597 -0.12838922 -0.0039169397 0.10992885
-0.20450687 0.10203336 0.08282487 -0.05756643 -0.36008003 -0.2627696 -0.2172673 -0.22676142
0.027346743 -0.07150716 -0.046772692 0.10415707 -0.31089473 -0.017369978 0.18186213 -0.049762167
0.1777293 0.1679603 -0.13283344 -0.019189175 -0.10831919 0.09390718 -0.31073135 0.12336925
0.24670465 0.2750605 0.06962093 -0.04501677 0.16673787 0.22094522 0.047272883 0.17453411
0.007068081 0.068741366 -0.0014139672 -0.04515063 0.07309826 0.08860586 -0.038234763 -0.011772404
0.038088825 -0.2291306 -0.25282806 0.33975947 0.1019344 0.118103385 0.1418307 -0.03424412
-0.021472434 0.057288893 0.17220348 0.18081228 0.0053742053 -0.050648447 0.07715376 -0.0851073
-0.017799947 -0.13048936 -0.13381183 -0.16695815 0.030806325 -0.028034003 -0.14336313 0.081505165
0.16448085 -0.052000225 -0.14091615 -0.033902694 0.033625115 -0.08004029 -0.0055254963 0.086549684
0.03286468 0.049101084 0.29382738 0.0045602415 -0.019844443 0.12277704 -0.15326194 0.15538862
0.06435842 0.17841293 0.049011294 0.02515719 -0.20301886 -0.15360355 0.03847274 -0.13331884
0.056654036 -0.061149105 -0.012946164 0.19015789 -0.24571562 0.2022844 0.015025883 0.29730648
0.35407618 0.09228546 0.12149071 0.13116826 0.10914987 -0.1039091 -0.021024171 -0.037134245
-0.0076606353 0.0042555965 -0.13094167 0.05444957 0.15716437 0.06214509 0.13908896 0.06674469
-0.062446374 -0.044461727 -0.088818215 0.111550525 -0.099352956 0.14064433 0.06130112 0.23519562
0.10593104 0.02240738 0.039403226 0.14881533 -0.00024299091 0.2735082 0.071100496 0.038748235
-0.01175359 -0.024599914 0.07147148 0.16941215 -0.0058810026 0.19788648 0.08840032 0.24034752
-0.03220177 0.04184895 -0.028542 -0.10873948 0.05676254 0.08836808 0.060599893 -0.09950505
-0.065395 0.28234917 0.082396396 0.18598628 -0.14990884 0.113636255 0.009307434 -0.016370608
0.114448026 0.03189785 0.023949608 -0.2571788 -0.088950545 -0.13811602 0.14244856 0.16565225
0.15804581 -0.07408321 -0.04612946 0.10919748 -0.2152702 0.0068333093 -0.021053683 -0.110723875
0.23210979 -0.095661364 -0.059089713 0.13983604 0.049823876 0.2262385 -0.03031001 -0.02173534
0.102566384 0.13460165 -0.14842744 0.111978725 0.1244874 -0.026575277 0.017394613 0.079924315
00000000: c6d8 d43c 32fe 8cbd 661b bd3d f826 11be
00000010: 7e5d e5bd 99c6 233d b7dd 7dbd 49a1 1b3e
00000020: b900 863e ad8a 513e e137 d03c e7ed 143e
00000030: c132 1d3b 40ea 403e 519f b4bd 04fe a3bc
00000040: 5c36 613d 9e51 19be 7231 7bbc 5d54 163a
00000050: 59ed 01bd d8b9 8fbb 8f88 253e 87d4 1c3d
00000060: 2628 4d3d 055f 18be 7321 b7bd 2df8 5ebc
00000070: 9b52 633c eb5b a53d acc0 a83d 4f16 b03d
00000080: 31df 4cbc 7bc9 bdbd 99c3 09be 739e 4d3e
00000090: 2809 3c3e 9688 1b3e d42d b23d 1426 333d
000000a0: 8942 b1bd dd0f 183e ee87 8c3d ad7e f03d
000000b0: 020b df3d 4f8d cabd 5440 f33d 96af fc3d
000000c0: 0e5a b43c 0c52 ddbd a78f 11be 3a4b 3cbd
000000d0: a7da 15be d595 06be 7df7 25be 0cab 343e
000000e0: 1c31 0f3e a84f 903e 1a26 3f3e bf72 b1bd
000000f0: b212 40be f0ca fe3d f3d2 16be 4a4e 0cbe
00000100: 65b8 973d 5067 2d3c f1bb b0bd bea6 94be
00000110: a64a 0a3d 7778 03be ac59 80bb 6022 e13d
00000120: 406a 51be def6 d03d 16a0 a93d c7ca 6bbd
00000130: 695c b8be bd89 86be 527b 5ebe 2534 68be
00000140: 4706 e03c 5972 92bd b994 3fbd 4d50 d53d
00000150: 982d 9fbe 7c4b 8ebc 113a 3a3e 6ad3 4bbd
00000160: abfe 353e c9fd 2b3e 7d05 08be 9e32 9dbc
00000170: 74d6 ddbd 6852 c03d 2e18 9fbe 04a9 fc3d
00000180: 25a0 7c3e bbd4 8c3e 6b95 8e3d 8163 38bd
00000190: 55bd 2a3e 773f 623e 36a1 413d 12b9 323e
000001a0: 5c9b e73b 46c8 8c3d de54 b9ba deef 38bd
000001b0: 8ab4 953d fd76 b53d 0e9c 1cbd 0be1 40bc
000001c0: 0703 1c3d 36a1 6abe ae72 81be f4f4 ad3e
000001d0: fcc2 d03d 30e0 f13d 113c 113e 9043 0cbd
000001e0: f5e6 afbc c2a7 6a3d 1c56 303e db26 393e
000001f0: 1a1a b03b bf74 4fbd ca02 9e3d bc4c aebd
00000200: 32d1 91bc 019f 05be f805 09be 14f7 2abe
00000210: 8c5d fc3c 91a7 e5bc c9cd 12be 2eec a63d
00000220: ab6d 283e 30fe 54bd 534c 10be 8ddd 0abd
00000230: 7dba 093d 2aec a3bd 390f b5bb f640 b13d
00000240: 1d9d 063d 381e 493d 8b70 963e 146e 953b
00000250: d090 a2bc 8772 fb3d b3f0 1cbe 321e 1f3e
00000260: 59ce 833d e1b1 363e 11c0 483d 7416 ce3c
00000270: 2de4 4fbe 404a 1dbe 9895 1d3d bc84 08be
00000280: 100e 683d 7c77 7abd 261c 54bc c0b8 423e
00000290: e09c 7bbe a423 4f3e 1f2f 763c 8e38 983e
000002a0: 7949 b53e 2900 bd3d 1fd0 f83d f950 063e
000002b0: f889 df3d 4bce d4bd e23a acbc 141a 18bd
000002c0: 1106 fbbb 8872 8b3b 9315 06be 8306 5f3d
000002d0: b2ef 203e da8b 7e3d 566d 0e3e 71b1 883d
000002e0: c5c7 7fbd 801d 36bd 53e6 b5bd 9a74 e43d
000002f0: 9079 cbbd 1105 103e e216 7b3d 1fd7 703e
00000300: 60f2 d83d af8f b73c 4765 213d 0c63 183e
00000310: 60cb 7eb9 4409 8c3e 239d 913d 78b6 1e3d
00000320: 2192 40bc c285 c9bc a45f 923d 617a 2d3e
00000330: 6db5 c0bb c1a2 4a3e 3a0b b53d a91d 763e
00000340: 01e6 03bd ce69 2b3d ead0 e9bc ceb2 debd
00000350: d67f 683d 53fa b43d 9837 783d 4ec9 cbbd
00000360: d0ed 85bd 1290 903e 71bf a83d 3073 3e3e
00000370: b481 19be 20ba e83d 357e 183c a71b 86bc
00000380: ba63 ea3d 52a7 023d f831 c43c f1ac 83be
00000390: b42b b6bd 496e 0dbe 09de 113e bea0 293e
000003a0: c3d6 213e f0b8 97bd 3ff2 3cbd eea2 df3d
000003b0: cb6f 5cbe f4e9 df3b c678 acbc 33c3 e2bd
000003c0: 30ae 6d3e 1bea c3bd 0e08 72bd 2e31 0f3e
000003d0: 1f14 4c3d 11ab 673e b34c f8bc 500e b2bc
000003e0: 530e d23d 04d5 093e 5dfd 17be 1a55 e53d
000003f0: 40f3 fe3d 65b4 d9bc 267f 8e3c 5caf a33d

gru.weight_hh_l0 f4 [90, 30]
-0.16359964 -0.23172967 0.18151294 0.035060428 -0.19530888 -0.15664868 0.18001223 -0.1015469
-0.14077453 -0.16722326 0.02303432 -0.16759916 -0.05271258 0.13937095 -0.13506338 0.00028552185
0.21531524 0.14870368 0.18802223 -0.0023377072 -0.015027579 0.1543031 0.20865306 0.06630903
0.06654425 -0.181303 0.021101492 0.03978415 0.24119557 0.20101102 0.022558294 -0.26915196
0.20759484 -0.2335917 -0.25498784 -0.31448287 0.20989843 -0.3101513 0.035859924 -0.2152401
0.03555177 0.05637419 0.06037522 -0.11581641 -0.17279044 -0.0585831 -0.020177789 0.1799892
0.120661244 -0.17671593 0.1378973 0.016269343 0.0985761 -0.28633282 -0.05548669 -0.09836025
0.022554858 -0.104767814 0.16825162 0.010033819 -0.029494595 0.014856311 0.079131916 -0.0049426258
-0.20772953 -0.025062785 -0.01630252 -0.004664192 0.2794288 -0.13583462 0.14683779 0.2667023
-0.03129915 -0.16578537 -0.02475539 -0.24936098 0.12375337 -0.022965077 0.0043304297 -0.19339159
0.16784635 0.13736229 0.17906325 -0.1903894 -0.04426265 -0.24046312 -0.15261279 -0.013922005
0.2722027 -0.16947265 0.10368783 -0.012431382 0.2814697 -0.06169201 -0.113048136 -0.100162886
0.050787468 -0.2364619 0.044533893 -0.013732254 0.025402086 0.086068034 -0.15985265 -0.034860108
0.15250543 0.07194941 -0.0147591485 -0.0035701427 0.16794991 0.10300023 0.23628794 -0.012116783
0.08297016 -0.24639624 -0.040466655 -0.28931096 -0.041666668 0.105215274 0.09127044 0.10531565
-0.13709743 0.016173212 0.24318616 -0.08596076 -0.087894134 -0.18752024 0.32920098 -0.00722924
-0.010264905 -0.01709919 0.28407353 -0.014663294 -0.047784366 0.023599327 0.04852819 -0.054564994
0.0028380484 0.29331872 0.19149995 0.041676965 0.1723258 0.0014573832 0.28206116 0.0013858492
-0.1910481 0.036764193 -0.006710543 0.04549491 0.02312459 0.048056237 -0.15569504 -0.18850194
-0.08498827 -0.37540025 0.041213594 -0.28999245 -0.04884905 -0.09372479 -0.00861652 -0.1378365
0.032122843 -0.20857067 -0.11408726 0.045645505 -0.030254142 -0.1648707 0.058349457 0.25886232
0.20066921 -0.073703825 -0.030963806 -0.06279906 0.18778343 0.0039504548 -0.035773467 0.0881159
-0.11443031 -0.095508814 0.073121995 0.11896502 -0.09008638 -0.061952133 0.19407052 0.006777794
0.10405177 0.028603118 0.052567482 -0.01214839 0.038889915 -0.09429854 -0.10051927 0.14122008
0.03965892 -0.099514745 -0.072130755 0.09756299 -0.21603034 0.18246563 0.033147924 -0.08617405
-0.15744819 0.071926504 0.112917155 -0.13273332 -0.021394514 -0.06862274 0.045499723 0.029516619
0.0971558 -0.030061234 0.07847452 -0.1376784 0.07983 0.12326552 0.17091621 0.02232146
-0.10606414 0.105782904 0.13147926 0.24798134 -0.11259877 0.06577125 0.120677084 0.053551525
-0.119878955 -0.020648085 0.19184713 0.10774041 -0.031851225 -0.09590403 0.114607796 0.02133027
-0.18233003 0.073026486 0.17591217 0.023683006 -0.14555289 0.0861593 -0.1987766 -0.19052407
0.11214514 -0.070397325 0.25196093 -0.119806305 0.0046955803 -0.044291273 0.046227198 -0.3419054
0.14851877 -0.28976372 -0.03911449 -0.03068484 0.03542421 -0.047203843 0.08934165 -0.16740479
00000000: aa86 27be 8b4a 6dbe 87de 393e 869b 0f3d
00000010: 0dff 47be 8368 20be 2055 383e d2f7 cfbd
00000020: 3327 10be 933c 2bbe 78b2 bc3c 1d9f 2bbe
00000030: 25e9 57bd 42b7 0e3e 0e4e 0abe 18b2 9539
00000040: 997b 5c3e c745 183e e688 403e 3834 19bb
00000050: 3c36 76bc a201 1e3e 26a9 553e 07cd 873d
00000060: 5a48 883d 7ea7 39be 09dd ac3c b4f4 223d
00000070: f9fb 763e d5d5 4d3e 2ccc b83c 49ce 89be
00000080: be93 543e aa32 6fbe c48d 82be e603 a1be
00000090: 9def 563e 27cc 9ebe dbe1 123d e767 5cbe
000000a0: bc9e 113d 9fe8 663d 024c 773d 2731 edbd
000000b0: faef 30be d5f4 6fbd e44b a5bc 174f 383e
000000c0: 3e1d f73d 05f5 34be f334 0d3e 4947 853c
000000d0: 44e2 c93d 379a 92be 0346 63bd 1971 c9bd
000000e0: f7c4 b83c 8290 d6bd 274a 2c3e e364 243c
000000f0: a69e f1bc e267 733c ea0f a23d c0f5 a1bb
00000100: 0db7 54be 7850 cdbc dd8c 85bc 14d6 98bb
00000110: 4b11 8f3e 3b18 0bbe a55c 163e 348d 883e
00000120: 8a33 00bd a4c3 29be d1cb cabc 7c58 7fbe
00000130: 6872 fd3d 4221 bcbc 47e6 8d3b 7208 46be
00000140: eadf 2b3e b3a8 0c3e 5b5c 373e 70f5 42be
00000150: c14c 35bd f73b 76be 8746 1cbe 1f19 64bc
00000160: 275e 8b3e 3d8a 2dbe 495a d43d ffac 4bbc
00000170: cc1c 903e c3b0 7cbd c885 e7bd 3322 cdbd
00000180: 8506 503d 1123 72be 2c69 363d 3ffd 60bc
00000190: 0918 d03c 7044 b03d 6ab0 23be 79c9 0ebd
000001a0: 622a 1c3e 365a 933d 5bd0 71bc 0ef9 69bb
000001b0: 10fb 2b3e c9f1 d23d 77f5 713e 7985 46bc
000001c0: 42ec a93d 4c4f 7cbe 5dc0 25bd 9120 94be
000001d0: abaa 2abd 1b7b d73d ffeb ba3d bbaf d73d
000001e0: 4563 0cbe af7d 843c cb05 793e 320c b0bd
000001f0: d701 b4bd 4e05 40be 088d a83e 43e3 ecbb
00000200: 222e 28bc 9a13 8cbc 1672 913e 503e 70bc
00000210: 8ab9 43bd 6053 c13c 7fc5 463d 8b7f 5fbd
00000220: 8dfe 393b df2d 963e 9018 443e 77b5 2a3d
00000230: 2d76 303e aa05 bf3a 526a 903e 62a5 b53a
00000240: 1da2 43be 0d96 163d 1de4 dbbb df58 3a3d
00000250: c86f bd3c 9ed6 443d 856e 1fbe a706 41be
00000260: 550e aebd 7634 c0be 96cf 283d e479 94be
00000270: f115 48bd c8f2 bfbd 4e2c 0dbc 0325 0dbe
00000280: 3e93 033d 8d93 55be 95a6 e9bd c8f6 3a3d
00000290: 89d7 f7bc ddd3 28be d7ff 6e3d 9a89 843e
000002a0: 3b7c 4d3e 08f2 96bd cfa7 fdbc cb9c 80bd
000002b0: 4d4a 403e d172 813b 3387 12bd 1c76 b43d
000002c0: 705a eabd 209a c3bd fcc0 953d efa3 f33d
000002d0: 357f b8bd 85c1 7dbd 6cba 463e 4218 de3b
000002e0: 1819 d53d 1651 ea3c 0051 573d 0a0a 47bc
000002f0: 084b 1f3d 981f c1bd 0cdd cdbd ff9b 103e
00000300: 6471 223d 63ce cbbd 4ab9 93bd 1bcf c73d
00000310: 0f37 5dbe 45d8 3a3e 1ec6 073d 057c b0bd
00000320: 193a 21be 344e 933d 1c41 e73d 3eeb 07be
00000330: 8c43 afbc 148a 8cbd eb5d 3a3d d6cc f13c
00000340: 9ff9 c63d fa42 f6bc 40b7 a03d 91fb 0cbe
00000350: e97d a33d a272 fc3d a904 2f3e 7fdb b63c
00000360: 2838 d9bd b5a4 d83d 80a2 063e d2ee 7d3e
00000370: 2f9a e6bd 14b3 863d 8c25 f73d d858 5b3d
00000380: 1983 f5bd 2c26 a9bc 9373 443e 01a7 dc3d
00000390: 6e76 02bd 5569 c4bd 7eb7 ea3d d2bc ae3c
000003a0: b9b4 3abe e98e 953d 5222 343e dd02 c23c
000003b0: d10b 15be 4974 b03d 188c 4bbe be18 43be
000003c0: 5aac e53d 792c 90bd 0601 813e 025d f5bd
000003d0: 62dd 993b c46a 35bd bb58 3d3d 390e afbe
000003e0: 4e15 183e e95b 94be 8436 20bd c65e fbbc
000003f0: fa18 113d d158 41bd c1f8 b63d 296c 2bbe

gru.bias_ih_l0 f4 [90]
0.12957895 0.09737891 0.106928065 0.07803817 0.14845698 0.22921015 0.13532217 0.17215022
-0.008754734 -0.028187148 0.20557906 0.23042303 -0.044646014 0.16577156 0.09518356 0.17807855
0.22253443 0.04545552 0.19915034 0.29769218 -1.9157127e-05 0.17673449 -0.06417515 -0.07296296
0.25412613 -0.07598296 -0.006028224 0.20951666 0.13099891 -0.047173645 -0.27136633 0.22464919
0.1349442 -0.30344543 0.16046004 -0.29264173 -0.11258499 -0.34459507 -0.048820145 -0.1231003
-0.14370255 -0.27764168 -0.19399904 0.015845513 -0.257533 -0.3452404 -0.38244122 0.09020156
0.11763553 -0.32651207 0.16596614 0.20668203 -0.19939567 0.11495333 0.08097414 -0.023001049
-0.32343397 0.03812628 -0.2632917 -0.23841605 -0.12505807 -0.15173979 0.04789615 -0.13132876
-0.008337407 0.044812582 0.17564796 -0.1070873 0.0415198 -0.20014691 0.08636765 -0.112427995
-0.0939255 -0.06675719 -0.16242519 -0.1773747 0.23291105 0.060957067 0.0042006806 0.044521056
-6.182198e-05 0.06391222 0.05473593 -0.056181833 0.002818768 -0.16955826 -0.2110395 -0.11941827
0.17301686 -0.12398366
00000000: 58b0 043e 986e c73d 1afd da3d 7ad2 9f3d
00000010: 1b05 183e 11b6 6a3e e591 0a3e 2648 303e
00000020: 0470 0fbc bce8 e6bc 5183 523e 04f4 6b3e
00000030: bdde 36bd 05c0 293e 99ef c23d 395a 363e
00000040: 11e0 633e 912f 3a3d 11ee 4b3e 1c6b 983e
00000050: 9eb3 a0b7 e3f9 343e 436e 83bd 9b6d 95bd
00000060: d21c 823e f49c 9bbd 6888 c5bb 898b 563e
00000070: 9424 063e 2739 41bd 87f0 8abe 700a 663e
00000080: d02e 0a3e 335d 9bbe a34f 243e 23d5 95be
00000090: f692 e6bd c46e b0be a2f7 47bd 031c fcbd
000000a0: c326 13be 0d27 8ebe afa7 46be 73ce 813c
000000b0: 5edb 83be 5ac3 b0be 56cf c3be 98bb b83d
000000c0: e6ea f03d 972c a7be 07f3 293e 74a4 533e
000000d0: 612e 4cbe a76c eb3d c5d5 a53d b26c bcbc
000000e0: 2399 a5be 4d2a 1c3d 2bce 86be 5623 74be
000000f0: 390f 00be ad61 1bbe c12e 443d 0c7b 06be
00000100: 9f99 08bc 668d 373d 0fdd 333e 9650 dbbd
00000110: aa10 2a3d 50f3 4cbe 86e1 b03d a640 e6bd
00000120: 035c c0bd feb7 88bd ca52 26be b7a1 35be
00000130: 3c80 6e3e 1eae 793d dda5 893b b65b 363d
00000140: 6ca6 81b8 69e4 823d c832 603d ec1e 66bd
00000150: 14bb 383b aea0 2dbe bd1a 58be 9191 f4bd
00000160: 552b 313e 25eb fdbd

gru.bias_hh_l0 f4 [90]
-0.05859745 0.17623983 -0.032777376 0.007482729 0.09660784 -0.015742924 -0.012109667 -0.11201211
0.0027139673 -0.007277571 -0.038989533 -0.062543444 0.0028548925 0.086031884 -0.06060457 -0.013847294
0.034103364 0.20222369 0.23962274 0.066987865 -0.011246782 -0.055302255 0.06566706 0.09589622
0.14874099 0.1823906 0.084089264 0.07339408 -0.16152543 0.19481322 0.02110448 -0.016437601
-0.017599352 -0.16983514 0.042389475 -0.15136759 -0.37102193 -0.2160747 -0.10086497 -0.20969447
-0.21588326 -0.11837281 -0.12516157 -0.07132824 -0.2311073 -0.12905493 -0.13713267 0.08004167
0.029643802 -0.23490465 -0.07000288 0.01978469 -0.18781656 0.007476936 0.15914084 0.21020433
-0.0021316095 0.015365099 -0.24231248 -0.039867964 0.08951922 -0.04501554 -0.0016047688 0.13472146
-0.17741287 -0.020818776 -0.08230463 -0.26932612 -0.014125596 0.0050794967 -0.06355053 0.09059262
-0.14959428 -0.07445194 -0.181979 -0.15606922 0.24066736 0.12143693 0.21184817 0.07897677
0.060268816 0.082846224 0.19192968 0.057540745 -0.23384693 0.13041142 -0.030376218 -0.12582736
-0.09639297 0.143817
00000000: e103 70bd 3778 343e 9241 06bd ae31 f53b
00000010: 55da c53d 4ef7 80bc a067 46bc 9b66 e5bd
00000020: d1dc 313b b178 eebb 7db3 1fbd c716 80bd
00000030: 2619 3b3b 7c31 b03d 7f3c 78bd c3df 62bc
00000040: f8af 0b3d ba13 4f3e aa5f 753e ef30 893d
00000050: 6c44 38bc 9e84 62bd 747c 863d 3d65 c43d
00000060: 8f4f 183e 9ac4 3a3e fe36 ac3d a34f 963d
00000070: ec66 25be 1e7d 473e 4de3 ac3c 26a8 86bc
00000080: 842c 90bc 43e9 2dbe 96a0 2d3d 1b00 1bbe
00000090: 96f6 bdbe b042 5dbe 4b92 cebd 26ba 56be
000000a0: 8010 5dbe 726d f2bd 5b2a 00be 8a14 92bd
000000b0: 64a7 6cbe fa26 04be 826c 0cbe e3ec a33d
000000c0: 8fd7 f23c d88a 70be ac5d 8fbd 8113 a23c
000000d0: fc52 40be 1601 f53b d1f5 223e ce3f 573e
000000e0: 79b2 0bbb e5bd 7b3c c320 78be 974c 23bd
000000f0: da55 b73d 3762 38bd 1b57 d2ba 6cf4 093e
00000100: b8ab 35be 238c aabc 548f a8bd 1de5 89be
00000110: 0b6f 67bc e871 a63b c826 82bd a088 b93d
00000120: 3e2f 19be 427a 98bd b458 3abe 9cd0 1fbe
00000130: 8171 763e edb3 f83d baee 583e 93be a13d
00000140: 6fdc 763d 48ab a93d 3789 443e d8af 6b3d
00000150: 9275 6fbe 928a 053e 8cd7 f8bc e3d8 00be
00000160: ad69 c5bd c344 133e

gru.weight_ih_l0_reverse f4 [90, 10]
-0.06762703 -0.15258484 -0.08357621 -0.06020064 -0.14866713 0.11802268 0.03465583 0.21321954
0.077817135 0.030515406 0.0628047 0.10538172 -0.014888584 0.065826714 0.30633187 -0.22845414
-0.0047095455 -0.22826186 -0.29059494 -0.049624886 0.010027782 0.21692297 0.079520434 0.10392054
0.07705796 -0.2725759 -0.11193874 -0.113023385 -0.011156727 0.038145456 -0.035850283 -0.026356023
0.1908998 0.014317363 -0.080302015 0.30323672 0.0041750814 0.054067116 0.13747293 0.1384586
0.18236649 0.0219729 0.20092073 0.11297161 -0.059679214 -0.032450132 -0.05488922 -0.22136317
-0.20700546 0.07753959 0.1504304 0.00858911 -0.051930428 0.02429767 -0.16970398 -0.04966037
-0.008183392 -0.06257854 0.16028765 -0.045870773 -0.13189389 0.006388673 -0.09697996 0.15462343
0.07594502 -0.14962874 -0.06257959 -0.05142705 0.023230506 0.07811007 0.06740833 -0.13007733
0.09656315 0.021579953 -0.08555591 0.11513197 0.06454999 -0.058692366 0.023441216 -0.03619716
0.10790366 -0.123991296 0.089508444 -0.025992721 -0.03774063 0.22233133 0.17729771 0.08403751
0.22954814 0.0033352808 0.028516963 0.09310984 0.06843179 -0.11597311 -0.10687797 0.28366396
-0.08365274 0.077362955 0.18252483 0.01786707 -0.09594144 -0.005922454 0.061563198 0.04578532
0.063859574 -0.22061394 -0.06883642 0.034721524 -0.008056672 -0.12269419 0.016462788 -0.15845731
0.007589432 0.11399819 -0.0034624278 -0.07783043 0.086695164 0.1384997 -0.08558 -0.11079751
0.1067238 -0.099867225 -0.16119388 0.120859295 0.17258511 0.026265265 -0.0069785006 -0.022942161
-0.16247466 0.054690287 0.14775571 -0.070758715 0.059327845 -0.06961425 0.117147736 -0.0764571
0.031934276 0.014140776 -0.037039142 -0.16806923 0.045550406 0.19595571 -0.08392651 -0.13347803
0.043953065 0.06405361 -0.085088134 0.03516618 -0.10675801 -0.057256725 0.13420369 -0.11043001
0.08014721 -0.13421273 0.083113104 0.20469303 0.17364755 0.14735651 0.232146 -0.12648524
0.017811347 -0.08003813 -0.030502925 0.19731443 -0.11909172 0.2264756 0.084690504 0.14002697
0.25018537 0.15952125 0.15307218 0.13001548 -0.03802267 0.105043285 -0.022176119 -0.058047574
0.1339428 -0.09872332 -0.2228551 0.109340884 0.23206972 0.05607016 0.04670444 0.09399224
0.20565107 -0.070878096 -0.011357354 -0.07861018 -0.15657733 -0.1332158 -0.1232858 0.16510688
0.15292199 -0.028429983 0.084768325 -0.07459089 -0.11281078 -0.2054536 -0.11574381 -0.15392546
-0.06494296 0.13800158 -0.005462738 -0.066916674 0.058031846 -0.009407298 0.05010427 -0.14314944
0.05890398 0.15092166 -0.0330662 0.050507568 -0.06473147 -0.046518564 0.039199427 0.09641995
0.2554936 0.045597907 0.10176961 0.2052109 -0.110123985 -0.05557028 -0.088767365 0.022006527
-0.13655345 0.20976435 0.16688171 0.11007768 -0.02951463 -0.029172774 -0.17134623 -0.0033112292
0.05375321 0.10771999 0.100832984 0.021223016 0.104679845 0.0825637 -0.11323667 0.15124296
0.18004532 0.17511241 0.1364164 0.17610176 -0.21699841 0.12716179 -0.15693453 -0.07479014
-0.102815434 0.087584056 0.15953904 0.041239243 0.011225559 0.20984171 0.022483842 -0.10129642
00000000: 0a80 8abd 333f 1cbe 012a abbd f294 76bd
00000010: 323c 18be e0b5 f13d 46f3 0d3d 3956 5a3e
00000020: 975e 9f3d 72fb f93c c09f 803d 5fd2 d73d
00000030: 3fef 73bc 28d0 863d 88d7 9c3e e2ef 69be
00000040: 8852 9abb 7abd 69be dcc8 94be 7743 4bbd
00000050: 914b 243c 0e21 5e3e 9cdb a23d 4bd4 d43d
00000060: 90d0 9d3d 128f 8bbe 2340 e5bd ce78 e7bd
00000070: b4ca 36bc 693e 1c3d bfd7 12bd 96e8 d7bc
00000080: 3d7b 433e 5f93 6a3c 6275 a4bd d841 9b3e
00000090: 1fcf 883b 7b75 5d3d b4c5 0c3e 17c8 0d3e
000000a0: 48be 3a3e 8300 b43c 2abe 4d3e a95d e73d
000000b0: 3172 74bd 6eea 04bd 85d3 60bd 07ad 62be
000000c0: 3df9 53be 14cd 9e3d 6d0a 1a3e 57b9 0c3c
000000d0: 00b5 54bd e80b c73c e1c6 2dbe ac68 4bbd
000000e0: a213 06bc 2d29 80bd 7222 243e fee2 3bbd
000000f0: 310f 07be 1358 d13b 6e9d c6bd 9b55 1e3e
00000100: 1089 9b3d 4738 19be ba29 80bd 2ca5 52bd
00000110: e74d be3c 2cf8 9f3d 610d 8a3d fe32 05be
00000120: e7c2 c53d 71c8 b03c f037 afbd 4fca eb3d
00000130: c932 843d 6867 70bd cb07 c03c 7943 14bd
00000140: 98fc dc3d 26ef fdbd 3450 b73d b0ee d4bc
00000150: eb95 1abd d3aa 633e 888d 353e dc1b ac3d
00000160: ab0e 6b3e ba94 5a3b 689c e93c 5fb0 be3d
00000170: f725 8c3d 4f83 edbd d6e2 dabd 673c 913e
00000180: 2152 abbd 7870 9e3d cae7 3a3e f65d 923c
00000190: f27c c4bd 2511 c2bb b129 7c3d 6389 3b3d
000001a0: cfc8 823d 9fe8 61be 1cfa 8cbd 2838 0e3d
000001b0: 2200 04bc 1747 fbbd f8dc 863c a242 22be
000001c0: c5b0 f83b e277 e93d e6e9 62bb 8f65 9fbd
000001d0: 3c8d b13d ded2 0d3e 9144 afbd cee9 e2bd
000001e0: 0292 da3d 3087 ccbd 0210 25be 1485 f73d
000001f0: 27ba 303e 412a d73c e8ab e4bb 33f1 bbbc
00000200: c25f 26be ec02 603d 464d 173e f2e9 90bd
00000210: c101 733d ea91 8ebd 27eb ef3d 8a95 9cbd
00000220: 84cd 023d b7ae 673c 5bb6 17bd 571a 2cbe
00000230: 1093 3a3d 9da8 483e a9e1 abbd 77ae 08be
00000240: 2108 343d 8a2e 833d b042 aebd 6a0a 103d
00000250: f2a3 dabd 0786 6abd b16c 093e 2129 e2bd
00000260: 3824 a43d 106f 09be 3437 aa3d 0d9b 513e
00000270: aad0 313e a0e4 163e aeb7 6d3e 5985 01be
00000280: 1ae9 913c 08eb a3bd 45e1 f9bc cb0c 4a3e
00000290: 5ce6 f3bd 38e9 673e 3772 ad3d 3b63 0f3e
000002a0: 4c18 803e 8a59 233e f4be 1c3e c722 053e
000002b0: a9bd 1bbd ef20 d73d b1aa b5bc 4bc3 6dbd
000002c0: 4d28 093e 742f cabd 2134 64be 1dee df3d
000002d0: afa3 6d3e d3a9 653d 284d 3f3d 017f c03d
000002e0: 3296 523e 8928 91bd 3214 3abc 60fe a0bd
000002f0: cf55 20be b969 08be 447d fcbd c711 293e
00000300: 9597 1c3e ffe5 e8bc 049b ad3d 1cc3 98bd
00000310: 5709 e7bd 6e62 52be 170b edbd a39e 1dbe
00000320: d100 85bd 4950 0d3e c500 b3bb 9c0b 89bd
00000330: cdb2 6d3d 1121 1abc 233a 4d3d c495 12be
00000340: 4d45 713d 358b 1a3e 6c70 07bd 06e1 4e3d
00000350: ef91 84bd 408a 3ebd 948f 203d d377 c53d
00000360: 0fd0 823e dfc4 3a3d 966c d03d ce22 523e
00000370: af88 e1bd a99d 63bd aacb b5bd 0847 b43c
00000380: abd4 0bbe 77cc 563e 0ae3 2a3e 6870 e13d
00000390: aac8 f1bc befb eebc 6375 2fbe 3501 59bb
000003a0: 532c 5c3d 4c9c dc3d 8681 ce3d e4db ad3c
000003b0: 6362 d63d 2817 a93d a1e8 e7bd 6fdf 1a3e
000003c0: cd5d 383e ab50 333e beb0 0b3e 0554 343e
000003d0: d534 5ebe b336 023e 72b3 20be 932b 99bd
000003e0: e690 d2bd 455f b33d 345e 233e 7bea 283d
000003f0: 68eb 373c bfe0 563e 0930 b83c 7f74 cfbd

gru.weight_hh_l0_reverse f4 [90, 30]
0.050432347 0.0012926765 0.009342489 0.08417689 -0.11709176 -0.105867624 0.031408545 0.11553655
-0.031504255 -0.07578571 0.16619626 0.046524487 -0.114856705 0.007832336 -0.04671101 0.13766849
0.059847783 0.012072267 0.1756843 0.15558608 0.22972347 -0.17809796 -0.21671098 -0.0988758
0.28033176 -0.25499564 -0.1273137 -0.02445666 0.11300615 0.030166365 0.08885793 -0.031102035
-0.13117915 0.13998234 0.14105979 -0.04966292 -0.037317906 0.13260515 0.14314924 0.062476043
0.11578218 -0.19273785 -0.06677341 -0.16541156 0.12511541 0.0025519158 -0.034125134 0.20655456
-0.008988954 0.011621577 -0.044824667 -0.041137975 -0.20263231 0.17032401 -0.112575285 -0.05441162
-0.1026318 0.12537652 0.07934657 -0.02960152 -0.035510443 0.20909692 -0.16399106 -0.06405296
0.105724156 0.15848733 -0.077594206 -0.0645606 -0.15570527 0.068684995 -0.1311587 -0.14043227
0.120245285 0.015921345 -0.10113602 -0.09398757 0.10743192 0.021195266 0.14963369 -0.1155169
0.04789317 0.13758403 -0.12874568 -0.036750797 -0.091339305 0.109180264 -0.0066983458 -0.043398846
-0.061584547 0.105395 -0.12867302 -0.020970467 -0.23992622 0.09627405 -0.018670447 0.090408064
-0.058263052 -0.022713922 0.064359054 -0.11128952 0.26318666 -0.006323574 -0.100307524 -0.009452302
0.2583065 0.20845805 0.056981865 0.03887605 -0.001688327 -0.26650578 0.06380246 -0.052584033
-0.0017541299 0.09332085 0.06466586 -0.22056015 -0.13725753 0.2508864 0.2058756 0.16971834
0.002719492 0.25096095 0.10857846 0.13788241 0.008544005 0.051974844 0.20703624 -0.027548319
0.12845248 -0.11953325 0.20889972 -0.05928541 -0.0754923 0.23075029 -0.122648366 -0.094868705
0.054660544 0.053837053 -0.012152198 -0.21834527 0.11243053 0.12861788 0.026309237 -0.09851983
0.11381321 -0.23102959 -0.072054274 0.07972479 0.23452452 0.113190934 -0.10919124 0.20030518
-0.069493555 0.16352654 0.10362485 -0.029742163 -0.055904653 -0.10303538 0.12675387 -0.14746241
0.14936396 0.0044626854 -0.16253647 0.22884504 0.072817996 -0.06151436 -0.07379256 0.03128461
0.2534779 -0.07742207 -0.007456306 -0.17179604 -0.10678968 0.08289123 -0.008593978 0.08077627
0.0203352 0.15510492 0.037619267 0.046815578 -0.045914266 -0.020156246 -0.11235238 0.23797037
0.061891988 -0.18180339 0.12903449 -0.106934 -0.1355979 0.021071453 0.22804676 0.21276379
-0.11478817 -0.032091886 0.21065609 0.22781634 -0.11961049 -0.10419354 0.05989863 0.022346888
0.15000182 -0.1584115 -0.11823907 0.025368907 -0.005949278 -0.18241689 -0.04907514 -0.105731905
-0.030707961 0.08293199 0.14537407 0.073262736 0.050702345 0.08102531 -0.06576911 -0.1792541
-0.07299273 0.046148967 -0.02661953 -0.11179631 0.12025647 -0.08539815 -0.07618694 -0.004798867
-0.039725408 0.16309854 0.02123532 0.046612296 0.11686117 0.23976927 -0.09506659 0.105868526
-0.109077565 -0.11252004 0.18890542 0.0345943 -0.027353045 0.14591515 0.0073597236 0.04733024
-0.20605478 0.1186679 -0.14400503 -0.03620265 -0.023608508 -0.012209988 0.25400165 -0.07156328
-0.04920443 -0.0028128831 0.14892854 -0.008044467 -0.09769712 0.20782545 -0.000630676 0.06910445
00000000: 2692 4e3d 076f a93a 3d11 193c ef64 ac3d
00000010: cecd efbd 20d1 d8bd 3fa6 003d 6d9e ec3d
00000020: 9b0a 01bd 8a35 9bbd 5a2f 2a3e 7690 3e3d
00000030: fe39 ebbd 3353 003c 0b54 3fbd f8f8 0c3e
00000040: f322 753d c2ca 453c 96e6 333e f551 1f3e
00000050: a13c 6b3e 505f 36be 7ce9 5dbe 657f cabd
00000060: a587 8f3e ca8e 82be 865e 02be 5559 c8bc
00000070: c56f e73d 741f f73c 25fb b53d b2c9 febc
00000080: d453 06be 8857 0f3e fa71 103e 596b 4bbd
00000090: a9da 18bd a5c9 073e b795 123e e1e6 7f3d
000000a0: 351f ed3d 125d 45be 7fc0 88bd a661 29be
000000b0: 411e 003e 0b3e 273b ccc6 0bbd 0a83 533e
000000c0: 6846 13bc 6d68 3e3c 129a 37bd 4b80 28bd
000000d0: d87e 4fbe 6b69 2e3e df8d e6bd b8de 5ebd
000000e0: 9f30 d2bd b462 003e 7480 a23d e37e f2bc
000000f0: 6673 11bd 811d 563e 46ed 27be 332e 83bd
00000100: e885 d83d 814a 223e b6e9 9ebd 5938 84bd
00000110: 3471 1fbe b8aa 8c3d 774e 06be 7acd 0fbe
00000120: 2943 f63d 7b6d 823c 6720 cfbd 8e7c c0bd
00000130: 4405 dc3d b2a1 ad3c 9339 193e 2094 ecbd
00000140: a12b 443d d4e2 0c3e e8d5 03be 0188 16bd
00000150: 1a10 bbbd e799 df3d cc7d dbbb fdc2 31bd
00000160: 1440 7cbd 55d9 d73d dcc2 03be 42ca abbc
00000170: 38af 75be 542b c53d c4f2 98bc dd27 b93d
00000180: 3da5 6ebd 8c12 babc aece 833d c3eb e3bd
00000190: 67c0 863e fc35 cfbb 086e cdbd d4dd 1abc
000001a0: c040 843e 0776 553e d165 693d 7e3c 1f3d
000001b0: da4a ddba 7273 88be ddaa 823d 5b62 57bd
000001c0: d5ea e5ba 001f bf3d 896f 843d 85da 61be
000001d0: 3d8d 0cbe 2f74 803e 0ed1 523e a5ca 2d3e
000001e0: 8139 323b f47d 803e 625e de3d 0c31 0d3e
000001f0: 28fc 0b3c 93e3 543d 4f01 543e 03ad e1bc
00000200: 0c89 033e d9cd f4bd cfe9 553e 42d5 72bd
00000210: b59b 9abd ce49 6c3e 112f fbbd 864a c2bd
00000220: bce3 5f3d 3e84 5c3d 031a 47bc e795 5fbe
00000230: fa41 e63d 68b4 033e 7886 d73c c4c4 c9bd
00000240: e616 e93d 0593 6cbe 3191 93bd c046 a33d
00000250: 3227 703e a6d0 e73d a89f dfbd cd1c 4d3e
00000260: a352 8ebd 8073 273e 4439 d43d d6a5 f3bc
00000270: 47fc 64bd 3704 d3bd c4cb 013e 6300 17be
00000280: def2 183e b83b 923b f66f 26be 5b56 6a3e
00000290: 9a21 953d 7bf6 7bbd 8e20 97bd 4b24 003d
000002a0: dbc7 813e 768f 9ebd 0754 f4bb 4deb 2fbe
000002b0: 8cb4 dabd e1c2 a93d c2cd 0cbc 076e a53d
000002c0: 0196 a63c d3d3 1e3e a916 1a3d b1c1 3f3d
000002d0: 9910 3cbd b61e a5bc 0119 e6bd 81ae 733e
000002e0: 7482 7d3d ab2a 3abe 9e21 043e 3700 dbbd
000002f0: 2dda 0abe 0a9e ac3c 1785 693e c0de 593e
00000300: 0f16 ebbd c872 03bd 3bb6 573e b048 693e
00000310: 58f6 f4bd 6c63 d5bd 4458 753d d210 b73c
00000320: 149a 193e a036 22be 5327 f2bd 74d2 cf3c
00000330: 29f2 c2bb 7ecb 3abe 0403 49bd f889 d8bd
00000340: 438f fbbc 3fd8 a93d f1dc 143e c60a 963d
00000350: 43ad 4f3d 99f0 a53d f5b1 86bd 638e 37be
00000360: 367d 95bd b306 3d3d 3311 dabc 77f5 e4bd
00000370: 0649 f63d 3ae5 aebd e607 9cbd d03f 9dbb
00000380: 1cb7 22bd 4e03 273e b2f5 ad3c 89ec 3e3d
00000390: e954 ef3d 1386 753e 46b2 c2bd 99d1 d83d
000003a0: 0f64 dfbd e870 e6bd 6c70 413e c1b2 0d3d
000003b0: 7e13 e0bc c86a 153e d629 f13b 5bdd 413d
000003c0: 0600 53be 2808 f33d 0e76 13be 3b49 14bd
000003d0: a166 c1bc 670c 48bc 810c 823e c58f 92bd
000003e0: 968a 49bd 5958 38bb b980 183e f1cc 03bc
000003f0: 6d15 c8bd 32d0 543e f353 25ba a286 8d3d

gru.bias_ih_l0_reverse f4 [90]
-0.08118459 -0.0003536119 -0.069503985 0.1227451 0.14360087 -0.069370136 0.1359892 -0.0036377043
0.17332497 -0.002165421 0.11863303 0.20077915 0.14071466 0.19905092 0.056770865 0.19436525
0.0065967287 0.037267927 0.2844482 0.032634307 0.2289265 0.06765045 -0.09906152 0.043192714
0.0023491993 0.19819467 -0.040218756 -0.020797335 0.014337719 0.20819923 -0.054275542 -0.0049742935
-0.12783597 -0.24847747 -0.3003351 -0.17864564 0.068737194 -0.1843953 -0.2560403 0.16216968
-0.36482894 0.018151904 -0.22081259 -0.09519474 -0.07265765 0.13226135 -0.09622129 0.16407448
-0.23356277 -0.045913063 -0.15858968 -0.29713595 -0.17222524 -0.20259984 -0.0518518 0.07852274
-0.1735997 0.08623231 -0.14982934 -0.36935133 0.0011313973 0.16639358 0.037858915 0.1496839
-0.060479403 0.10545661 0.20505817 0.13406637 -0.15195139 -0.052724898 0.14869589 0.138343
-0.14165454 0.13205847 0.027741231 -0.02497916 0.1607378 0.19788188 0.16434355 -0.038707048
0.21364765 0.06598751 -0.06526127 -0.12867051 0.16303505 -0.00561639 -0.1336437 0.102524854
0.23196474 0.20228638
00000000: 1b44 a6bd fc64 b9b9 1b58 8ebd c861 fb3d
00000010: 1b0c 133e ee11 8ebd c140 0b3e 8d66 6ebb
00000020: 1a7c 313e bce9 0dbb e0f5 f23d 0d99 4d3e
00000030: 8117 103e 01d4 4b3e 9188 683d af07 473e
00000040: 5f29 d83b 41a6 183d 32a3 913e 8dab 053d
00000050: b56b 6a3e 528c 8a3d c4e0 cabd d8ea 303d
00000060: 06f5 193b 8bf3 4a3e 6cbc 24bd 2c5f aabc
00000070: c1e8 6a3c 2e32 553e 0850 5ebd 66ff a2bb
00000080: 6fe7 02be e170 7ebe 86c5 99be e2ee 36be
00000090: 16c6 8c3d 1fd2 3cbe b717 83be cf0f 263e
000000a0: dcca babe 4db3 943c b21c 62be 76f5 c2bd
000000b0: 89cd 94bd 856f 073e ab0f c5bd 2403 283e
000000c0: 142b 6fbe 560f 3cbd 5565 22be 3422 98be
000000d0: d05b 30be 5576 4fbe 8e62 54bd 88d0 a03d
000000e0: 1fc4 31be 919a b03d dd6c 19be 9e1b bdbe
000000f0: 654b 943a 1463 2a3e f311 1b3d bc46 193e
00000100: 40b9 77bd a3f9 d73d c5fa 513e b248 093e
00000110: 2599 1bbe 10f6 57bd bc43 183e caa9 0d3e
00000120: e30d 11be 563a 073e 9441 e33c 18a1 ccbc
00000130: 7398 243e 8ca1 4a3e ad49 283e 488b 1ebd
00000140: 73c6 5a3e 7624 873d b3a7 85bd 34c2 03be
00000150: a9f2 263e b209 b8bb e5d9 08be 8df8 d13d
00000160: 2a88 6d3e 2924 4f3e

gru.bias_hh_l0_reverse f4 [90]
-0.027356585 -0.114196055 -0.07444808 -0.029370254 0.16659008 -0.012307541 -0.082765214 -0.035792843
-0.04675694 0.16543366 0.14126578 -0.10828208 0.09197866 -0.0535749 0.08832358 -0.11573972
-0.029565096 0.24864133 0.27940232 -0.17974131 -0.0070074573 0.21217398 0.021952933 -0.018036408
0.04773534 0.21156462 -0.056957483 0.048939146 0.25626728 -0.070601515 -0.07335727 -0.16901009
-0.14263298 -0.35158315 -0.27481803 0.08402233 0.10346715 -0.21164005 -0.07117469 -0.0039678626
-0.21043292 -0.07064368 0.0739753 -0.100474864 -0.14855324 0.06129331 -0.07532414 -0.07677249
-0.16201168 -0.29522958 -0.16944611 -0.21352716 -0.045002025 -0.060326036 -0.20966512 0.039452095
-0.16092819 -0.21261764 -0.29136482 -0.12673707 -0.15226811 -0.072526634 -0.1859988 0.08127269
-0.18519938 -0.16982734 0.06415501 -0.113101654 0.11163005 -0.20407088 0.02589201 0.014475952
0.0951685 -0.10275818 0.16617037 -0.0796048 -0.12804416 0.13045126 0.17072602 -0.15739474
-0.0007782328 -0.049857687 -0.13721503 0.052597485 0.08360819 0.0035437085 -0.15713486 0.16827017
0.23537128 -0.1350749
00000000: eb1a e0bc 9fdf e9bd 3c78 98bd e399 f0bc
00000010: 9796 2a3e 92a5 49bc cf80 a9bd 849b 12bd
00000020: 3584 3fbd 7167 293e faa7 103e ffc2 ddbd
00000030: 4f5f bc3d 5b71 5bbd fee2 b43d f208 edbd
00000040: 8032 f2bc d59b 7e3e d20d 8f3e 1b0e 38be
00000050: d09e e5bb 2344 593e a3d6 b33c 17c1 93bc
00000060: 2286 433d 65a4 583e 404c 69bd 6a74 483d
00000070: 7735 833e 8797 90bd 563c 96bd fb10 2dbe
00000080: 610e 12be b502 b4be f3b4 8cbe e613 ac3d
00000090: 96e6 d33d 2bb8 58be 09c4 91bd d804 82bb
000000a0: ba7b 57be a2ad 90bd 5d80 973d c4c5 cdbd
000000b0: 571e 18be b20e 7b3d 8b43 9abd e53a 9dbd
000000c0: 64e6 25be 5528 97be 4883 2dbe dda6 5abe
000000d0: 0b54 38bd 6f18 77bd 74b2 56be 8598 213d
000000e0: 5cca 24be 70b8 59be c52d 95be 5dc7 01be
000000f0: 2cec 1bbe d888 94bd 7876 3ebe 4c72 a63d
00000100: e8a4 3dbe 38e7 2dbe b463 833d d7a1 e7bd
00000110: 4c9e e43d f5f7 50be 7b1b d43c 8b2c 6d3c
00000120: b4e7 c23d e172 d2bd 9128 2a3e d707 a3bd
00000130: 021e 03be 0495 053e cdd2 2e3e 162c 21be
00000140: 5202 4cba 9337 4cbd 1982 0cbe 7670 573d
00000150: c53a ab3d 903d 683b f6e7 20be 044f 2c3e
00000160: 2b05 713e 1351 0abe

gru.weight_ih_l1 f4 [90, 60]
0.13741764 -0.1193891 -0.018349255 0.10407805 0.08925654 0.08085873 0.20759617 0.046518017
-0.13385622 -0.046134666 0.13611636 -0.0627169 0.16240707 -0.1560365 0.10473827 0.112821564
0.0579894 0.018462831 0.062161244 0.019544851 -0.11460033 0.035727043 0.015602914 -0.18781546
-0.17860833 0.07944342 -0.10909138 0.15947178 -0.096737556 0.087701894 0.038168423 -0.17967314
0.074105896 0.098932736 -0.096424155 0.06591539 -0.1324995 -0.005757537 -0.12568326 0.10388915
-0.017469998 0.17763476 -0.039394885 -0.15374403 -0.017875575 -0.1897124 -0.22714368 0.11470688
-0.012695468 -0.010652832 0.09601496 0.14997019 -0.05905641 0.09456439 -0.199324 0.023342958
-0.118745066 -0.08638661 -0.1003794 -0.02060189 -0.16172168 0.084060766 -0.06740148 -0.16678664
-0.14904505 0.088130645 -0.011964436 0.1633069 -0.003650481 0.102306426 -0.07879135 -0.01700481
-0.17722328 0.10794426 -0.16317236 0.09489223 -0.1021139 -0.07423346 0.0027019752 0.18903366
-0.15076916 -0.09221532 0.023318615 0.089252785 -0.19327115 -0.089958675 0.10592553 0.030434083
-0.13448551 -0.075453326 -0.00019941144 0.027002832 -0.12508768 -0.1408571 -0.1370697 0.020866444
0.15328431 0.0672583 0.048434533 0.031750403 0.117505856 0.071341015 -0.0030629616 -0.13399214
-0.02292406 0.15850732 0.11344151 -0.13640368 0.10902214 -0.08265331 -0.12351216 -0.013329899
-0.18202242 0.0004217788 -0.14818797 0.004849038 0.15111557 0.011628465 0.02062346 -0.062806256
-0.05934734 -0.14569469 0.057289004 0.28839928 0.17137754 -0.064389534 -0.019767156 -0.053817898
0.22041042 0.0062019327 -0.039283417 0.08465724 0.0320623 -0.09764848 -0.18629915 0.106702015
-0.2046485 -0.15378237 0.050439157 0.014333102 -0.11168124 0.01564473 -0.1601347 0.04839756
-0.07764214 0.04993403 0.05736559 0.14020029 -0.25690463 -0.21072954 -0.09936989 -0.03125705
-0.05682314 0.011651168 -0.16979566 -0.085137315 -0.15384969 -0.19250119 -0.07546156 -0.12884063
0.0012459703 -0.21488702 0.102485925 -0.060863264 0.058269043 -0.047857724 -0.15590996 -0.12254025
-0.028154025 -0.046409927 -0.028062727 0.12608276 0.09853147 0.07018355 0.06014613 -0.12532851
0.034542844 -0.1430253 -0.10403203 0.119747 -0.11593518 0.010763416 0.15478319 0.20284827
-0.05172998 -0.26435262 -0.033720803 0.052609637 -0.09862607 0.17913605 0.17393339 0.17217061
0.13616261 0.07203436 -0.28609186 -0.07925788 -0.10941411 0.083339125 -0.12308298 -0.14587365
-0.10323304 0.037867665 -0.17384954 -0.1458895 -0.016640961 -0.0022039493 -0.08836308 -0.009139089
-0.19553484 -0.24421173 0.058635343 0.21764678 0.017061109 0.10530294 -0.036286645 -0.009550024
0.02397051 -0.013756348 0.18215688 0.1195861 0.027748514 -0.048740383 0.013518243 0.20610987
-0.072223105 0.19200341 0.09523681 0.16424805 -0.095318444 0.04052084 -0.076427534 0.038119826
-0.28636333 0.11830388 0.032192077 0.104873165 0.054884057 0.07588344 0.08301179 0.10236744
-0.10813166 -0.1727021 0.09006727 0.124649405 -0.008844038 -0.016534563 -0.0660094 -0.1520025
-0.049638405 0.010671534 0.25310275 0.15518919 -0.075596675 -0.08564767 -0.20938635 -0.15605491
00000000: 36b7 0c3e 4682 f4bd 2d51 96bc df26 d53d
00000010: 22cc b63d 4399 a53d 1794 543e ad89 3e3d
00000020: 9b11 09be b4f7 3cbd 1662 0b3e b871 80bd
00000030: 0a4e 263e 08c8 1fbe 0581 d63d fe0e e73d
00000040: 4b86 6d3d 5d3f 973c ca9c 7e3d 861c a03c
00000050: 94b3 eabd 8556 123d 5da3 7f3c b252 40be
00000060: 1ae5 36be 3bb3 a23d 4d6b dfbd 924c 233e
00000070: 571e c6bd 0d9d b33d 7e56 1c3d 3cfc 37be
00000080: d5c4 973d 3f9d ca3d 077a c5bd a6fe 863d
00000090: f3ad 07be b9a9 bcbb 1db3 00be d6c3 d43d
000000a0: 3e1d 8fbc e3e5 353e 885c 21bd 136f 1dbe
000000b0: cc6f 92bc f843 42be 5a98 68be 71eb ea3d
000000c0: a700 50bc 3789 2ebc 7ea3 c43d c991 193e
000000d0: 22e5 71bd faaa c13d 971b 4cbe bb39 bf3c
000000e0: 9d30 f3bd 77eb b0bd b793 cdbd 4bc5 a8bc
000000f0: 5e9a 25be 0d28 ac3d ca09 8abd 1eca 2abe
00000100: 449f 18be d77d b43d 7b06 44bc ed39 273e
00000110: e93c 6fbb 0886 d13d 5c5d a1bd ac4d 8bbc
00000120: 057a 35be e111 dd3d a816 27be dc56 c23d
00000130: 1821 d1bd b607 98bd 9f13 313b 0a92 413e
00000140: 3b63 1abe 63db bcbd ae06 bf3c 2aca b63d
00000150: dfe8 45be 413c b8bd 7cef d83d e650 f93c
00000160: 92b6 09be 4687 9abd 1a19 51b9 0b35 dd3c
00000170: fc16 00be d83c 10be 005c 0cbe 1bf0 aa3c
00000180: 90f6 1c3e b8be 893d 4a63 463d b60c 023d
00000190: e9a6 f03d 3d1b 923d f8bb 48bb 3c35 09be
000001a0: 3dcb bbbc be4f 223e 0654 e83d 68ad 0bbe
000001b0: 0047 df3d 2346 a9bd f1f3 fcbd a665 5abc
000001c0: 1664 3abe 3122 dd39 96be 17be aee4 9e3b
000001d0: 0abe 1a3e 5185 3e3c 88f2 a83c 91a0 80bd
000001e0: 3216 73bd fd30 15be e0a7 6a3d 12a9 933e
000001f0: 987d 2f3e a9de 83bd bbee a1bc 2870 5cbd
00000200: 45b3 613e 9539 cb3b a6e7 20bd c660 ad3d
00000210: c253 033d edfb c7bd 34c5 3ebe 9686 da3d
00000220: 608f 51be 2079 1dbe 4a99 4e3d 63d5 6a3c
00000230: 22b9 e4bd 6029 803c 5afa 23be 853c 463d
00000240: d802 9fbd a087 4c3d 2ef8 6a3d aa90 0f3e
00000250: 0189 83be 7cc9 57be 7182 cbbd 6407 00bd
00000260: 61bf 68bd 8ae4 3e3c eade 2dbe 795c aebd
00000270: c68a 1dbe 081f 45be 978b 9abd ccee 03be
00000280: d34f a33a 580b 5cbe 24e4 d13d c24b 79bd
00000290: 85ab 6e3d 7606 44bd dca6 1fbe 62f6 fabd
000002a0: 45a3 e6bc 5618 3ebd cee3 e5bc d71b 013e
000002b0: deca c93d 65bc 8f3d ca5b 763d 1e56 00be
000002c0: cc7c 0d3d 3975 12be bf0e d5bd ea3d f53d
000002d0: 6c6f edbd 0a59 303c 7c7f 1e3e 75b7 4f3e
000002e0: d1e2 53bd 3a59 87be d31e 0abd 347d 573d
000002f0: 77fc c9bd 716f 373e 981b 323e 7e4d 303e
00000300: 366e 0b3e c086 933d a27a 92be f551 a2bd
00000310: 8114 e0bd b4ad aa3d ee12 fcbd e75f 15be
00000320: d86b d3bd 201b 1b3d 9d05 32be 0f64 15be
00000330: a052 88bc 2270 10bb b4f7 b4bd 1ebc 15bc
00000340: 493a 48be a412 7abe 9d2b 703d ccde 5e3e
00000350: bdc3 8b3c 11a9 d73d 4ea1 14bd b477 1cbc
00000360: ce5d c43c 4e62 61bc 5587 3a3e 8fe9 f43d
00000370: da50 e33c ffa3 47bd 9f7b 5d3c 770e 533e
00000380: b5e9 93bd 8b9c 443e 840b c33d a430 283e
00000390: 5136 c3bd 2ef9 253d 0a86 9cbd 8923 1c3d
000003a0: 379e 92be 4e49 f23d d7db 033d bec7 d63d
000003b0: 1bce 603d c768 9b3d 1602 aa3d 05a6 d13d
000003c0: 2274 ddbd d2d8 30be 3075 b83d 3048 ff3d
000003d0: 95e6 10bc 7e73 87bc f02f 87bd 8ba6 1bbe
000003e0: a451 4bbd a8d7 2e3c af96 813e eae9 1e3e
000003f0: 6ed2 9abd 0c68 afbd 6069 56be dccc 1fbe

gru.weight_hh_l1 f4 [90, 30]
0.0713562 -0.1793117 -0.101615176 0.07254749 0.15316586 -0.009601121 0.18602224 0.02359415
0.11280525 0.10042626 -0.018030338 -0.10845929 -0.07086088 -0.14269769 -0.048627667 -0.08047453
-0.01523683 0.062369507 -0.05736112 0.103927076 -0.20456639 -0.11758164 -0.14250407 -0.06922838
-0.051871467 -0.07091803 -0.0021794916 -0.099281475 -0.066189416 0.058936488 0.19174299 -0.07548794
0.08457143 -0.010911328 -0.198817 -0.05172604 -0.21075593 0.20787744 0.1320413 0.08691669
-0.12924856 0.12843508 0.12763378 0.02929972 0.19361243 0.11980158 0.010614888 0.19313054
0.04468269 0.117300116 -0.071648136 -0.13341582 0.026877204 0.07465512 -0.0913742 -0.07810649
0.05218219 0.17769429 -0.084893905 0.04767891 0.08017829 0.0075317756 0.107414365 0.09326674
0.1498872 -0.0956925 -0.13685174 -0.017117385 0.12389578 0.06825181 0.021715673 -0.13631514
-0.00919347 0.01739063 0.04724102 -0.15267402 0.07164831 0.09323864 -0.071874805 -0.09740533
0.022524605 -0.093806915 -0.107383214 0.10380772 0.13436684 0.05612788 -0.14757204 -0.16672446
-0.004308674 -0.110674135 0.12552541 -0.06505933 0.08389888 0.14508276 -0.15297459 -0.14793476
0.13130747 -0.08149825 0.03623161 -0.062382676 -0.0076466063 0.1494065 0.032898117 -0.09120431
0.1628162 -0.01595532 0.030961948 -0.23855472 -0.10164128 0.17851941 0.14026704 0.012967573
-0.20274003 -0.0045372946 -0.06253086 -0.15601882 0.031988665 0.047641642 0.03841321 -0.11991572
-0.060512763 -0.09331672 -0.14006928 -0.033351295 -0.2356526 -0.12991768 0.030886533 0.007071964
0.10171515 0.070747316 -0.16083185 -0.12826192 0.15973519 0.12257972 -0.023437595 -0.12057622
0.030504884 -0.079213694 -0.07141984 0.0020093913 0.19596717 -0.08007702 -0.11431425 -0.005472533
0.05843259 0.039522447 -0.066774465 -0.052877106 -0.10670662 -0.04030121 -0.070131026 0.15948704
-0.17879869 -0.0645193 -0.006089647 -0.026515815 -0.06273639 0.025099384 0.052180424 -0.059606466
-0.1596835 -0.13926636 -0.11896348 -0.13683513 0.15158094 -0.078784086 0.07999219 0.18835393
0.03944676 0.19493839 0.22712712 0.14306948 0.15475032 -0.060580723 -0.094882645 0.055370994
-0.12992746 0.24176182 0.17450476 -0.10711753 -0.13533138 -0.121205784 0.101246305 -0.024716776
0.09011705 -0.10255272 -0.079864606 0.112077475 0.040336348 -0.035877526 -0.06954196 0.027393434
0.18483801 -0.15156576 -0.120439805 -0.0040817754 0.18117353 0.019086562 0.02508627 0.039935216
0.07538112 -0.060243092 0.08689739 -0.002411438 -0.062299605 0.009406747 -0.13925567 -0.112527646
-0.036892932 -0.08382258 -0.039143965 0.12411665 0.052408934 -0.1979608 -0.033814777 -0.124399796
-0.0052987356 0.13707852 -0.036168434 0.01648043 -0.02196611 0.035981335 -0.1763651 -0.0028851784
0.034848668 -0.13242464 0.0058047236 -0.06977766 0.11186899 -0.0973449 -0.050890256 0.062266722
0.16612375 0.13628225 0.20373987 -0.21001978 0.02343 -0.022516705 -0.13929132 -0.11301869
0.14621629 0.080111 0.027186813 -0.00823368 -0.00011042984 -0.12231571 -0.024292374 0.09940723
0.19275141 0.055433456 -0.060773585 0.16757815 0.09828594 0.07309197 0.16019152 -0.061841868
00000000: 3323 923d 7c9d 37be 9e1b d0bd c793 943d
00000010: 83d7 1c3e 054e 1dbc 9d7c 3e3e 8548 c13c
00000020: 7006 e73d 48ac cd3d 5cb4 93bc e71f debd
00000030: 821f 91bd 581f 12be ce2d 47bd d5cf a4bd
00000040: e6a3 79bc 2b77 7f3d 7ef3 6abd b8d7 d43d
00000050: da79 51be a5ce f0bd 96ec 11be 9cc7 8dbd
00000060: 2d77 54bd 793d 91bd cdd5 0ebb 1654 cbbd
00000070: 518e 87bd 6367 713d 4658 443e 6c99 9abd
00000080: c933 ad3d 6dc5 32bc af96 4bbe afde 53bd
00000090: 67d0 57be d3dd 543e d635 073e 6101 b23d
000000a0: bc59 04be 7c84 033e 6eb2 023e f705 f03c
000000b0: 5642 463e 885a f53d 11ea 2d3c 03c4 453e
000000c0: 3205 373d 0b3b f03d 42bc 92bd 289e 08be
000000d0: 952d dc3c c9e4 983d 6622 bbbd 4cf6 9fbd
000000e0: febc 553d 7ef5 353e dbdc adbd f64a 433d
000000f0: 8434 a43d 1dcd f63b 10fc db3d a202 bf3d
00000100: 087c 193e 6efa c3bd dd22 0cbe c239 8cbc
00000110: 12bd fd3d 9bc7 8b3d 11e5 b13c 3296 0bbe
00000120: 35a0 16bc cb76 8e3c cd7f 413d 9456 1cbe
00000130: 59bc 923d e6f3 be3d 1933 93bd 727c c7bd
00000140: 8585 b83c d71d c0bd bbeb dbbd 2499 d43d
00000150: 7697 093e 59e6 653d 201d 17be d1b9 2abe
00000160: c72f 8dbb 1fa9 e2bd bc89 003e d33d 85bd
00000170: 2dd3 ab3d 9390 143e 5fa5 1cbe 367c 17be
00000180: 7775 063e 8ee8 a6bd 9967 143d fa84 7fbd
00000190: 6290 fabb 04fe 183e 2dc0 063d 53c9 babd
000001a0: 4ab9 263e bbb4 82bc e9a3 fd3c b047 74be
000001b0: 4e29 d0bd cbcd 363e 2aa2 0f3e f175 543c
000001c0: 159b 4fbe 96ad 94bb 2e10 80bd 66c3 1fbe
000001d0: 8c06 033d e223 433d 2c57 1d3d 5f96 f5bd
000001e0: 3bdc 77bd d61c bfbd 526e 0fbe 5e9b 08bd
000001f0: ea4e 71be 2409 05be c105 fd3c efbb e73b
00000200: 0850 d03d f8e3 903d 1bb1 24be 1857 03be
00000210: 9f91 233e 140b fb3d 3300 c0bc aaf0 f6bd
00000220: 61e5 f93c ca3a a2bd 9144 92bd feaf 033b
00000230: 9eab 483e 6cff a3bd 971d eabd ef52 b3bb
00000240: 0357 6f3d 4ae2 213d 0dc1 88bd aa95 58bd
00000250: 0089 dabd e212 25bd dba0 8fbd 9250 233e
00000260: 0117 37be b222 84bd a98b c7bb b237 d9bc
00000270: f07b 80bd 399d cd3c 24bb 553d e925 74bd
00000280: 1284 23be d79b 0ebe 20a3 f3bd 821e 0cbe
00000290: 0938 1b3e 8d59 a1bd f2d2 a33d dadf 403e
000002a0: ed92 213d ee9d 473e 0394 683e ce80 123e
000002b0: de76 1e3e 7e23 78bd d551 c2bd b2cc 623d
000002c0: b40b 05be 6990 773e 60b1 323e 7060 dbbd
000002d0: 4f94 0abe bd3a f8bd 395a cf3d d67a cabc
000002e0: 4a8f b83d 2907 d2bd 0e90 a3bd e088 e53d
000002f0: ba37 253d 50f4 12bd 046c 8ebd 3268 e03c
00000300: 2d46 3d3e 0e34 1bbe 25a9 f6bd 6ac0 85bb
00000310: 8e85 393e 6c5b 9c3c b981 cd3c 1c93 233d
00000320: 6b61 9a3d 76c1 76bd 42f7 b13d 3709 1ebb
00000330: df2d 7fbd c21e 1a3c 0a99 0ebe e574 e6bd
00000340: 0b1d 17bd 2cab abbd 6c55 20bd df30 fe3d
00000350: c0aa 563d 3cb6 4abe 5d81 0abd 52c5 febd
00000360: 04a1 adbb 505e 0c3e 5a25 14bd f701 873c
00000370: 46f2 b3bc 2a61 133d 0e99 34be 4315 3dbb
00000380: 7abd 0e3d 539a 07be 8d35 be3b 97e7 8ebd
00000390: 921b e53d c35c c7bd 4d72 50bd 640b 7f3d
000003a0: 581c 2a3e 938d 0b3e 2fa1 503e 6d0f 57be
000003b0: 45f0 bf3c f474 b8bc 62a2 0ebe 5876 e7bd
000003c0: b9b9 153e 3c11 a43d e1b6 de3c 8fe6 06bc
000003d0: 9296 e7b8 a980 fabd cd00 c7bc 0596 cb3d
000003e0: a060 453e 310e 633d b9ed 78bd 9b99 2b3e
000003f0: 244a c93d 3eb1 953d 3f09 243e e64d 7dbd

gru.bias_ih_l1 f4 [90]
-0.17149006 -0.005301798 -0.08681666 0.17953478 -0.10448221 0.18601844 0.14249296 0.030085761
-0.0852241 -0.11777532 0.089145325 0.12598395 -0.19327004 0.17071524 -0.07357084 0.14998916
-0.0020182908 0.0659424 0.14940289 -0.14702122 0.021307921 -0.115102604 -7.536631e-05 0.080022685
0.01697884 0.021735696 -0.021340888 0.03863282 0.16046213 -0.0019185913 0.06428063 0.037403315
-0.3038684 0.050679144 0.1742955 0.082744256 -0.031551138 -0.06845409 -0.124996044 0.1055537
-0.047889184 -0.21509607 -0.16584465 0.16655847 0.041293368 -0.17597328 -0.05625442 -0.07134149
-0.0330252 0.18430348 -0.1291502 0.1660084 -0.051386084 -0.06999833 -0.3237517 -0.03798856
-0.009735234 -0.3818504 0.006184249 -0.066801235 0.017217614 0.16431306 0.15422662 -0.018229017
-0.10085878 0.10221354 -0.03530128 -0.028416188 0.14670303 0.15123145 -0.035157956 -0.09823268
-0.14920314 0.03871523 0.16826522 -0.020127011 0.16373312 -0.031128295 -0.17041388 -0.12777643
0.15540816 0.16775844 -0.16441412 0.041651502 -0.14543928 0.025595432 0.20784062 0.04604647
-0.085582346 0.13252132
00000000: 179b 2fbe b5ba adbb efcc b1bd f7d7 373e
00000010: c5fa d5bd 9e7b 3e3e ade9 113e 6a76 f63c
00000020: f989 aebd 3034 f1bd d391 b63d f001 013e
00000030: 95e8 45be facf 2e3e 4fac 96bd c296 193e
00000040: 4d45 04bb cf0c 873d 12fd 183e bb8c 16be
00000050: f38d ae3c eaba ebbd fb0d 9eb8 efe2 a33d
00000060: 3517 8b3c 0f0f b23c 16d3 aebc 733d 1e3d
00000070: 2f50 243e 3e79 fbba 90a5 833d 3834 193d
00000080: a494 9bbe ef94 4f3d 857a 323e d275 a93d
00000090: c43b 01bd a831 8cbd edfd ffbd 8a2c d83d
000000a0: 7327 44bd 2542 5cbe 2ed3 29be 4e8e 2a3e
000000b0: 3c23 293d 5732 34be 096b 66bd 7d1b 92bd
000000c0: 6f45 07bd 0dba 3c3e f33f 04be 1bfe 293e
000000d0: 377a 52bd 495b 8fbd c8c2 a5be e499 1bbd
000000e0: 8880 1fbc e581 c3be 3ea5 ca3b 16cf 88bd
000000f0: f40b 8d3c af41 283e 95ed 1d3e 0555 95bc
00000100: 0c8f cebd 5555 d13d 1398 10bd 11c9 e8bc
00000110: 5239 163e 6bdc 1a3e ca01 10bd 372e c9bd
00000120: b5c8 18be dc93 1e3d b84d 2c3e 67e1 a4bc
00000130: a8a9 273e c400 ffbc fa80 2ebe d3d7 02be
00000140: 5123 1f3e dec8 2b3e 2d5c 28be c49a 2a3d
00000150: 09ee 14be 83ad d13c 2cd4 543e 399b 3c3d
00000160: cc45 afbd abb3 073e
